models/model_11.pt (torch, 309800 bytes, 18 tensors)

weight f4 [76, 1, 2, 2]
0	0x3e365918	0.17807424
1	0x3e060944	0.13089472
2	0xbc8368e0	-0.01604122
3	0x3e9c9e6e	0.30589622
4	0xbce12000	-0.02748108
5	0x3e656504	0.22401816
6	0x3e9a9dee	0.30198616
7	0xbe30ee8c	-0.17278498
8	0xbbbc9280	-0.005754769
9	0x3d50c5b0	0.05096978
10	0x3ef733ce	0.4828171
11	0x3e6d4a54	0.23172885
12	0x3e087d5c	0.13329071
13	0xbeb10726	-0.34575766
14	0xbeb72cca	-0.3577636
15	0x3b516700	0.0031952262
16	0x3eedd2e0	0.46449947
17	0xbe068d28	-0.13139784
18	0x3e99d17e	0.30042642
19	0xbee5153e	-0.4474277
20	0xbe9dd69c	-0.30827796
21	0xbe97572c	-0.29558694
22	0xbe40e2c8	-0.1883651
23	0x3d28a380	0.04117155
24	0xbe39e780	-0.18154716
25	0xbe555d48	-0.20836365
26	0xbed0f1fa	-0.40809613
27	0xbed85d94	-0.42258894
28	0xbec646a6	-0.38725775
29	0xbe8e85c2	-0.27836424
30	0xbe5064a8	-0.20350897
31	0x3eae2cfc	0.34018695
32	0xbed199b4	-0.4093758
33	0xbec4e448	-0.38455415
34	0xbed9c344	-0.42531788
35	0xbee3e012	-0.4450689
36	0x3eb18a8c	0.34676015
37	0xbe307720	-0.17232943
38	0x3ce16c20	0.027517378
39	0x3ee17a98	0.44038844
40	0x3e966800	0.2937622
41	0x3e0cb4a0	0.13740778
42	0x3d136530	0.03598517
43	0xbec97478	-0.3934667
44	0xbe8ca464	-0.2746917
45	0xbebb7626	-0.36613578
46	0xbed9fdfa	-0.4257658
47	0xbc513a40	-0.012770236
48	0x3ea7ec44	0.32797444
49	0xbe87b4fe	-0.26505274
50	0x3ecf57fe	0.4049682
51	0xbda8d040	-0.082428455
52	0x3eccea82	0.40022665
53	0xbee63d02	-0.4496842
54	0xbea79314	-0.327294
55	0xbecfd360	-0.40590954
56	0x3e172d74	0.14763433
57	0xbe842fd6	-0.25817746
58	0x3ed20e36	0.41026467
59	0x3e0d2038	0.13781822
60	0xbddd6228	-0.108097374
61	0xbe9f8002	-0.3115235
62	0x3ed43ba2	0.41451746
63	0xbea67192	-0.32508522
64	0x3e35a018	0.17736852
65	0x3e784924	0.24246651
66	0x3ddf95d0	0.10917246
67	0xbed21020	-0.41027927
68	0xbdfcac18	-0.12337512
69	0x3ed01ec4	0.40648472
70	0xbef56972	-0.4793201
71	0xbe7fd4d8	-0.24983537
72	0xbea9a78a	-0.33135635
73	0xbd7bb4a0	-0.061451554
74	0xbed40976	-0.41413468
75	0x3e247750	0.16061139
76	0x3e3c004c	0.18359488
77	0xbeb0e872	-0.34552342
78	0xbeb0f88e	-0.34564632
79	0xbe035148	-0.12823975
80	0x3e756688	0.23964894
81	0x3ef8b9d4	0.48579276
82	0x3e845a02	0.2584992
83	0x3d867cd0	0.06566775
84	0x3ed99826	0.42498893
85	0xbee6aca2	-0.45053583
86	0xbe2f45ac	-0.17116421
87	0x3ed8d668	0.4235108
88	0xbe9dfd96	-0.30857533
89	0x3db01090	0.08596909
90	0x3eeaa870	0.45831633
91	0xbdf44660	-0.119274855
92	0x3e9f3500	0.31095123
93	0xbe396634	-0.18105394
94	0xbe843fb4	-0.25829852
95	0x3eba3188	0.36365914
96	0x3ee9d328	0.45668912
97	0xbe95b64a	-0.29240638
98	0xbd6e1820	-0.058128476
99	0xbea81d6a	-0.3283494
100	0xbe8bf89a	-0.27338105
101	0x3e57248c	0.21010035
102	0xbe7560a8	-0.23962653
103	0x3e3ddd40	0.18541431
104	0x3e8f68ca	0.28009635
105	0xbef25a9a	-0.47334749
106	0xbdf6f488	-0.120583594
107	0xbd5218a0	-0.051293015
108	0x3eea1cb0	0.45725012
109	0xbecea36a	-0.4035905
110	0xbee9f896	-0.4569747
111	0x3ed9f13a	0.42566854
112	0x3e9d5dae	0.30735534
113	0xbed27346	-0.41103572
114	0x3d0e7970	0.03478378
115	0xbdd4a7b8	-0.10383552
116	0xbeb6f73c	-0.357355
117	0xbed542c2	-0.41652495
118	0x3ef13002	0.4710694
119	0x3ea40184	0.32032406
120	0x3ea92556	0.33036298
121	0xbeb57166	-0.3543808
122	0x3efc9d00	0.49338531
123	0xbe9b5b1e	-0.30342954
124	0x3e687234	0.22699815
125	0x3ed89c70	0.42306852
126	0xbe8bba76	-0.27290696
127	0x3eafce04	0.34336865
128	0xbde3f200	-0.11130142
129	0xbebc4c30	-0.36776876
130	0x3cbd88a0	0.023136437
131	0x3d871000	0.06594849
132	0xbe44885c	-0.19192642
133	0x3db27c08	0.08715063
134	0xbdf2e2b0	-0.118596435
135	0x3e9eabac	0.3099035
136	0xbc9f6120	-0.019455492
137	0xbebc63ea	-0.36794978
138	0x3e0f977c	0.1402263
139	0x3e068d08	0.13139737
140	0x3eb3a858	0.35089374
141	0xbe3b3fcc	-0.18286055
142	0xbeb2b6a0	-0.34904957
143	0xbed277f2	-0.41107136
144	0x3e858864	0.2608062
145	0x3ceb20c0	0.02870214
146	0xbe9246ee	-0.2856974
147	0x3eac1dd2	0.336165
148	0x3e23cc8c	0.15995997
149	0x3ec68ed0	0.38780832
150	0xbe1cfb54	-0.15330249
151	0xbd7ad830	-0.06124133
152	0xbed6b990	-0.41938448
153	0xbeadefc2	-0.33971983
154	0x3ee81078	0.45325065
155	0x3e35b3e4	0.17744404
156	0xbedc03b0	-0.42971563
157	0x3eb55c9e	0.35422224
158	0xbeda840a	-0.42678863
159	0xbec7d300	-0.39028168
160	0xbe54a5a4	-0.20766312
161	0xbe869bbe	-0.26290697
162	0x3ef6b18e	0.48182338
163	0x3e26010c	0.16211337
164	0x3e9afdd4	0.3027178
165	0xbed68c5c	-0.4190396
166	0xbcfbd4e0	-0.030741155
167	0x3dc63e68	0.09679872
168	0xbe5caa44	-0.21549326
169	0xbdb0fe40	-0.08642244
170	0xbe4b26f8	-0.19839084
171	0x3ed45622	0.41471964
172	0x3e7bef98	0.24603117
173	0x3ec6c650	0.38823175
174	0xbe6dba64	-0.23215634
175	0xbeeeedfc	-0.46665943
176	0xbd1662a0	-0.03671515
177	0x3dc878f0	0.09788692
178	0xbd2096c0	-0.039206266
179	0x3dedce00	0.11611557
180	0x3e42541c	0.18977398
181	0xbe830798	-0.2559173
182	0x3e506614	0.2035144
183	0x3eb04d76	0.34434098
184	0x3e2b8ac0	0.16752148
185	0x3eb5cbf0	0.35507154
186	0x3e882fe4	0.26599038
187	0xbdd817c8	-0.10551411
188	0x3e56a640	0.20961857
189	0x3eb31ff4	0.34985316
190	0x3ec95986	0.39326113
191	0xbde59af0	-0.112111926
192	0x3e69015c	0.22754425
193	0xbda2cf48	-0.07949692
194	0x3ed4a7ac	0.41534173
195	0xbe9ca30e	-0.3059315
196	0xbe331fdc	-0.17492622
197	0xbea5c612	-0.32377678
198	0xbe84f73e	-0.2596988
199	0xbed53fbe	-0.41650194
200	0xbe160820	-0.14651537
201	0xbe9816b6	-0.29704827
202	0xbeff0706	-0.49810046
203	0x3e1ab044	0.15106302
204	0xbdc75ec0	-0.09734869
205	0x3eacee46	0.33775538
206	0xbe940974	-0.28913462
207	0x3dbc1328	0.09183341
208	0x3ce72640	0.028216481
209	0x3e9575a0	0.29191303
210	0xbeff595c	-0.49872863
211	0x3ef9963e	0.48747438
212	0xbc6ca8c0	-0.01444453
213	0xbe61ad74	-0.22038823
214	0x3da339d8	0.07970017
215	0xbeb9c4d8	-0.36282992
216	0x3ec7d0fe	0.39026636
217	0xbcb16aa0	-0.021657288
218	0x3ed923f2	0.42410237
219	0xbed4a3fe	-0.41531366
220	0x3c092100	0.008369684
221	0x3eceef94	0.4041716
222	0x3d91d688	0.07120997
223	0xbef6873a	-0.48150045
224	0x3e775268	0.24152529
225	0xbec3e682	-0.382618
226	0x3e845156	0.25843304
227	0xbebeb9d2	-0.37251145
228	0x3dc01b70	0.09380233
229	0xbdbcf008	-0.0922547
230	0xbe819d26	-0.25315207
231	0x3e8812e6	0.26576918
232	0xbe61efec	-0.22064179
233	0xbcfc87e0	-0.030826509
234	0xbd0f77c0	-0.035026312
235	0x3e435e50	0.19078946
236	0xbed13540	-0.4086094
237	0x3eb1d25a	0.34730798
238	0x3eb81dea	0.35960323
239	0x3e13099c	0.14359134
240	0xbd73fe00	-0.059568405
241	0x3e821540	0.25406837
242	0xbee888d4	-0.45416892
243	0x3e0dc194	0.13843375
244	0x3e19fe58	0.1503843
245	0xbec6f01e	-0.3885507
246	0x3cd367a0	0.025806248
247	0x3e28db30	0.16489863
248	0xbec483c0	-0.38381767
249	0x3ee9c12a	0.45655185
250	0xbeb34c70	-0.35019255
251	0xbe609708	-0.21932614
252	0x3ec55f8e	0.38549465
253	0x3ef9ca6c	0.48787248
254	0xbc3bdc00	-0.011466026
255	0xbed2532a	-0.41079074

bias f4 [76]
0	0xbe38930c	-0.18024844
1	0xbe4b2060	-0.19836569
2	0xbeec3142	-0.4613133
3	0x3e7c7738	0.24654853
4	0x3ea7d542	0.3277989
5	0x3e804732	0.25054318
6	0xbee567ae	-0.44805664
7	0x3efbde30	0.49192953
8	0xbef12f30	-0.47106314
9	0xbb62ed00	-0.0034626126
10	0x3ecbe2c4	0.39821446
11	0xbe494b2c	-0.19657582
12	0xbe328ce4	-0.17436558
13	0x3e59c41c	0.21266216
14	0xbe2d5750	-0.16927838
15	0xbe9e1f02	-0.30883032
16	0x3e2a8ef8	0.16656101
17	0x3d4ab8f0	0.049492776
18	0xbec76f1c	-0.38951957
19	0xbee160ae	-0.44019073
20	0xbe11f734	-0.14254457
21	0x3d3edd80	0.046597958
22	0x3ef852d2	0.48500687
23	0x3edacd14	0.42734587
24	0x3ee997aa	0.45623523
25	0xbe5c74f4	-0.21528989
26	0x3edbb236	0.42909402
27	0x3e3fb668	0.18721926
28	0x3de1e4a0	0.11029935
29	0x3ebd7c2c	0.37008798
30	0x3d3097d0	0.04311353
31	0xbe99cfac	-0.30041254
32	0x3ea10d9c	0.31455696
33	0x3eb6147e	0.3556251
34	0xbe7a7984	-0.24460417
35	0x3ebeecfe	0.37290186
36	0xbdc9ebf8	-0.098594606
37	0xbecee36c	-0.40407884
38	0xbe85e230	-0.2614913
39	0x3e2b2338	0.16712654
40	0xbef20c5e	-0.4727506
41	0x3e269580	0.16267967
42	0xbeba31b0	-0.36366034
43	0x3ec82564	0.39091027
44	0xbd06d1a0	-0.032914758
45	0xbec38fda	-0.38195688
46	0xbe096004	-0.13415533
47	0x3e927a04	0.28608716
48	0x3e9c7e82	0.30565268
49	0x3ddd4478	0.10804075
50	0x3e9565ec	0.29179323
51	0xbdf7eef0	-0.121061206
52	0x3e07507c	0.13214296
53	0x3ea1a2ac	0.3156942
54	0xbe5b38d8	-0.21408403
55	0x3eb7d55e	0.35904974
56	0x3efa918e	0.48939174
57	0xbed8ce18	-0.42344737
58	0xbee76e4e	-0.45201343
59	0x3ece228a	0.40260726
60	0xbee33980	-0.44379807
61	0xbeaefcb6	-0.34177178
62	0x3eeb38c2	0.4594174
63	0x3e95be6e	0.2924685
64	0x3ec93560	0.39298534
65	0x3c770c80	0.015078664
66	0x3e85ad10	0.261086
67	0x3ed3b9e6	0.41352767
68	0xbecda540	-0.40165138
69	0xbee5330c	-0.44765508
70	0xbeff0f2c	-0.49816263
71	0x3efdd9de	0.49580282
72	0x3e40bc60	0.1882186
73	0xbecf2d50	-0.40464258
74	0xbe863232	-0.2621017
75	0x3e15d278	0.14631069

weight f4 [50, 76, 2, 2]
0	0xbcd9bc91	-0.026579173
1	0xbc52faa1	-0.012877137
2	0xbd1e9724	-0.038718358
3	0x3d671162	0.056413062
4	0xbd0cc359	-0.034365986
5	0x3b5ea4f6	0.0033972836
6	0xbd42ea8b	-0.04758696
7	0xbc13641f	-0.008996039
8	0xbd56a0b5	-0.052399356
9	0xbd1d83ae	-0.038455658
10	0x3d35a825	0.04434981
11	0x3d254a96	0.040354334
12	0xbd1bece9	-0.038067732
13	0x3ca8103d	0.020515556
14	0xbc4d9fed	-0.012550336
15	0xbcb2e344	-0.021836884
16	0x3bf46c2a	0.007459183
17	0x3c84abae	0.016195145
18	0x3d5334f0	0.051564157
19	0x3bcef132	0.006315374
20	0x3cb3d4a0	0.021951973
21	0xba281201	-0.0006411374
22	0x3c8d38bc	0.017238967
23	0xbcb21c4e	-0.021742012
24	0xbc79a500	-0.015237093
25	0xbc956afd	-0.018239493
26	0x3d4ea48b	0.05044989
27	0x3ca5fcf8	0.020262226
28	0x399bb1c5	0.00029696352
29	0xbd57b18b	-0.052659553
30	0xbad27ec6	-0.001605951
31	0x3d2d5c28	0.042324215
32	0xbc65730f	-0.014004483
33	0x3d66b468	0.056324393
34	0x3d439f27	0.0477592
35	0x3cd65fdb	0.026168754
36	0x3cc22d7c	0.02370333
37	0xbd0747e2	-0.033027537
38	0x3c211783	0.009832266
39	0xbc937950	-0.018002182
40	0x3d47313d	0.04863094
41	0x3d49ded7	0.049284782
42	0x3caf5193	0.021401202
43	0x3c83f7ef	0.016109435
44	0x3c4ae87b	0.012384529
45	0xbd1af8eb	-0.037835043
46	0xbcde07de	-0.02710336
47	0xbd4e3d6e	-0.050351553
48	0x3cec7807	0.028865827
49	0x3caf693f	0.02141249
50	0x3d685f2b	0.056731384
51	0x3d3480a8	0.04406801
52	0x3d69e3d0	0.057102025
53	0xbb89d67e	-0.0042064777
54	0xbd26b79d	-0.04070245
55	0xbcb0ccbe	-0.021582004
56	0x3cddc801	0.027072908
57	0xbd55dfad	-0.052215267
58	0x3c97826a	0.018494803
59	0x3c33ac73	0.010966408
60	0x3d0cc924	0.03437151
61	0xbcc5646a	-0.024095733
62	0x3d0c0449	0.034183774
63	0x3b412a8f	0.002947483
64	0x3d62f1cb	0.055406373
65	0x3b231867	0.002488637
66	0xbcbababd	-0.022794122
67	0x3d42908b	0.04750113
68	0x3d18b6fa	0.037283875
69	0x3d5d08e5	0.05396356
70	0x3bf065cd	0.0073363543
71	0x3cff10ec	0.031135999
72	0xbce9464e	-0.028475907
73	0xbc85f2f5	-0.016351203
74	0xbd0d9ba1	-0.034572247
75	0xbcc2dec4	-0.023787864
76	0x3c76f376	0.015072694
77	0x3cd1f57b	0.02562975
78	0x3d4664e1	0.04843605
79	0x3cb605b4	0.022219516
80	0x3d629f46	0.055327676
81	0x3d5b7217	0.0535756
82	0x3d4bd440	0.049762964
83	0xbd386f3a	-0.04502795
84	0xbc9c11ae	-0.0190514
85	0xbd0a6a85	-0.03379299
86	0x3d01dfeb	0.031707685
87	0xbd43877d	-0.047736634
88	0x3c35bccb	0.011092375
89	0x3c016868	0.007898428
90	0x3c710bb3	0.014712262
91	0xbcb2f83e	-0.021846887
92	0x3d646c79	0.05576751
93	0x3d156ad4	0.036478832
94	0x3d2bed4f	0.041974362
95	0x3ccd6c02	0.025075916
96	0xbba3ea08	-0.005002264
97	0xbd126950	-0.035744965
98	0x3d5dd225	0.054155488
99	0xbc820fda	-0.0158767
100	0x3b242fb7	0.0025052854
101	0xbaa5f630	-0.001266187
102	0x3c7015f0	0.014653668
103	0xbd5ab71a	-0.053397276
104	0xbd3f5404	-0.046710983
105	0x3d2bb927	0.041924622
106	0x3c1aa326	0.009438312
107	0x3c53755e	0.0129064005
108	0xbbcf06a6	-0.006317931
109	0xbb60e018	-0.0034313258
110	0x3ac4841e	0.0014992987
111	0x3bb81b2b	0.005618473
112	0xbd4f32cf	-0.050585564
113	0x3d2afa5b	0.041742664
114	0xbc965481	-0.018350841
115	0xbd54742d	-0.051868606
116	0xbc79fb85	-0.015257721
117	0xbcecc28f	-0.028901367
118	0xbd4701cd	-0.0485857
119	0xbd468079	-0.048462365
120	0xbc9fa843	-0.019489413
121	0xbcc3fa5e	-0.023923095
122	0xbd246475	-0.040134866
123	0x3a851d6a	0.0010155861
124	0xb9c6ea08	-0.0003793987
125	0xbc773a35	-0.015089561
126	0xbd6713c0	-0.05641532
127	0x3ce3ddc4	0.027815707
128	0x3c535067	0.012897587
129	0x3ce49988	0.02790524
130	0xbd67b3c8	-0.056567937
131	0x3d675dc0	0.05648589
132	0xbd5c0e32	-0.053724475
133	0x3c6debd7	0.014521561
134	0x3d453aeb	0.04815189
135	0x3d67b5a1	0.0565697
136	0x3d23eb8d	0.04001956
137	0x3d2035a6	0.039113663
138	0xbc217433	-0.009854364
139	0xbcb76a1e	-0.022389468
140	0x3cd067c6	0.025440108
141	0xbce97cc3	-0.028501874
142	0xbc9e372d	-0.01931342
143	0x3c8483a2	0.016176049
144	0xbd20c42e	-0.03924959
145	0x3d2c02b0	0.04199475
146	0x3d42bdf4	0.047544435
147	0x3d56d6fb	0.052451115
148	0x3c287c56	0.01028355
149	0x3d6536c0	0.055960417
150	0x3cc9a8d9	0.024616646
151	0x3d2b6728	0.041846424
152	0x3ca10428	0.019655302
153	0x3c26e788	0.010187037
154	0xbbd2096d	-0.006409815
155	0x3c9fa4d6	0.01948778
156	0xbbdf0955	-0.0068065324
157	0xbcf52c5c	-0.029928379
158	0xbd10628a	-0.035250224
159	0xbc032048	-0.008003302
160	0x3d48610e	0.048920684
161	0x3c0571b2	0.008144783
162	0x3d22fb48	0.03979042
163	0xbd04050a	-0.032231368
164	0xbd5b7896	-0.053581797
165	0xbb221cd9	-0.0024736433
166	0x3b958b2d	0.00456371
167	0x3c1b203c	0.0094681345
168	0xbcbce6d4	-0.023059286
169	0xbcd68965	-0.026188562
170	0x3c0416f6	0.008062115
171	0x3cbe20a8	0.023208931
172	0x3d61bc95	0.055111486
173	0x3d0ebc33	0.03484745
174	0x3b8ecfce	0.0043582683
175	0xbcca8d9e	-0.024725731
176	0xbb0fe6a9	-0.0021957553
177	0xbd09ed9d	-0.03367387
178	0x3d577e62	0.052610762
179	0xbbfa0da4	-0.0076310206
180	0xbce94b06	-0.028478157
181	0xbd0b9a17	-0.0340825
182	0x3d21b4ec	0.03947918
183	0xbc8817c6	-0.016612899
184	0x3d2990ba	0.041397788
185	0x3d12a76b	0.035804193
186	0x3d25fd4e	0.040524773
187	0x3d25ffa8	0.040527016
188	0xbd493cfd	-0.04913043
189	0x3d4981c8	0.049196035
190	0xbcdb8732	-0.026797865
191	0x3b62a3d0	0.0034582503
192	0x3c612f8e	0.013744248
193	0xbc11ba5a	-0.008894527
194	0xbc3c7f3f	-0.011504947
195	0xbc0e6ace	-0.008692456
196	0x3d551ea9	0.052031193
197	0xbce8431f	-0.028352318
198	0xbd07e4fd	-0.033177365
199	0xbc121c49	-0.0089178765
200	0xbc542fda	-0.012950862
201	0x3d47cb73	0.04877801
202	0x3cea4427	0.02859695
203	0xbd5702ea	-0.052493013
204	0x3a95277f	0.0011379569
205	0x3c9d984e	0.019237664
206	0xbd031613	-0.032003473
207	0x3d29ba31	0.04143733
208	0x3d4fe041	0.050750975
209	0x3d0e1bc2	0.03469444
210	0xbc7dc4a1	-0.0154887745
211	0xbd5ab4d1	-0.053395096
212	0x3d180afd	0.037119854
213	0xbd469874	-0.048485234
214	0x3c80d059	0.015724348
215	0x3bc84524	0.006111758
216	0x3d0a6850	0.033790886
217	0x3b79627f	0.0038053093
218	0x3c7b3fe2	0.015335055
219	0x3d51194b	0.051049512
220	0xbc247d3a	-0.010039622
221	0xbce8e380	-0.028428793
222	0xbc0a3e6b	-0.008437733
223	0x3d60aaca	0.054850377
224	0xbd247860	-0.04015386
225	0x3cce0c20	0.025152266
226	0x3c903422	0.017602984
227	0x3bd5ae93	0.006521055
228	0x3ca12fe0	0.019676149
229	0x3be34d5a	0.0069367113
230	0x3c8dfd5c	0.017332725
231	0xbc067f84	-0.008209113
232	0xbd0e58de	-0.03475272
233	0x3bb239f9	0.00543904
234	0xbd34e0ad	-0.04415958
235	0xbd13ac8b	-0.03605322
236	0xbd31472a	-0.043280758
237	0xbccf8317	-0.025331063
238	0xbd3aab9e	-0.045573823
239	0x3a1a912b	0.00058962655
240	0xbccd9769	-0.025096612
241	0x3b98d050	0.0046635047
242	0x3c9b038b	0.018922588
243	0xbc64526d	-0.013935667
244	0xbc6ec343	-0.014572921
245	0xbd6a2b6d	-0.05717032
246	0x3d4d79c6	0.05016496
247	0xbc9fe845	-0.019519934
248	0xbcd2c43e	-0.025728341
249	0xbca30078	-0.019897684
250	0x3d02339a	0.031787492
251	0x3d6366d4	0.055517986
252	0xbd6a56dc	-0.05721174
253	0xbd32e739	-0.043677542
254	0xbd064c92	-0.032787867
255	0x3cc19bc7	0.02363385

bias f4 [50]
0	0x3cb1ce8c	0.021704935
1	0xbd41820a	-0.047243156
2	0x3d4faf9d	0.050704587
3	0xbd51b4d1	-0.05119783
4	0xbd1dd815	-0.03853615
5	0xbc54508b	-0.012958656
6	0xbcd6a8a3	-0.02620346
7	0xbd40264f	-0.046911534
8	0x3c2ed96b	0.010671954
9	0xbb910cc5	-0.004426571
10	0xbd407492	-0.04698617
11	0xbd0c2eec	-0.034224436
12	0x3cdabd5e	0.026701625
13	0xbbcab7ac	-0.006186446
14	0x3cc63fdd	0.024200374
15	0xbd4df712	-0.050284453
16	0x3d2dbc5e	0.04241597
17	0xbb9b6bcd	-0.0047430755
18	0x3b394300	0.0028268695
19	0xbd50331c	-0.05082999
20	0xbc7d2c11	-0.015452401
21	0x3c56fb3a	0.0131214205
22	0xbc19fc3f	-0.009398519
23	0xb9905b34	-0.00027533772
24	0xbc3bb159	-0.011455857
25	0x3d3fea90	0.046854556
26	0x3cce0cbe	0.02515256
27	0x3d47fb55	0.048823673
28	0x3c79cbaf	0.015246316
29	0xbcc6cced	-0.024267638
30	0x3d455499	0.04817638
31	0xba262201	-0.00063374644
32	0x3d33fe9c	0.043943986
33	0x3cebd9eb	0.028790435
34	0xbc55c340	-0.0130470395
35	0xbcd42895	-0.025898257
36	0xbd5f9ef8	-0.054594964
37	0xbb854622	-0.0040671984
38	0x3d000699	0.031256292
39	0x3c222901	0.009897471
40	0xbc6cb52f	-0.014447494
41	0x3cb4ef4b	0.02208676
42	0xbd25cb10	-0.04047686
43	0xbd6092cf	-0.054827508
44	0x3d1a303d	0.03764366
45	0xbcf48419	-0.029848145
46	0x3d0d0245	0.034425993
47	0x3d653040	0.055954218
48	0x3ceccf31	0.02890739
49	0xbc42212f	-0.011848732

weight f4 [50, 75, 2, 2]
0	0xbc718092	-0.014740126
1	0x3c8f6de0	0.017508447
2	0x3cc1537d	0.02359938
3	0xbc9e2077	-0.01930259
4	0xbcc3e084	-0.023910768
5	0x3ce47259	0.027886556
6	0x3c9a13ce	0.018808272
7	0xbaff39ce	-0.0019472183
8	0x3bd07a42	0.0063622305
9	0xbd445a5a	-0.04793773
10	0x3d29bb6b	0.0414385
11	0xbc914be4	-0.017736383
12	0x3d514386	0.051089786
13	0x3d3d5207	0.046220805
14	0x3d168069	0.036743555
15	0xbc1c9c45	-0.009558742
16	0xbc363da0	-0.011123091
17	0xbd59d9e1	-0.0531863
18	0x3d04bd45	0.032407064
19	0xbc6808f1	-0.014162288
20	0xbd60f3cb	-0.05492
21	0xbcbf44dc	-0.023348264
22	0xbd05b7c1	-0.032645945
23	0x3cc371c0	0.023857951
24	0xbcc36574	-0.023852088
25	0xbc821134	-0.015877344
26	0xbd0aa0e2	-0.033844836
27	0xbc497bde	-0.012297599
28	0x3c0d93a7	0.00864116
29	0xbcbce421	-0.023058
30	0x3ca25b67	0.019818975
31	0x3a1dbdba	0.0006017346
32	0xbcbda7ec	-0.02315136
33	0xbd6a5c7e	-0.057217114
34	0xba8c3c1a	-0.0010699064
35	0x3cb930a0	0.022606194
36	0x3d0fa577	0.03506991
37	0xbd4ce82d	-0.050026108
38	0xbbb1ee74	-0.005430037
39	0x3d1d9948	0.03847626
40	0x3cd1bc21	0.025602402
41	0x3ca51eba	0.020156253
42	0x3bd80f32	0.0065936083
43	0x3d40d04d	0.04707365
44	0xb9aad683	-0.0003258475
45	0x3bb4f996	0.005522917
46	0xbd29db2f	-0.041468795
47	0xbc910184	-0.017700918
48	0x3d522f3f	0.05131459
49	0xbcd68b8c	-0.026189588
50	0xbbe66b4c	-0.0070318338
51	0x3c526845	0.012842243
52	0x3d436e2a	0.047712483
53	0xbd64caea	-0.055857576
54	0xbd01d4f3	-0.031697225
55	0xbcce6c59	-0.025198149
56	0x3cefa389	0.029252784
57	0xbcd6d074	-0.026222445
58	0xbced34e4	-0.028955884
59	0xbc424a61	-0.011858554
60	0xbcf87ab1	-0.030331941
61	0x3d09e208	0.033662826
62	0xbcd43b42	-0.025907163
63	0x3d572b77	0.052531686
64	0x3d166330	0.036715686
65	0xbce20dc8	-0.027594462
66	0x3cf68a6a	0.030095298
67	0x3cae3d6e	0.021269526
68	0xbd6acbb3	-0.05732317
69	0x3d08ba84	0.033381
70	0xbd547793	-0.051871847
71	0x3c9a0cad	0.018804872
72	0x3d4a12a4	0.049334183
73	0xbd01626b	-0.031588
74	0xbd2ec578	-0.04266879
75	0x3d184138	0.037171572
76	0xbc905856	-0.017620247
77	0xbab2e8f7	-0.0013649751
78	0x3d59f1c9	0.0532091
79	0x3d27fa9d	0.041010488
80	0xbd5e15a5	-0.05421986
81	0x3d105678	0.035238713
82	0xbd1bf202	-0.038072594
83	0x3d1fdc3b	0.039028388
84	0x3caa0111	0.020752462
85	0xbd2b933c	-0.04188846
86	0xbc11b30d	-0.008892787
87	0x3cedaa0d	0.02901175
88	0x3d4b94da	0.049702503
89	0xbcf94313	-0.030427491
90	0xbd593ad7	-0.05303463
91	0xbd1d26af	-0.03836697
92	0xbc28857d	-0.010285732
93	0xbbce4fa8	-0.006296117
94	0xbcfe0f33	-0.031013107
95	0x3c548633	0.012971449
96	0x3d5a85e8	0.05335036
97	0xbd38e866	-0.045143507
98	0x3cb75e45	0.022383818
99	0xbd2c86bd	-0.042120684
100	0xbcfcc2c7	-0.030854596
101	0x3d1ad4c9	0.037800584
102	0x3d566ab2	0.052347846
103	0x3d059db7	0.03262111
104	0x3a59216f	0.0008282875
105	0xbd3e9b36	-0.04653474
106	0xbd23fc79	-0.0400357
107	0xbcc8f5ec	-0.024531327
108	0xbd31c15b	-0.04339729
109	0xbc9c97e6	-0.0191154
110	0x3ccb20f5	0.024795989
111	0xbcdff3ad	-0.027337873
112	0xbc8f5157	-0.01749484
113	0xbd54d160	-0.051957488
114	0xbd0e4b1b	-0.034739595
115	0xbbbda1eb	-0.0057871244
116	0x3d13a512	0.036046095
117	0xbcdc0210	-0.026856452
118	0xbcef1d49	-0.029188769
119	0x3d4eb328	0.050463825
120	0xbd2b7c95	-0.041866858
121	0x3cb69c0d	0.022291208
122	0xbcd05742	-0.025432233
123	0xbd035cee	-0.032071047
124	0x3c823cb5	0.015898088
125	0xbd02e4fa	-0.03195665
126	0x3ca9f9e1	0.020749034
127	0x3ccd8745	0.025088916
128	0x3caba538	0.020952806
129	0xbca8da19	-0.02061181
130	0xbbae72ad	-0.005323729
131	0x3d1bebb6	0.03806659
132	0xbc882c3c	-0.016622655
133	0xbd076b2a	-0.033061184
134	0xbd19028b	-0.03735594
135	0x3d245932	0.040124126
136	0xbd305870	-0.04305309
137	0x3b2ee3e5	0.0026686129
138	0xbc7b2dde	-0.01533076
139	0xbc06b092	-0.008220809
140	0xbd34c995	-0.044137556
141	0x3d4508c7	0.048104074
142	0x3d00af5c	0.031417236
143	0x3d1f6621	0.038915757
144	0x3c91efb3	0.017814493
145	0x3d14f5db	0.03636728
146	0xbd014285	-0.03155758
147	0xbc752fef	-0.014965042
148	0xbd4e5e3a	-0.05038283
149	0x3d460807	0.0483475
150	0x3cd49c99	0.025953578
151	0x3c40bb15	0.011763354
152	0x3aec94bc	0.0018049697
153	0xbc9e5114	-0.01932577
154	0x3cc657ca	0.024211783
155	0x3cf767f9	0.030200945
156	0x3d0ca3d2	0.03433592
157	0x3cd73fae	0.026275482
158	0xbd34ba92	-0.04412324
159	0x3ccb0f60	0.024787605
160	0x3ca5dbfc	0.020246498
161	0x3d00950a	0.031392135
162	0xbb30e796	-0.0026993505
163	0x3ad1f327	0.00160179
164	0xbd579de9	-0.05264083
165	0x3c7ed010	0.015552536
166	0x3cb85ccc	0.022505186
167	0x3d389dee	0.04507249
168	0x3b3eaf8b	0.002909633
169	0x3c8ab3bc	0.016931407
170	0x3d66b2e6	0.056322955
171	0x3c122788	0.008920558
172	0x3d5d0e1b	0.05396853
173	0xbd28a51f	-0.041173097
174	0xbd19e4eb	-0.03757183
175	0x3d531c61	0.051540736
176	0x3d280d08	0.041028053
177	0x3d2a172c	0.041526005
178	0xbbffe4b3	-0.0078092455
179	0x3c34ce33	0.01103549
180	0xbc22f806	-0.009946829
181	0xbbcd9fae	-0.006275139
182	0x3d42085f	0.047371265
183	0xbb8b42f9	-0.004249927
184	0x3d2bae02	0.041913994
185	0x3b1b5981	0.0023704472
186	0x3d026d61	0.031842593
187	0xbcff647c	-0.031175844
188	0x3cf93fbe	0.030425902
189	0xbd4e5b92	-0.050380297
190	0x3d46f575	0.04857393
191	0x3cfdddb5	0.030989507
192	0x3d64397e	0.05571889
193	0xbcb588a8	-0.02215989
194	0xbd1faddb	-0.03898416
195	0xbd0a83f0	-0.03381723
196	0x3d5ea95a	0.054360725
197	0x3d1a7b10	0.037715018
198	0x3c439911	0.011938349
199	0xbcaa93ea	-0.020822484
200	0xbd000e10	-0.03126341
201	0xbcc0f85e	-0.02355593
202	0x3d3113e0	0.043231845
203	0xbd3ecb9c	-0.046580896
204	0xbc42759f	-0.011868863
205	0x3c8fbd46	0.017546307
206	0xbbbf807c	-0.005844174
207	0xbd688587	-0.056767967
208	0xbc492c56	-0.012278637
209	0xbd5af6a6	-0.05345788
210	0x3d181976	0.037133656
211	0x399a7769	0.00029462136
212	0xbd265478	-0.0406079
213	0x3d364910	0.04450327
214	0x3bc732cf	0.006079055
215	0xbd1cb867	-0.038261797
216	0xbd1b8123	-0.03796495
217	0xbd019d12	-0.031643935
218	0xbd5ff243	-0.0546744
219	0x3d232f5d	0.03984009
220	0x3c1ad903	0.009451154
221	0x3cd86702	0.026416305
222	0xbc3539ac	-0.011061113
223	0xbd3caefc	-0.046065316
224	0xbd0b8027	-0.034057762
225	0x3cf638b8	0.030056342
226	0x3d0f46fc	0.034979805
227	0xbcde5fac	-0.02714523
228	0xbd307c79	-0.043087456
229	0x3b3ddee3	0.0028971962
230	0xbcc3a689	-0.023883121
231	0xbc0c6312	-0.008568542
232	0x3c5685c2	0.013093414
233	0xbd1849b7	-0.037179675
234	0xbcd7eaaa	-0.026357014
235	0x3d20abfe	0.039226525
236	0xbd4ade46	-0.049528383
237	0x3c6d878a	0.014497647
238	0xbc9efd25	-0.019407818
239	0xbbac2e36	-0.005254532
240	0x3b573ccf	0.0032842641
241	0xbd5073f5	-0.050891835
242	0x3c86a6e3	0.016437
243	0xbd42c1b9	-0.04754803
244	0xbba97fcc	-0.0051727053
245	0x3bf3e996	0.007443617
246	0xbb975133	-0.004617834
247	0xbd1e1e99	-0.0386034
248	0x3cd2e40a	0.025743503
249	0xbc6aa07d	-0.01432049
250	0x3d607064	0.054794684
251	0xbbdde32f	-0.006771467
252	0xbd0fa876	-0.035072766
253	0xbd16c088	-0.036804706
254	0xbd508ef8	-0.050917596
255	0xbd1d61ef	-0.038423475

bias f4 [75]
0	0xbd2dc8c0	-0.04242778
1	0xbd4bab9b	-0.049724203
2	0xbce51a2b	-0.02796658
3	0xbd20e1cf	-0.039277848
4	0xbd3c2fd1	-0.04594404
5	0xbd6121cf	-0.054963883
6	0xbd379354	-0.044818237
7	0xba514fa6	-0.0007984586
8	0xbd44a61b	-0.048009973
9	0xbd1a18f9	-0.037621472
10	0xbd4c730d	-0.04991441
11	0xbcb3943c	-0.02192127
12	0xbc02f671	-0.0079933265
13	0xbd4f77d0	-0.05065137
14	0x3d0f784c	0.035026833
15	0xbce0f06d	-0.027458394
16	0x3d060fe3	0.032729995
17	0x3d65d5d3	0.05611212
18	0x3cae9ce5	0.021315048
19	0x3c949bac	0.018140636
20	0x3d4a7a4a	0.04943303
21	0xbcb49224	-0.022042342
22	0xbd49691e	-0.049172513
23	0xbc056747	-0.008142299
24	0x3cbe9c7d	0.023267979
25	0x3c92e212	0.017930064
26	0x3ca1b8ec	0.019741498
27	0xb9954094	-0.0002846761
28	0x3b14dad9	0.0022713451
29	0x3d0432ee	0.032275133
30	0xbcea5281	-0.028603794
31	0xbd61e036	-0.055145465
32	0xbd54191b	-0.051781755
33	0x3d506cdf	0.050885078
34	0xbcc06d5f	-0.023489652
35	0xbc31ebbd	-0.010859427
36	0xbd40644b	-0.046970647
37	0xbcb4cdb9	-0.022070752
38	0x3d347dbb	0.04406522
39	0x3c67df5f	0.014152377
40	0x3d4cba57	0.049982395
41	0xbc2efdf7	-0.010680667
42	0x3c04047f	0.008057713
43	0xbd044677	-0.032293763
44	0xbb612c09	-0.0034358522
45	0xbca56652	-0.020190392
46	0x3b6a9903	0.0035796768
47	0x399c0cf1	0.0002976428
48	0xbc8dbb9f	-0.017301379
49	0x39a5d455	0.00031629452
50	0x3d600aa0	0.054697633
51	0xbc6f8067	-0.014618016
52	0x3d3727fe	0.044715874
53	0xbd1f1c24	-0.038845196
54	0x3cc2f59f	0.023798762
55	0x3cf0eed9	0.029410766
56	0x3ca7ae53	0.020468866
57	0x3cd9d6a3	0.026591605
58	0x3c9a5bdc	0.01884263
59	0x3bbeedaa	0.0058266716
60	0xb91ed264	-0.00015146431
61	0x3cda13da	0.026620794
62	0xbc937481	-0.01799989
63	0xbd05f2d3	-0.03270228
64	0x3d1c252c	0.038121387
65	0x3d3538da	0.04424367
66	0xbcbc8588	-0.023012891
67	0xbce5b697	-0.028041167
68	0xbc611f82	-0.013740422
69	0xbcfb9f6a	-0.030715663
70	0x3cc93893	0.02456311
71	0xbbc8be4b	-0.0061262003
72	0x3c555715	0.01302125
73	0x3cc5cc30	0.024145216
74	0x3cf86aea	0.030324418

weight f4 [75, 1, 2, 2]
0	0x3cb42120	0.021988451
1	0x3e859658	0.26091266
2	0x3ebe65ce	0.37187046
3	0x3e28db90	0.16490006
4	0x3e396944	0.18106562
5	0xbefb2438	-0.4905107
6	0x3e9da6c6	0.307913
7	0xbe24295c	-0.16031402
8	0x3e7bbd78	0.24583995
9	0xbd753d00	-0.059872627
10	0xbee84fce	-0.45373386
11	0x3e316dc4	0.17327029
12	0xbe83dfa2	-0.25756556
13	0x3ed12216	0.40846318
14	0x3dff2728	0.1245864
15	0x3eaa4e60	0.3326292
16	0xbdca8dd8	-0.09890336
17	0x3e702638	0.2345208
18	0x3ee8fcb8	0.4550531
19	0xbe53a340	-0.20667744
20	0x3e668458	0.22511423
21	0x3ea1023c	0.31447017
22	0xbe920f1c	-0.28527153
23	0x3e67dd9c	0.22643131
24	0xbed51160	-0.4161482
25	0x3cf9ed80	0.030508757
26	0x3ec6cb52	0.38826996
27	0x3ea75f68	0.32689977
28	0xbea418aa	-0.32050067
29	0xbc8b4ae0	-0.017003477
30	0xbd2ebde0	-0.042661548
31	0x3e816c60	0.25277996
32	0x3ec3d55c	0.38248718
33	0xbe2d0cc0	-0.16899395
34	0xbea1a936	-0.3157441
35	0xbc328080	-0.010894895
36	0xbda19070	-0.078888774
37	0x3df8b2d8	0.12143487
38	0xbebf93be	-0.37417406
39	0xbd97d2f8	-0.07413286
40	0x3efc356a	0.49259502
41	0x3e375c34	0.17906266
42	0xbedfd9ee	-0.43720955
43	0x3e9acfbc	0.30236614
44	0x3e24edcc	0.16106337
45	0xbef3cb12	-0.47615868
46	0x3d7c6640	0.06162095
47	0xbcecee20	-0.02892214
48	0xbe3e4d0c	-0.18584079
49	0xbe847edc	-0.25878036
50	0xbe6317a0	-0.22176981
51	0xbef10070	-0.47070646
52	0x3d109870	0.035301626
53	0x3ebf9e9a	0.3742569
54	0xbe65ea04	-0.22452551
55	0xbe7145a8	-0.23561728
56	0x3c275000	0.010211945
57	0xbe348cf0	-0.17631888
58	0x3c2ad0c0	0.010425746
59	0x3e531228	0.20612395
60	0xbe93d206	-0.28871173
61	0xbe01b3dc	-0.12666267
62	0xbe9e96ba	-0.3097437
63	0x3e11e528	0.14247572
64	0xbe7c0e8c	-0.24614924
65	0xbe8acb6c	-0.27108324
66	0x3bd1eb00	0.006406188
67	0xbe9a399a	-0.30122072
68	0xbed86762	-0.42266375
69	0xbe4fd76c	-0.2029702
70	0x3e3f4a38	0.18680656
71	0xbe99ce82	-0.30040365
72	0x3dbf5838	0.09342998
73	0x3ec52738	0.38506484
74	0x3ec3b600	0.38224792
75	0xbe58d3b8	-0.21174514
76	0x3ee72d9e	0.4515199
77	0xbed74544	-0.42045033
78	0x3dc5e4b8	0.09662765
79	0x3d5eec00	0.054424286
80	0x3e9133ea	0.2835992
81	0xbe92b5ea	-0.28654414
82	0x3ee10952	0.43952423
83	0x3ee66f1e	0.4500665
84	0xbe211fd4	-0.15734798
85	0x3ebb8b44	0.3662969
86	0x3e8ebea6	0.27879828
87	0x3d1fddb0	0.039029777
88	0xbe9fe3fe	-0.31228632
89	0x3db482d8	0.08814019
90	0x3eb7706e	0.35827965
91	0x3d653890	0.055962145
92	0xbec61dfc	-0.3869475
93	0xbdc3aa20	-0.09553933
94	0x3e2e7d10	0.17039895
95	0x3edaa39e	0.42702955
96	0xbeed6866	-0.46368712
97	0xbd539140	-0.051652193
98	0x3e3ca2d4	0.18421489
99	0xbef913a8	-0.4864781
100	0x3db75030	0.089508414
101	0xbe9c09aa	-0.30476123
102	0xbed960b6	-0.42456597
103	0xbe2eff70	-0.17089629
104	0x3d90ab68	0.07063943
105	0x3ea33cd4	0.31882346
106	0x3e947ed0	0.29003
107	0xbe384150	-0.17993665
108	0x3e554ad4	0.20829326
109	0xbebb9a00	-0.3664093
110	0xbe852426	-0.26004142
111	0x3dc93570	0.098246455
112	0x3e9622d0	0.29323435
113	0xbc3e5e80	-0.01161921
114	0x3b8cdb80	0.0042986274
115	0x3ee49f12	0.4465261
116	0xbca4d400	-0.02012062
117	0xbe9ed4ee	-0.31021827
118	0x3e7203c4	0.23634249
119	0xbe4434a8	-0.19160712
120	0x3efdb4e4	0.4955207
121	0x3ec353b6	0.38149804
122	0x3e8e5252	0.2779718
123	0xbdc09a40	-0.09404421
124	0x3ed9b142	0.4251805
125	0x3e69f128	0.228459
126	0xbe2440c0	-0.16040325
127	0x3e864d92	0.26231056
128	0xbec8e904	-0.39240277
129	0x3eb184ea	0.34671718
130	0x3e198d24	0.14995247
131	0x3e15558c	0.14583415
132	0xbcbe9c20	-0.023267806
133	0x3e661fc8	0.22473061
134	0xbe91946c	-0.2843355
135	0x3e5901f0	0.21192145
136	0x3ef41b20	0.47676945
137	0xbe7c172c	-0.24618214
138	0x3e12be6c	0.14330453
139	0x3e7d5d18	0.24742544
140	0x3ef91826	0.48651236
141	0xbd9b8a70	-0.07594764
142	0xbeca99f4	-0.39570582
143	0xbe7aa53c	-0.24477094
144	0xbecb7fcc	-0.3974594
145	0xbec62b72	-0.3870502
146	0x3eeab674	0.45842326
147	0xbe0095e4	-0.12557179
148	0xbc496400	-0.012291908
149	0xbdb43ff0	-0.088012576
150	0xbc4ec5c0	-0.012620389
151	0x3e87550c	0.26432073
152	0x3eaa5b84	0.33272946
153	0xbe0472d8	-0.12934434
154	0xbe7e71c4	-0.24848086
155	0xbea1f6f2	-0.31633717
156	0x3e995728	0.29949307
157	0x3eba8d62	0.36435992
158	0xbe855064	-0.26037896
159	0xbe8292ba	-0.25502568
160	0xbe29b9d0	-0.16574788
161	0x3e5368c8	0.2064544
162	0xbee34382	-0.44387442
163	0x3ec725fa	0.3889616
164	0xbebd0186	-0.36915225
165	0x3d2d8940	0.04236722
166	0x3e95d15a	0.29261285
167	0x3c9b0300	0.018922329
168	0xbe836eaa	-0.25670367
169	0x3e26984c	0.16269034
170	0x3e664340	0.22486591
171	0x3e2c6434	0.168351
172	0xbe3b3ffc	-0.18286127
173	0xbe06c89c	-0.13162464
174	0xbaf87400	-0.0018955469
175	0xbeba4244	-0.36378682
176	0xbd9b0468	-0.075692
177	0x3d5e0b90	0.054210246
178	0x3ee90984	0.45515072
179	0xbcb26a40	-0.02177918
180	0xbed3b6e2	-0.41350466
181	0x3dfd51a0	0.12369084
182	0xbde4d740	-0.11173868
183	0xbe76e84c	-0.24112052
184	0x3ee6835a	0.45022088
185	0xbeeb646a	-0.45975047
186	0xbee66c18	-0.45004344
187	0xbe8bad56	-0.27280682
188	0x3ebcc020	0.3686533
189	0x3e644ed4	0.22295696
190	0x3ea3a0c2	0.31958586
191	0xbefd5534	-0.49479067
192	0x3ed74f3c	0.4205264
193	0x3df8d460	0.12149882
194	0x3ea0eba6	0.31429785
195	0xbe929368	-0.28628087
196	0x3ed3d326	0.4137203
197	0xbe2888e8	-0.16458476
198	0x3e7e66a0	0.24843836
199	0xbe808a62	-0.25105578
200	0x3ed4384a	0.41449195
201	0xbe4a27ac	-0.19741696
202	0xbe2f40a0	-0.17114496
203	0x3e96352c	0.29337442
204	0xbef4a298	-0.477803
205	0x3ed53412	0.4164129
206	0x3c6e2140	0.014534295
207	0xbee09f34	-0.43871462
208	0x3ee8276c	0.45342577
209	0xbef8876a	-0.48540813
210	0x3ebf3ade	0.373496
211	0x3cbf4c40	0.023351789
212	0x3d9124a8	0.0708707
213	0xbdba5aa8	-0.090993226
214	0x3e233ed4	0.15941936
215	0x3cf367c0	0.029712558
216	0xbebef47c	-0.37295902
217	0xbe7d41e8	-0.24732172
218	0x3db01300	0.08597374
219	0xbe5d2e28	-0.21599638
220	0x3e7a445c	0.2444014
221	0x3eb5e39a	0.3552521
222	0xbcad5820	-0.021160185
223	0x3ce586e0	0.028018415
224	0x3e4b636c	0.19862145
225	0x3e6ba990	0.23013902
226	0x3eb5c9ea	0.3550561
227	0xbd812328	-0.06305534
228	0x3eac36dc	0.33635604
229	0x3e7778ac	0.24167126
230	0x3ea0e6ea	0.31426173
231	0xbcf1c560	-0.029513061
232	0x3ed3b2c0	0.41347313
233	0x3d1da010	0.038482726
234	0xbe168e60	-0.14702749
235	0xbeaf81d4	-0.34278738
236	0xbed4a4d0	-0.41531992
237	0x3bcaaa80	0.006184876
238	0xbe47b2f0	-0.19501853
239	0xbe2d0960	-0.16898108
240	0xbe24fa00	-0.16110992
241	0xbeb04e00	-0.3443451
242	0x3ed43256	0.41444653
243	0xbeaee8a2	-0.3416186
244	0x3e9c82a0	0.3056841
245	0xbcba75e0	-0.022761285
246	0x3ccf72c0	0.025323272
247	0x3ef79eb4	0.48363268
248	0x3ee1bb5a	0.4408825
249	0x3cb49a60	0.022046268
250	0x3ef2df64	0.4743606
251	0xbef20fa4	-0.47277558
252	0xbecf5458	-0.40494037
253	0xbe5b8f5c	-0.21441406
254	0xbe6e9288	-0.23298085
255	0xbeaf0aba	-0.3418787

weight f4 [76, 1, 3, 3]
0	0xbed4e649	-0.41581944
1	0xbc78b65c	-0.015180197
2	0x3e496ad7	0.19669662
3	0x3eb721d3	0.35767993
4	0xbe6f78f2	-0.2338598
5	0x3d80b2cf	0.06284105
6	0xbd0c0433	-0.034183692
7	0x3ee5d093	0.44885692
8	0xbe2cc970	-0.16873717
9	0x3ebf2c9c	0.37338722
10	0x3e22d48e	0.15901396
11	0xbe7c4d1b	-0.24638788
12	0x3eb9f27a	0.36317807
13	0xbf029880	-0.51013947
14	0x3e463fa9	0.19360222
15	0xbb19e64f	-0.0023483222
16	0x3e35d8ef	0.17758535
17	0xbe8fb8df	-0.28070733
18	0x3dde64bb	0.108590566
19	0xbe8e5061	-0.277957
20	0xbd1cc527	-0.038273957
21	0xbdb4cd09	-0.0882817
22	0xbecec5ac	-0.40385187
23	0xbe0413b1	-0.12898137
24	0x3cdb982f	0.026805965
25	0xbed7ef70	-0.42174864
26	0x3da5d45f	0.08097147
27	0xbd3a5b15	-0.04549702
28	0xbeb9eb8b	-0.36312518
29	0xbecaac60	-0.39584637
30	0xbde31b1b	-0.11089154
31	0xbe9ad4ab	-0.30240378
32	0xbee30575	-0.443401
33	0x3e4f3f3f	0.2023897
34	0xbd0887f3	-0.033332776
35	0xbdc3029e	-0.095219836
36	0xbcbd5bb7	-0.023115022
37	0x3b1d4708	0.0023998637
38	0x3ca87482	0.020563368
39	0x3b7ec4dc	0.0038874662
40	0xbf85e8f2	-1.0461714
41	0x3b826da1	0.003980354
42	0x3dc7932f	0.0974487
43	0xbdbb5508	-0.09147078
44	0xbd1a4fec	-0.037673876
45	0xbe801334	-0.2501465
46	0x3e06b754	0.13155872
47	0x3dec5eea	0.11541541
48	0x3e16a47f	0.14711188
49	0x3e421f15	0.1895717
50	0x3e52918c	0.20563334
51	0x3b9ad7b0	0.004725419
52	0x3d35cbb6	0.044383727
53	0xbdf1eac4	-0.11812356
54	0xbbfd496d	-0.0077297003
55	0xbe9cac8d	-0.30600396
56	0x3b6a7196	0.003577327
57	0xbdbb4aca	-0.09145124
58	0xbeeedd48	-0.466532
59	0xbd966d2b	-0.07345041
60	0x3ebb1b32	0.36544186
61	0x3eb45f21	0.35228828
62	0x3da3c980	0.079974174
63	0xbe8c7726	-0.27434653
64	0x3d13aeab	0.03605525
65	0x3d36ca91	0.044626776
66	0x3dee8769	0.11646921
67	0x3ecd1ccd	0.40061036
68	0xbd871f14	-0.065977246
69	0xbd958440	-0.07300615
70	0x3d375366	0.04475727
71	0x3ddc37f0	0.10752857
72	0x3b98d103	0.004663588
73	0x3cbe2dda	0.023215223
74	0x3f229cdb	0.6352059
75	0xbd8650ba	-0.06558366
76	0xbe84a28e	-0.2590527
77	0xbd69ad27	-0.057049897
78	0x3a8594c3	0.0010191429
79	0x3e40c840	0.1882639
80	0xbe3fdb90	-0.187361
81	0x3ea1b9e9	0.3158715
82	0xbec6556c	-0.38737047
83	0xbe433bc6	-0.1906577
84	0xbee2284f	-0.44171378
85	0x3eccd758	0.40008044
86	0x3d3e2dbd	0.04643034
87	0xbe9c03a9	-0.30471542
88	0x3e0a3b94	0.1349929
89	0xbe297597	-0.16548763
90	0xbdb2a7a8	-0.08723384
91	0xbebb6afc	-0.3660506
92	0xbec77f5e	-0.3896436
93	0xbe297f11	-0.16552378
94	0x3e193f0d	0.14965458
95	0xbe300c40	-0.17192173
96	0x3e2e29e8	0.17008173
97	0xbe840a1b	-0.2578896
98	0xbe397a1b	-0.18112986
99	0xbea0b12b	-0.31385168
100	0x3d9702fb	0.07373615
101	0xbb04aa82	-0.0020243232
102	0xbecb958e	-0.3976254
103	0x3e847e5b	0.25877652
104	0xbea51634	-0.32243502
105	0xbe8a027a	-0.26955014
106	0x3e873ffb	0.26416
107	0xbe7c82c4	-0.24659258
108	0x3e2113d5	0.15730222
109	0x3e24e67f	0.16103552
110	0x3d0dcca3	0.034618985
111	0x3d4ceb08	0.05002883
112	0xbf73838c	-0.951226
113	0xbcc4cfa6	-0.024024796
114	0x3ddfacb6	0.10921614
115	0xbf70e143	-0.9409372
116	0xbc90638b	-0.01762559
117	0xbd32ec0e	-0.04368215
118	0x3e2c6b73	0.16837864
119	0xbe3eafe8	-0.1862179
120	0x3e02be67	0.12767945
121	0x3d8e121a	0.06937046
122	0x3ebffce5	0.3749763
123	0x3b8e934c	0.0043510552
124	0xbe5c72c9	-0.21528162
125	0x3de69bee	0.1126021
126	0xbe399d71	-0.18126465
127	0x3ea57432	0.32315212
128	0x3ee4561e	0.44596952
129	0xbe828d2b	-0.25498328
130	0x3eb7af76	0.35876054
131	0xbe1cd5e1	-0.15315963
132	0x3d8ddc48	0.06926781
133	0x3e49dace	0.19712374
134	0xbe493999	-0.19650878
135	0x3e855d8d	0.26047936
136	0xbe6c337b	-0.23066513
137	0x3e716477	0.2357348
138	0x3e8393d5	0.25698724
139	0xbe97515b	-0.29554257
140	0x3e9bbca1	0.3041735
141	0xbe99177c	-0.2990073
142	0xbde721e0	-0.11285758
143	0x3e019783	0.12655453
144	0xbbe69dcb	-0.0070378534
145	0x3e108b7b	0.14115708
146	0xbe88b47c	-0.267002
147	0x3de70d4c	0.11281833
148	0x3e25115e	0.16119906
149	0x3e303931	0.17209317
150	0xbe38f982	-0.1806393
151	0x3e974702	0.29546362
152	0x3e6dba34	0.23215562
153	0x3c9cdf82	0.019149546
154	0x3e9e5c03	0.30929574
155	0xbf03a933	-0.5143005
156	0xbe005b3a	-0.125348
157	0x3e801c51	0.25021604
158	0x3e1dd3a9	0.15412773
159	0x3e3f2a3b	0.18668453
160	0xbe4b4f2e	-0.19854423
161	0x3e0b9ddd	0.13634439
162	0x3e7037dc	0.23458809
163	0xbe13b5cf	-0.14424823
164	0xbd883968	-0.066515744
165	0xbe56de26	-0.2098318
166	0xbe778ba0	-0.24174356
167	0xbeb9de5b	-0.36302456
168	0x3db395b9	0.08768792
169	0x3ea60610	0.324265
170	0xbefcf50c	-0.49405706
171	0x3e199fbe	0.15002343
172	0xbe33c209	-0.17554487
173	0xbca8f4c0	-0.020624518
174	0x3d7fa9d6	0.062417828
175	0xbd83eb5d	-0.06441376
176	0x3e318be5	0.17338522
177	0xbeecf006	-0.46276873
178	0x3db9a807	0.09065252
179	0xbf069ae9	-0.52580124
180	0x3e77a507	0.24184047
181	0x3d99b578	0.075053155
182	0x3c684c1a	0.0141783
183	0x3e349f15	0.1763881
184	0xbd71ac4f	-0.059002217
185	0xbeb87893	-0.3602949
186	0xbeb93536	-0.3617341
187	0x3e40e408	0.18836987
188	0x3ec66bd4	0.3875414
189	0xbeff0101	-0.49805453
190	0xbd149281	-0.03627253
191	0x3e851a99	0.25996855
192	0xbec4c7b1	-0.38433602
193	0x3d3673b8	0.04454395
194	0xbde89fd7	-0.11358612
195	0x3e4ca8c9	0.19986261
196	0x3e9fdef4	0.31224787
197	0x3d0f9535	0.035054404
198	0x3e973cd7	0.29538605
199	0x3e86face	0.26363224
200	0x3ca2bdad	0.019865835
201	0xbec83a38	-0.39106917
202	0x3e3faed5	0.18719037
203	0xbdbd859a	-0.09253998
204	0xbd1ea7e5	-0.038734335
205	0xbc8ed28d	-0.017434383
206	0xbe81ae64	-0.25328362
207	0xbd230d68	-0.039807707
208	0xbdcae0ab	-0.09906133
209	0xbecaa9a8	-0.39582562
210	0x3dda6198	0.10663146
211	0x3de04826	0.10951261
212	0x3ee575a4	0.44816315
213	0xbd8204e1	-0.06348587
214	0x3ea8f814	0.3300177
215	0x3be0c193	0.0068590133
216	0x3e2a7cdf	0.16649197
217	0x3d451b7b	0.04812191
218	0x3deacc96	0.11464803
219	0x3e49992d	0.19687338
220	0x3dc65194	0.096835285
221	0xbe2e04eb	-0.16994064
222	0xbdba99d0	-0.09111369
223	0x3e8c222d	0.27369824
224	0x3ead70f7	0.33875248
225	0x3d8a932d	0.06766353
226	0xbe86450f	-0.26224563
227	0x3dffc50f	0.12488758
228	0xbe70d79f	-0.23519753
229	0xbe2ab32e	-0.16669914
230	0x3f4290d2	0.7600223
231	0x3d2ecc45	0.042675275
232	0xbc36c4e4	-0.011155341
233	0x3cb76c59	0.022390531
234	0xbe8f3eef	-0.27977702
235	0x3eae1177	0.339977
236	0x3e4a5761	0.19759895
237	0x3e33599b	0.1751465
238	0x3e9c4267	0.3051941
239	0x3dc57644	0.09641698
240	0xbe00aae8	-0.12565196
241	0xbeb5d707	-0.35515615
242	0xbe0c504d	-0.13702507
243	0xbe56dcf7	-0.20982729
244	0xbe0220ae	-0.12707779
245	0x3c80e359	0.015733408
246	0x3e3a6bb0	0.18205142
247	0x3e0762a1	0.13221218
248	0xbee79d77	-0.45237324
249	0x3e64516e	0.22296688
250	0xbd9310db	-0.07180949
251	0xbec6163f	-0.38688847
252	0xbea50409	-0.3222964
253	0x3ee3ec93	0.4451643
254	0x3ccbe1a9	0.024887877
255	0xbeaea039	-0.34106615

bias f4 [76]
0	0xbe2ddca0	-0.16978693
1	0xbe276d2e	-0.16350242
2	0x3e917166	0.2840683
3	0x3e66b810	0.22531152
4	0x3e97e7b1	0.29668954
5	0xbe9313e9	-0.28726128
6	0xbca46457	-0.020067377
7	0xbe13cd73	-0.14433841
8	0xbe6c4635	-0.23073657
9	0x3df4b4d6	0.11948554
10	0x3ead3118	0.33826518
11	0x3e1d5f4e	0.15368387
12	0x3e1930d5	0.14960034
13	0xbe01900e	-0.12652609
14	0xbe6bc8e9	-0.2302586
15	0xbe65a542	-0.22426322
16	0xbec70768	-0.38872838
17	0xbd78e3c4	-0.06076409
18	0x3e220414	0.15821868
19	0x3e60af63	0.21941905
20	0xbe1c8aa3	-0.1528726
21	0xbe03561a	-0.12825814
22	0xbe289bc6	-0.16465673
23	0xbeabe738	-0.33574843
24	0xbec8f077	-0.3924596
25	0xbe5af665	-0.21383055
26	0xbe623ce2	-0.22093537
27	0x3e03589d	0.12826772
28	0x3e2aa720	0.16665316
29	0x3e7a5dc7	0.24449836
30	0xbe9f36e8	-0.31096578
31	0x3ec16fcc	0.37780607
32	0xbe868a5d	-0.26277438
33	0x3e24cdc7	0.16094123
34	0x3cff35ae	0.031153526
35	0xbe0228e3	-0.1271091
36	0xbe5ad9d8	-0.21372163
37	0x3ddcb97b	0.10777565
38	0xbe6f0ca4	-0.23344666
39	0xbe3d6749	-0.18496431
40	0x3e67a305	0.22620781
41	0x3dca72df	0.09885191
42	0x3d933f44	0.07189801
43	0xbe8c1f55	-0.27367654
44	0xbe3f2e54	-0.18670017
45	0x3eb60ac7	0.35555097
46	0x3ea3cce5	0.3199226
47	0xbe8cc290	-0.2749219
48	0x3b8b2ec9	0.0042475206
49	0x3e00d51f	0.12581299
50	0x3ea0660f	0.31327865
51	0xbe260383	-0.16212277
52	0x3e9ba04c	0.30395734
53	0xbe7d0c4b	-0.2471172
54	0xbe071ce6	-0.13194618
55	0x3eab4709	0.33452633
56	0xbddc15c7	-0.10746341
57	0x3e09f995	0.13474114
58	0xbe286b88	-0.1644727
59	0xbc2c45af	-0.010514661
60	0x3d876b8c	0.0661231
61	0xbe16915a	-0.14703885
62	0xbe73fcc4	-0.23826891
63	0x3e96b107	0.29431936
64	0xbe1bf502	-0.15230182
65	0xbe6d2ff3	-0.23162822
66	0xbe27bd9b	-0.16380922
67	0xbd8bc3b5	-0.068244375
68	0xbea40364	-0.32033837
69	0xbe1f38d5	-0.15549023
70	0x3e106211	0.1409991
71	0x3e98498a	0.29743606
72	0xbde21b69	-0.11040384
73	0x3e382de8	0.17986262
74	0xbec3c6fd	-0.38237754
75	0x3e301575	0.17195685

weight f4 [38, 76, 2, 2]
0	0x3dad23f9	0.08454127
1	0x3b825a8b	0.0039780787
2	0x3e63fb13	0.22263746
3	0x3e1f9f3e	0.1558809
4	0x3d617cb8	0.05505058
5	0xbdfef8ce	-0.124497995
6	0x3db1c9df	0.08681082
7	0xbcfafa05	-0.030636797
8	0x3e59e7e3	0.21279864
9	0xbde68dcf	-0.112575166
10	0x3c9c58bb	0.019085279
11	0xbd6bc0c8	-0.057556897
12	0x3dabb064	0.08383253
13	0x3e22c526	0.15895519
14	0xbe2da871	-0.16958787
15	0xbd92dbd2	-0.07170834
16	0xbe923476	-0.2855565
17	0x3d8613ae	0.06546722
18	0x3dda046b	0.10645374
19	0x3bc9b9f4	0.0061562005
20	0xbcb2f345	-0.021844516
21	0x3dc53e05	0.0963097
22	0x3d44f39d	0.04808389
23	0x3d6e775c	0.0582193
24	0x3e65f405	0.22456367
25	0x3e59c2a9	0.21265663
26	0x3e8c3fbd	0.27392378
27	0xbe4814ba	-0.19539157
28	0xbd7b084e	-0.061287217
29	0x3c70de0d	0.0147013785
30	0xbe18d25a	-0.14923993
31	0xbd0e1c8b	-0.03469519
32	0xbf5d4f35	-0.86448985
33	0xbed38e30	-0.41319418
34	0xbe4d80a8	-0.2006861
35	0xbf017fe8	-0.50585794
36	0xbdeebc9d	-0.11657069
37	0x3da72667	0.081616215
38	0x3d4e30f1	0.050339643
39	0x3e1cc5d7	0.15309845
40	0xbecfb862	-0.4057036
41	0xbec11a02	-0.37715155
42	0xbe10a975	-0.14127143
43	0x3b8a4e00	0.004220724
44	0xbe9244df	-0.2856817
45	0xbe81dc42	-0.25363356
46	0x3cad7c41	0.021177413
47	0xbe7a093f	-0.2441759
48	0xbdd5d516	-0.104410335
49	0xbda35db2	-0.07976855
50	0xbd8340cc	-0.064088434
51	0xb93c3e55	-0.00017952298
52	0x3e00705b	0.1254286
53	0xbb950bb6	-0.004548515
54	0xbe074ccc	-0.1321289
55	0x3da3e8ee	0.08003412
56	0xbe83f44c	-0.2577232
57	0xbd82b1d9	-0.06381578
58	0x3efafc41	0.4902058
59	0x3e986c74	0.29770243
60	0xbdef1a41	-0.116749294
61	0xbdaa6274	-0.0831956
62	0xbed5ed23	-0.41782483
63	0xbeb78c19	-0.35849074
64	0xbc848bdd	-0.016179973
65	0x3d0c8b9e	0.034312837
66	0xbbd4e6ca	-0.0064972388
67	0x3df5e0e2	0.120057836
68	0x3e02b10e	0.12762854
69	0x3d1f0ae4	0.038828745
70	0xbe1325cb	-0.14369886
71	0x3e8e9d68	0.27854466
72	0xbc7fd960	-0.015615791
73	0xbdac290a	-0.08406265
74	0xbbdcb880	-0.0067358613
75	0x3cf3c008	0.029754654
76	0xbdb19e73	-0.086728
77	0xbdfc461d	-0.123180605
78	0xbdd5a8e4	-0.10432604
79	0xbeed8f40	-0.46398354
80	0xbe4fa67a	-0.2027835
81	0x3d364964	0.044503585
82	0x3cba19cf	0.022717385
83	0x3cfb99c8	0.030712977
84	0xbe146042	-0.14489844
85	0x3db93e7d	0.09045122
86	0x3dbff8b0	0.09373605
87	0x3d6bc8b9	0.05756447
88	0xbda55ebf	-0.08074712
89	0x3d741f74	0.05960031
90	0xbd74ec69	-0.05979577
91	0x3ccefbec	0.02526661
92	0xbe8bbeba	-0.2729395
93	0x3be0bf3a	0.0068587335
94	0xbf829412	-1.0201437
95	0xbf3404ef	-0.7032003
96	0xbdd318b1	-0.10307444
97	0x3d259498	0.040424913
98	0x3dc6984f	0.09697019
99	0x3dbb8335	0.09155885
100	0x3e7f6a1e	0.24942824
101	0xbf40f3a1	-0.7537175
102	0x3e39eeba	0.18157473
103	0xbeda2b73	-0.42611274
104	0xbdcbeca4	-0.09957245
105	0xbe69db77	-0.22837625
106	0xbdc35d22	-0.09539248
107	0xbe7e2d86	-0.24822053
108	0xbe91ce64	-0.28477776
109	0xbba59170	-0.005052738
110	0x3d36c95d	0.04462563
111	0x3cc788d1	0.024357231
112	0xbe53fbb6	-0.20701489
113	0xbe3108c5	-0.17288502
114	0xbd9cc943	-0.07655575
115	0x3eb86c64	0.36020195
116	0xbdda67ea	-0.10664351
117	0xbd3ca585	-0.04605629
118	0xbe1f3965	-0.15549238
119	0xbee1b4c9	-0.4408324
120	0xbcb9ec0f	-0.02269557
121	0x3d4f851f	0.050664064
122	0xbc4de0cd	-0.012565804
123	0x3d398901	0.045296673
124	0x3e367b41	0.17820455
125	0x3e005e0e	0.12535879
126	0x3e8c2fc9	0.27380207
127	0x3da7d577	0.08195012
128	0x3d4df522	0.050282605
129	0x3e6ff28b	0.23432367
130	0xbdc78e18	-0.09743899
131	0xbdff27f1	-0.1245879
132	0xbed85b65	-0.42257228
133	0x3d9561ce	0.072940454
134	0x3eed8cdb	0.46396527
135	0x3e7e3165	0.2482353
136	0xbe037706	-0.12838373
137	0xbd487ba2	-0.04894603
138	0xbea329a2	-0.318677
139	0x3dd38ddc	0.10329792
140	0xbca63036	-0.02028666
141	0x3d166ffa	0.036727883
142	0x3da7d71b	0.08195325
143	0xbdece77f	-0.11567592
144	0x3d0e01bf	0.034669634
145	0x3e395f84	0.18102843
146	0xbc27a0dd	-0.010231224
147	0x3d79177e	0.06081342
148	0x3c9c6cef	0.019094912
149	0x3da33efc	0.07970998
150	0x3edb2cbc	0.42807567
151	0x3d9c75ef	0.076396815
152	0xbe629f26	-0.22131023
153	0xbe258079	-0.1616229
154	0xbe78afe4	-0.24285847
155	0x3dccacf6	0.09993927
156	0x3ee41697	0.44548485
157	0xbf0aa93a	-0.5416447
158	0xbd4eb92a	-0.050469555
159	0x3dfc5521	0.123209246
160	0xbe3a8e8a	-0.18218437
161	0x3e7c7547	0.24654113
162	0xbca9ecdc	-0.020742826
163	0x3e02a000	0.12756348
164	0xbe21df09	-0.15807737
165	0xbf59ab39	-0.8502689
166	0xbd259f7b	-0.040435296
167	0x3ca27f1b	0.019836
168	0xbd8f29c9	-0.06990392
169	0x3e459d53	0.19298296
170	0xbda69eeb	-0.0813578
171	0x3e716b39	0.23576058
172	0x3c0fb66e	0.008771522
173	0xbdacf785	-0.08445648
174	0x3d03852d	0.03210943
175	0x3dcaed3b	0.09908529
176	0x3dfe7c31	0.124260314
177	0x3b21bb8c	0.0024678437
178	0x3e1274a5	0.14302309
179	0x3e8462e1	0.2585669
180	0x3ea16d8b	0.31528887
181	0xbdcd75d4	-0.100322396
182	0x3eb7a1cd	0.35865632
183	0x3b199457	0.0023434365
184	0x3dd6586e	0.104660854
185	0x3df349c5	0.11879305
186	0x3dce755e	0.1008098
187	0x3d16476e	0.036689214
188	0x3e4c379d	0.1994309
189	0x3e772cff	0.24138258
190	0xbe41a1de	-0.18909404
191	0xbc0f145a	-0.00873288
192	0x3d9708db	0.07374736
193	0xbee65c28	-0.44992185
194	0x3d80b0f9	0.06283755
195	0x3d9aed24	0.07564762
196	0xba63778e	-0.0008677178
197	0x3e3583f3	0.17726116
198	0xbdba2a2a	-0.090900734
199	0x3dd33237	0.10312312
200	0x3d1a97d5	0.037742455
201	0xbe03cd6e	-0.12871334
202	0x3df0a86a	0.117508724
203	0xbceec626	-0.029147219
204	0xbcf6c461	-0.030122938
205	0xbd89b57f	-0.06724071
206	0xbe2c2a29	-0.16812958
207	0x3ece1122	0.40247446
208	0xbbff2159	-0.007785958
209	0xbe15acaf	-0.14616655
210	0xbc5d56f9	-0.013509505
211	0xbd9796a2	-0.07401778
212	0x3e3c8b7f	0.18412589
213	0x3e7c6d0b	0.24650972
214	0xbe34f7e8	-0.17672694
215	0xbf21db9e	-0.63225734
216	0xbe3e3e40	-0.18578434
217	0xbe69ba2e	-0.22824928
218	0x3dc37088	0.09542948
219	0x3e943d92	0.28953224
220	0x3e810f54	0.25207007
221	0xbe28071d	-0.16408964
222	0x3d5c2b94	0.053752497
223	0xbd58d68f	-0.052938994
224	0x3e1a22c8	0.1505233
225	0xbd909e25	-0.07061414
226	0xbe355cdf	-0.17711209
227	0x3e98d11b	0.29847035
228	0x3dc4f27c	0.09616563
229	0xbe43bec0	-0.19115734
230	0x3c3da3af	0.01157467
231	0x3defee38	0.117153585
232	0x3d934697	0.07191198
233	0xbc4e7f4d	-0.012603593
234	0xbe0a69cf	-0.13516925
235	0x3d9d30be	0.076753125
236	0x3c1ebad9	0.009688103
237	0xbf4e8d77	-0.8068461
238	0x3ec900c6	0.39258403
239	0x3f40f36d	0.7537144
240	0xbe487d1f	-0.1957898
241	0xbd10b50c	-0.03532891
242	0xbd8ae339	-0.067816205
243	0x3e71cac7	0.2361251
244	0x3e5ce246	0.21570691
245	0xbd06af5a	-0.032882072
246	0x3d059dbb	0.032621127
247	0x3dea598e	0.114428625
248	0x3b2e6b0f	0.0026614105
249	0xbf59707f	-0.8493728
250	0x3ea10f29	0.3145688
251	0x3ee8ed46	0.45493525
252	0xbe4c49d6	-0.19950041
253	0xbdaaadcb	-0.0833393
254	0xbdc0e92f	-0.09419476
255	0xbe1fc848	-0.15603745

bias f4 [38]
0	0x3e3557b6	0.1770924
1	0xbcce70a4	-0.025200196
2	0x3d215cfa	0.03939531
3	0xbd211a65	-0.039331812
4	0xbcf98882	-0.0304606
5	0x3dd0fa39	0.10203976
6	0x3db923fc	0.090400666
7	0x3c40aea0	0.011760384
8	0xbe49cbaf	-0.19706605
9	0x3e4d0e3b	0.2002496
10	0x3e0db232	0.13837507
11	0xbd3eea4c	-0.04661016
12	0x3d5cc958	0.053902954
13	0x3e30a47b	0.17250244
14	0x3da32d76	0.07967655
15	0xbdc101b9	-0.09424157
16	0x3d4dafbd	0.050216425
17	0xbb4fcdd9	-0.0031708388
18	0xbcfbc42e	-0.030733194
19	0xbd75c2d7	-0.060000267
20	0x3b2a013f	0.0025940684
21	0x3df967df	0.12178015
22	0x3d5fee76	0.054670773
23	0xbdea3852	-0.114365235
24	0xbcfa52d3	-0.030557072
25	0x3ccb3c4e	0.024809029
26	0xbe35066c	-0.17678231
27	0x3e29bad1	0.16575171
28	0xbca1dbe1	-0.019758167
29	0x3e36eb6d	0.17863245
30	0xbdba02bd	-0.090825535
31	0x3e369dc3	0.17833619
32	0x3d1c32dd	0.038134445
33	0xbd85ff2b	-0.0654281
34	0xbcd2b250	-0.025719792
35	0xbd34207c	-0.043976292
36	0xbd74c929	-0.059762154
37	0xbd7d3c27	-0.061824944
