models/model_12.pt (torch, 466374 bytes, 18 tensors)

weight f4 [76, 1, 3, 3]
000000 76 7c f0 bd f8 89 8f be eb 27 6a be 40 70 f0 3c
       -0.11742489 -0.2803495 -0.2286679 0.0293504
000010 7b e2 9d bd 6e 7d 6b be 56 2c 93 3c 80 78 66 bc
       -0.07709213 -0.22997066 0.017965477 -0.014066815
000020 2e fd 17 3e be b1 a7 be eb a2 24 be f8 e1 18 3e
       0.14842674 -0.32752794 -0.16077773 0.1492995
000030 2b 05 1e 3c 56 5d 2d bc 58 2d 3a 3e 00 c4 00 bc
       0.009644787 -0.010581335 0.1818136 -0.00785923
000040 2b 8e d3 3d 56 cd 1d be 46 c6 f1 3d 96 84 64 be
       0.10329851 -0.1541036 0.11805396 -0.22316203
000050 96 b2 b3 bc 9b 7f 96 3d 40 ad 7b 3e cb 44 73 bd
       -0.021935742 0.073485576 0.24577808 -0.059391778
000060 46 b6 33 3e fe 89 61 be 03 65 06 3e 7b ae 10 be
       0.1755 -0.22025296 0.1312447 -0.14129059
000070 c0 f4 52 be 00 81 d6 bc 1b 9a c6 bd ab fb a9 bc
       -0.20601177 -0.026184559 -0.09697362 -0.020749887
000080 2f fa 82 be 20 9c b0 3d 5b cb 49 be 83 4e 88 be
       -0.255815 0.086235285 -0.1970648 -0.266224
000090 5b b7 87 bd e3 4a 6d 3e eb ac 3e bd 60 98 b2 bd
       -0.06626769 0.23173098 -0.046551626 -0.087204695
0000a0 d6 0f 58 3c 36 98 f6 bd 30 75 9a bd c6 56 d8 3d
       0.013187369 -0.12040751 -0.07541883 0.10563426
0000b0 e4 1f 89 3e c6 ab 08 3e 2b 31 b8 bd e6 af e1 bd
       0.26782143 0.13346776 -0.08993753 -0.11019878
0000c0 82 40 9d be ab b2 29 3e 16 4a 7e be 4b 60 6d 3d
       -0.30713278 0.16572063 -0.24832949 0.05795316
0000d0 6b 9f 02 be 42 0f a2 be 3b 10 ee 3d 83 4a 60 3e
       -0.12756126 -0.31652266 0.116241895 0.21903424
0000e0 90 67 96 bd bc ef a4 be 10 b2 34 3e b4 83 83 be
       -0.07343972 -0.32214153 0.1764605 -0.2568642
0000f0 46 29 58 be 1b 7c 18 3e fc cd a8 3e 6c 89 a0 3e
       -0.21109495 0.14891092 0.32969654 0.31354845
000100 b0 a4 a3 bd 06 ae 0e be 20 f4 36 be 2b b2 8b bc
       -0.07990396 -0.13933572 -0.17866564 -0.01705273
000110 60 9b 50 be eb 95 54 be cb 73 98 bd d2 c7 92 be
       -0.20371771 -0.20760314 -0.07443961 -0.28668076
000120 23 27 6e 3e 2c 04 80 3e 36 85 2a bd 0e 61 65 be
       0.23257117 0.25003183 -0.041630946 -0.22400305
000130 e8 e6 37 be 83 d1 37 3e 2c 1e 90 3e 00 ef 64 bc
       -0.17959177 0.17951016 0.2814802 -0.013972998
000140 80 99 3e 3e e3 e1 5f be 0f a1 8c 3e 6b 7b 3a 3e
       0.18613243 -0.21863513 0.27466628 0.18211143
000150 eb 81 6f 3e 1e 49 90 be 3b 5b 9b bd 96 ae 17 bd
       0.23389404 -0.28180784 -0.0758576 -0.037031732
000160 d8 33 65 3e 6b f9 fd 3c 96 1d a6 bc 94 31 8d be
       0.22383058 0.03100272 -0.02027778 -0.27576888
000170 96 b8 82 bc 5b e2 af bd 68 d1 72 be 6a c6 95 be
       -0.015957158 -0.08588096 -0.23712695 -0.2925294
000180 7f 7e a1 3e 24 96 93 3e 18 75 1c be a4 76 a3 be
       0.3154182 0.28825486 -0.15279043 -0.31926453
000190 2e f8 1e 3e c8 01 15 be ab 96 f1 bb ee 46 08 3e
       0.1552436 -0.1455146 -0.0073726973 0.13308308
0001a0 3b 45 1c 3e 0b c4 87 3e d0 b1 e5 3d 80 95 1d 3d
       0.15260784 0.26516756 0.11215556 0.038472652
0001b0 56 ce 83 3d 6a a9 88 3e d6 7f 76 3d c0 69 a0 3c
       0.0643584 0.26691753 0.060180508 0.019581676
0001c0 08 07 70 be 00 2a 1b 3b 1b 61 ce 3d bb 9f dd bd
       -0.23440182 0.0023676157 0.10077115 -0.10821482
0001d0 00 8a 03 3e 50 f8 f5 bd 90 ee 17 3e 3e 70 8c 3e
       0.12845612 -0.120102525 0.14837098 0.27429384
0001e0 4b b6 58 3d 23 b9 4d be d0 b9 51 3e cb 4c 43 3d
       0.052908223 -0.20090155 0.20481038 0.047680657
0001f0 66 03 97 be 20 cf 4e be 8b 24 06 3e d6 52 bd bc
       -0.2949478 -0.201962 0.13099878 -0.023110788
000200 bc 53 8f be 8c c3 8c be ac 26 90 3e b0 2c 18 3e
       -0.27993572 -0.2749294 0.28154504 0.14860797
000210 d0 3c 0a be d8 78 9d be 6b e7 34 3d cc 1c 89 3e
       -0.1349976 -0.3075626 0.04416601 0.26779783
000220 46 c6 c4 bd eb a6 89 bd 46 ed 87 3e 74 1f a4 be
       -0.0960813 -0.0672129 0.26548213 -0.32055247
000230 60 3d 43 bd 8b 51 30 be c0 b8 59 3e a0 19 7f be
       -0.047665954 -0.17218606 0.21261883 -0.24912119
000240 de 2c 05 be 76 35 c8 3d 43 23 2d be 40 74 8e 3e
       -0.13005397 0.09775822 -0.16907983 0.27823067
000250 73 0e 87 3e b0 aa 9a be 4c b7 87 3e b6 f7 2d bd
       0.2637821 -0.3020835 0.26507032 -0.042472564
000260 d2 67 a4 be 2e 30 0f 3e d6 d2 96 bd e6 07 8e bd
       -0.3211046 0.13983223 -0.073644325 -0.069351
000270 ae e6 8c be 16 b2 55 3d c6 a1 09 3e 80 c5 13 be
       -0.27519745 0.05217179 0.13440618 -0.14430809
000280 6b 43 5e 3d 48 e1 23 3e 3e 40 31 3e 2b 26 58 3c
       0.054263514 0.16003907 0.17309663 0.013192694
000290 83 5a 98 3e de 1b 37 be a8 9d 5c be a6 0e 1f be
       0.29756555 -0.17881724 -0.21544516 -0.15532932
0002a0 d6 28 03 be 06 87 97 3e ac 5f a6 3e 80 65 4b bc
       -0.12808546 0.29595202 0.32494867 -0.012414336
0002b0 80 c8 e4 bc 8b 49 13 3e a0 63 55 3d f4 93 8d be
       -0.027927637 0.14383523 0.052096963 -0.27651942
0002c0 e0 2d eb 3d 96 cc 9c 3c 06 fd 84 be fb 23 19 be
       0.11483359 0.019140523 -0.25974292 -0.14955132
0002d0 c8 5e 3e 3e fb bf 44 3e a0 4c 82 3e 2b 7d 29 be
       0.18590844 0.1921386 0.25449085 -0.16551654
0002e0 2b 44 91 3c 60 9e 7a 3e f0 b7 a9 be 76 4c 80 3e
       0.0177327 0.24474478 -0.33148146 0.25058335
0002f0 ab 94 49 3e 34 2e 8a be f0 80 8e bd 04 fb 83 be
       0.19685619 -0.26988375 -0.069581866 -0.25777447
000300 3e 09 58 be d7 2b 95 be 78 1c a4 be a4 55 96 3e
       -0.21097276 -0.2913501 -0.3205297 0.29362214
000310 8b 70 47 bd 32 34 8f 3e 77 ef 9e be e6 2f ff bd
       -0.048691314 0.2796951 -0.31042072 -0.12460308
000320 22 87 a1 be f3 47 04 3e f0 08 95 3d e0 a7 3a 3e
       -0.3154841 0.12918071 0.07277095 0.18228102
000330 2b 3d b9 bd 96 8b 57 bd 2b 73 23 3e c0 7b d2 bc
       -0.0904487 -0.052623354 0.15961902 -0.025693774
000340 80 19 30 3d ce 2c 03 3e 5b ea 2a be 56 cd 0f bb
       0.04299307 0.1281006 -0.16690962 -0.0021942458
000350 4b 53 8c bd eb c8 df 3c ee 3b 78 be 5e 97 6e 3e
       -0.068518244 0.027317485 -0.24241611 0.2329993
000360 1e c9 51 3e 56 b1 2f bd 73 b2 70 be e6 58 42 be
       0.20486876 -0.04289373 -0.23505573 -0.18979225
000370 f6 6b 33 be 90 65 a8 3e d6 ad fc 3c bb cd 14 be
       -0.17521653 0.32889986 0.03084461 -0.14531605
000380 6b 3e b8 bc eb d7 45 be bc 1c 95 3e 57 d5 8d be
       -0.0224907 -0.19320647 0.29123485 -0.27701828
000390 c0 7b 7e 3e c0 0c ec 3d da 13 9b 3e 7e c2 36 be
       0.24851894 0.11525869 0.30288583 -0.1784763
0003a0 9b 97 d4 3d 38 bf 4e 3e b7 95 8a 3e 4a a3 a1 be
       0.10380479 0.20190132 0.27067348 -0.31569892
0003b0 d3 d3 33 3e d4 b5 a8 3e f7 d7 8d be eb 9b 08 bd
       0.17561273 0.32951224 -0.2770383 -0.03335182
0003c0 b6 84 91 3d 00 2a f1 bd 56 ef 4f 3c f0 19 9a 3e
       0.07105391 -0.11775589 0.0126913395 0.30097914
0003d0 47 01 94 3e 10 45 67 be c0 96 ca 3d 57 e0 86 be
       0.28907225 -0.22584939 0.098920345 -0.26343033
0003e0 d6 83 13 3c 43 6d 17 be 68 5d 52 3e 7c 42 83 3e
       0.0090036 -0.14787774 0.20543444 0.2563666
0003f0 a8 61 85 3e 16 24 55 3e 4b 17 17 bd 96 25 7a be
       0.26051068 0.20814547 -0.03688745 -0.244284

bias f4 [76]
000000 d3 b5 54 3e d0 33 80 bd f6 ae f3 3d 8e 30 09 be
       0.20772485 -0.062598825 0.118986055 -0.13397428
000010 57 26 98 3e f6 62 48 be 08 20 a4 3e f3 6a 42 3e
       0.2971675 -0.19569 0.32055688 0.1898611
000020 00 43 a9 be 58 8c 4a 3e 6b 5c aa 3d d6 a9 1e be
       -0.3305893 0.197801 0.083184086 -0.15494475
000030 2e 5a 9b be 26 4a f6 bd 80 7f cd 3d 00 ea d3 3d
       -0.3034224 -0.120258614 0.10034084 0.10347366
000040 e0 30 e1 bd a3 7c 2b 3e a0 0b 39 bd 33 88 64 be
       -0.1099565 0.16746764 -0.045177102 -0.22317581
000050 2b 76 f2 3d a8 59 16 be 6b c5 82 bc b6 58 96 3d
       0.11838945 -0.14682639 -0.015963277 0.07341139
000060 30 a9 b7 bd 80 3e bb bc 76 4e 67 be 56 05 10 3e
       -0.08967817 -0.02285695 -0.22588524 0.14064535
000070 80 5c 36 bd 73 2a 48 be 5e 5b 74 3e 80 20 5a bc
       -0.04452181 -0.19547443 0.23862979 -0.013313413
000080 30 26 b1 3d 80 82 7e bd b8 8d 8a be 93 82 40 be
       0.08649862 -0.062136173 -0.27061248 -0.1879981
000090 d8 ce 21 be b2 43 a9 3e 00 b3 cf bb bb bc 43 3e
       -0.15801561 0.3305946 -0.006338477 0.19114964
0000a0 46 bc d0 3d 00 af fd 3d 63 14 00 be c0 b7 e3 bc
       0.1019216 0.12386894 -0.12507777 -0.02779758
0000b0 f0 ea 00 be 28 bb 6a be c6 b0 93 bd 48 e6 5b 3e
       -0.12589622 -0.22922957 -0.07211451 0.21474564
0000c0 ab 24 fc 3c b2 89 97 3e 8b b9 04 be 07 b6 99 be
       0.030779203 0.2959724 -0.12961404 -0.30021688
0000d0 80 e1 7f 3e ce 57 62 be 3e 7d 4c 3e a0 59 43 3e
       0.24988365 -0.22103807 0.19969651 0.19077158
0000e0 e0 6a 92 bd 53 47 88 be de 37 a2 3e cb 0e aa be
       -0.07149291 -0.26616916 0.31683248 -0.3321441
0000f0 73 7b 78 3e ca e2 98 3e ab de fc 3b 16 f4 8e bc
       0.24265842 0.29860526 0.007716974 -0.017450374
000100 f0 34 44 be d0 c8 74 be c6 32 35 be 00 90 08 bb
       -0.19160819 -0.23904729 -0.1769515 -0.0020837784
000110 c0 9e 2d bd 14 fb a3 3e 4b a6 c6 3d 73 f3 3c 3e
       -0.042387724 0.32027495 0.096996866 0.18452244
000120 eb 72 12 be db 91 8d 3d 00 27 cf 3b ef 35 a0 be
       -0.1430165 0.06912585 0.006321788 -0.31291148

weight f4 [50, 76, 3, 3]
000000 36 ea 18 bd f8 82 e2 bc 64 98 04 3c 5c 66 e1 bc
       -0.037332736 -0.027650341 0.008092973 -0.027514629
000010 64 a8 d6 bc 1b d3 0b bd 47 a8 43 bc 85 fb 0f bc
       -0.026203342 -0.034136873 -0.011941976 -0.008787994
000020 e2 15 c4 3b 7c a0 0f bd a3 03 e9 bc c4 ae 06 3d
       0.005984054 -0.03506516 -0.028444117 0.032881513
000030 0f 6d 85 3b cc 74 ca bc 10 06 84 3c a0 ad c2 3b
       0.0040718387 -0.024713896 0.016116172 0.005941108
000040 6c 8b c0 3b 8d bc 06 3d 18 01 0d 3c 90 7a e7 3c
       0.0058759954 0.03289466 0.008606218 0.028256685
000050 ec f7 f9 bb ec 7b d7 bc fc 22 a2 3c 00 b5 e0 bb
       -0.0076284315 -0.026304208 0.019792072 -0.0068575144
000060 4e ca be ba fe f0 92 bc 7d 84 c7 bc 07 f4 4c bc
       -0.0014556141 -0.01793718 -0.024355168 -0.0125093525
000070 c5 0a fe 3c 7c ad 94 bb d7 bd 47 bc d7 12 12 bc
       0.031010995 -0.0045372825 -0.012191257 -0.008915625
000080 d2 5a 85 bc 90 52 4f bc 26 99 35 3c 4c f0 df bc
       -0.016278658 -0.012653962 0.011083877 -0.027336262
000090 28 f9 85 3c f2 e3 36 3c 92 55 86 ba 7e 3a 7a bc
       0.016354159 0.011162745 -0.0010248891 -0.015272735
0000a0 7a 88 9b ba e9 af f3 bc 4a 40 65 3b f4 81 7c 3c
       -0.0011866235 -0.029746966 0.0034980946 0.015411843
0000b0 c7 3a 15 3d 85 1e a3 bc 28 27 52 3c e7 87 b5 bc
       0.036433008 -0.019912014 0.012826718 -0.02215953
0000c0 23 36 81 3c bd 42 c8 3c 31 0b 96 bb 42 46 a1 bc
       0.015772885 0.024445886 -0.004578971 -0.019686822
0000d0 00 8c 38 bc 3d 98 df 3c f1 69 93 3c c3 57 37 3c
       -0.011263847 0.027294273 0.017994853 0.011190358
0000e0 56 f4 f2 bc 67 c7 df 3c ab 6f 84 3b b9 9f c4 bc
       -0.029657524 0.027316762 0.004041632 -0.024001943
0000f0 e9 be d8 3b dd cd c5 ba 48 e5 b8 3b fe 20 a8 ba
       0.006614555 -0.0015091259 0.005642567 -0.0012827215
000100 fb 3a 0a bd 39 7d 93 3c f7 6a b8 bb 43 55 26 3c
       -0.033747654 0.018004047 -0.0056279856 0.010152164
000110 ac a7 e5 3c 42 65 e1 3c 53 85 0a bd b7 65 bd 3b
       0.028034054 0.027514104 -0.033818554 0.0057799476
000120 8b 3c 31 3b 02 c0 bf 3b d2 7a 08 bd fc 5f eb 3c
       0.0027044143 0.0058517465 -0.033320256 0.028732292
000130 11 ac 16 bd 1c 4a 0f bd ca 6c 89 3c ca 21 e4 3c
       -0.03678519 -0.034982786 0.016775507 0.027848143
000140 fe 2c af bc 8c 3b a9 3c 43 10 fa 3c fa 19 a4 bc
       -0.021383759 0.020658277 0.030525332 -0.020031918
000150 3d 6d a0 3a 21 6d 80 bc f2 19 ce 3c 19 4d 0c bb
       0.0012239587 -0.015677037 0.025158856 -0.0021408258
000160 cb be 0c bc cb cf 84 3b db bc 04 bd e5 05 59 3c
       -0.00859041 0.004053091 -0.03240667 0.013246034
000170 6b ba 08 bc 76 4b b7 bc 5f a4 26 bc 5d 86 ce bc
       -0.008345227 -0.02237485 -0.010171025 -0.025210554
000180 47 14 9b bc d7 9b 60 bb 3e dc d1 bc 30 87 05 bd
       -0.018930567 -0.0034272575 -0.025617715 -0.032599628
000190 53 5f 81 bc 9d 7a 2e bc 1c 42 54 3c 4d 40 19 3d
       -0.015792524 -0.0106493505 0.012955215 0.037414838
0001a0 8f 9d 09 bc f5 cb 0f 3d 78 9e df bc b5 95 bf 3c
       -0.008399381 0.035106618 -0.027297243 0.023386816
0001b0 a9 26 8c 3c e7 06 c4 bc a8 3c 4f 3c f9 79 c8 bc
       0.017108278 -0.023929073 0.012648739 -0.024472224
0001c0 ef 68 f4 bc 92 dd b4 bc 1a b7 1a bd 33 ff c1 bc
       -0.029835192 -0.02207831 -0.037772276 -0.023681259
0001d0 12 68 a8 3c 8b fb 92 ba 1d 5e 04 bd 85 15 d1 3b
       0.020557437 -0.0011213882 -0.032316316 0.006380739
0001e0 da 0c 98 bb 16 4b c6 bb 0b bf 1b bd 52 83 ef bc
       -0.004640204 -0.0060514314 -0.03802399 -0.029237423
0001f0 c1 f8 1a 3d fc 32 da bb 7b 28 1f 3c ab 7e ea 3c
       0.037834886 -0.00665891 0.009714241 0.028624853
000200 2e de ac 3b 5f ed 11 3c 08 0f 10 bd f5 87 ab 3c
       0.0052755093 0.008906691 -0.035170585 0.020938853
000210 9f e2 4b bc 58 7d e4 3c 30 3b 1a bd c4 8d 0b bc
       -0.012444167 0.0278918 -0.0376541 -0.008517686
000220 c3 86 03 3d a8 8f 4e bc 0c 1c 5f 3c e4 8a 94 3c
       0.03211094 -0.0126074925 0.013617527 0.018132634
000230 61 d8 81 bc 22 cf fb bc 8f be 08 bd 14 72 04 3d
       -0.015850248 -0.030738417 -0.033384856 0.032335356
000240 b0 50 0c bd 90 bb 1b 3d ca 4f 48 3c 45 44 d6 3c
       -0.034256637 0.03802067 0.012226054 0.0261556
000250 2e 8e c8 3c 97 9c d0 3c 32 1d b6 3c 87 44 ba bc
       0.024481859 0.025465293 0.022230718 -0.022737755
000260 e9 44 e2 3c 96 af 07 3c e4 8d bd 3c 19 b3 9d 3c
       0.02762075 0.008281609 0.023138948 0.01925044
000270 14 af 95 3b 3e 35 2d bb b6 7a 00 bd 4b b8 09 3d
       0.00456799 -0.002642944 -0.031367026 0.03362302
000280 67 af d0 bc 09 f6 a3 bc bb 68 6a bb a0 c5 09 3d
       -0.025474263 -0.02001478 -0.003576799 0.033635736
000290 2a de a8 bc a3 a2 fa bc 62 62 dc bc 6a d8 ff bc
       -0.020613749 -0.03059513 -0.026902381 -0.031231124
0002a0 da c0 fe 3c 96 09 3b bc e8 e8 42 bc 15 02 a0 bc
       0.031097818 -0.01141586 -0.0118963495 -0.019532243
0002b0 de 45 1d bc 76 d8 64 bc 5e 79 71 bc 7c 95 d0 3c
       -0.009599177 -0.013967624 -0.014738409 0.025461905
0002c0 b3 08 16 3d 43 c9 95 3c 42 56 c9 3c 67 6f 13 3d
       0.03662939 0.018284446 0.024577264 0.035994913
0002d0 9f 86 f9 bc de 62 9f 3c 58 8f 09 bd a5 51 39 3a
       -0.0304597 0.019456323 -0.03358397 0.0007069356
0002e0 25 8c 0a 3d c5 66 9d bc b7 07 83 3b bc 63 2f bc
       0.03382506 -0.019214043 0.0039987224 -0.010704931
0002f0 6e 04 6b 3a 39 ba 05 bd 68 53 bf 3c 55 73 c0 bc
       0.00089651986 -0.0326483 0.0233552 -0.023492495
000300 b0 1f bb 3a b7 dc 56 3a 37 fb 09 3b 71 19 b1 b9
       0.0014276411 0.0008196341 0.0021054277 -0.00033779026
000310 3b 61 d6 3c 95 12 45 3c 44 d4 ee 3c bc ed 80 3c
       0.02616941 0.012028356 0.02915395 0.01573836
000320 12 0b c7 bb ab 37 b1 3c be 90 ad 3b 07 c1 a6 3b
       -0.0060743177 0.02163299 0.0052967956 0.0050889286
000330 83 c3 9e bc 62 5d d3 3b 5b d0 e2 ba 3d dc ba 3b
       -0.019380337 0.006450341 -0.0017304526 0.005702524
000340 88 92 9f 3a f0 6e 10 3d cf 06 6a 3c 1d ac e9 3c
       0.0012174407 0.03526205 0.01428385 0.028524453
000350 0a b6 01 bd 9a 82 98 3c 4d d8 b9 3c fa 4c ca 3c
       -0.031667747 0.018616963 0.022686148 0.024694908
000360 53 73 f7 3c 1f 4b a5 3c 10 f5 c6 bc 64 36 0a bd
       0.030206358 0.020177422 -0.024286777 -0.033743277
000370 76 d7 ed bc bc d9 6c bc d3 05 e9 3b 2b 8f dd bc
       -0.029033404 -0.014456209 0.00711129 -0.027045807
000380 42 57 b6 3b 24 22 04 3d cb fc e4 bc 7f 4b ff ba
       0.005564601 0.03225912 -0.027952572 -0.0019477456
000390 43 d5 1e bb 6e 1d 96 bb 64 55 0b bd 47 03 30 bc
       -0.0024236 -0.004581145 -0.03401698 -0.010742969
0003a0 5c 0c b9 bb 0c 5a 5f 3b 1f 12 e3 3b be 66 79 3c
       -0.0056472253 0.0034080772 0.0069296504 0.01522225
0003b0 0e c8 be 3c dc ba ab 3c 16 09 f3 3a 1b 49 3a bc
       0.023288753 0.020963125 0.0018542137 -0.011369969
0003c0 df 6c d9 3c 5c 70 db 3c 29 52 fa 3b 56 ec 0d 3d
       0.026541172 0.026786976 0.007639189 0.034649216
0003d0 fc d1 82 3c 56 c2 29 3c b6 b5 74 3b f7 44 8b 3b
       0.015969269 0.010361275 0.0037339753 0.0042501646
0003e0 07 cd 12 bd 57 e8 12 bd 38 2e 85 bc 82 4a 1c bd
       -0.03584006 -0.035866108 -0.01625739 -0.038156994
0003f0 c2 6d b8 b9 58 d7 49 bc c2 a5 16 3d 26 34 40 3c
       -0.0003517699 -0.012319408 0.036779173 0.011731183

bias f4 [50]
000000 6e e2 99 3c af 56 75 bb d6 b4 ff 3b 2b b2 01 3d
       0.018784728 -0.00374357 0.0078035397 0.031664055
000010 9c 3f 8e bc 46 8a 05 bd 21 1d 51 bc 60 78 e2 3c
       -0.017364316 -0.03260257 -0.0127632925 0.02764529
000020 11 12 19 3d 60 18 87 3c 59 35 7e bc 78 1e 11 bd
       0.037370745 0.016491115 -0.015515649 -0.035429448
000030 61 d6 64 3b ff 4f 89 39 ef af 05 39 e1 5e b0 bc
       0.003491782 0.00026190278 0.00012749409 -0.021529617
000040 1f 75 dd bc 98 f7 c0 3c d7 84 a2 3c 5a c7 87 bc
       -0.027033387 0.023555562 0.019838734 -0.01657455
000050 27 14 06 bd bb ba a7 3c e1 67 1b 3c c1 15 a2 bc
       -0.032734063 0.020474782 0.009485216 -0.019785764
000060 98 b2 00 3d 3a fa 7c bc 1a 01 ab bc 74 c3 91 bc
       0.03142032 -0.015440518 -0.020874549 -0.017793395
000070 5b 72 37 3c 26 ea 19 3d c5 9f f9 3c 62 4d 05 3d
       0.011196698 0.037576817 0.030471692 0.0325445
000080 f8 ab dd bc 9b be ef 3c 0f 44 11 3b 49 4f 1a 3c
       -0.02705954 0.029265692 0.002216581 0.009418317
000090 8c ed 87 bc 0c 2e d2 3c 0f 9c 1c bd ab 1a 04 3c
       -0.016592763 0.025656722 -0.038234767 0.008062999
0000a0 e1 91 f1 3c 6f 4b d1 3c 9d 8d bf 3b d2 bd f0 bc
       0.029488506 0.025548665 0.005845739 -0.029387388
0000b0 fc 76 a5 bc 45 e7 9f 3c c7 2c 5f ba 60 6e 57 bc
       -0.020198338 0.019519458 -0.0008513447 -0.013148874
0000c0 42 0d aa bc 32 1e 1a bd
       -0.020758275 -0.037626453

weight f4 [50, 75, 3, 3]
000000 9a f7 29 3c 3d 2a ec bc 8c 23 d2 bc 61 af 02 bd
       0.010373974 -0.028828735 -0.025651716 -0.031905536
000010 70 f8 76 3c e4 57 06 3c 30 db 5b 3a 6a 7e fa bb
       0.015073881 0.008199666 0.00083868485 -0.0076444643
000020 34 63 03 3d 11 6e d5 3c bf 4a 00 bd 8f d5 36 3c
       0.03207703 0.02605346 -0.031321283 0.011159315
000030 b1 90 c6 ba 2a a0 24 bc 93 c9 88 bc 8a 72 f0 bc
       -0.0015149323 -0.010047952 -0.01669768 -0.029351491
000040 42 e8 16 3c 14 50 ea 3c ba 09 11 3c ef 46 d7 bb
       0.009210648 0.028602637 0.008852417 -0.0065697352
000050 97 9e 0f 3b b2 b4 4e 3c 29 ae 85 3c 71 f2 16 3d
       0.0021914595 0.012616323 0.016318398 0.036852304
000060 57 e8 6c 3c dd b8 ff bb ad bb b5 3c 0c 7c 0f bc
       0.014459691 -0.00780402 0.022184217 -0.008757602
000070 ca f3 d8 3b df f8 01 bc fa b1 e0 3c 83 97 0e 3d
       0.006620859 -0.007932871 0.027428616 0.03481246
000080 3e 41 b7 bc 69 db d4 3c dd f2 0b bd 35 4b 0f 3d
       -0.022369977 0.02598353 -0.03416716 0.034983832
000090 e7 2c ce ba a1 93 05 bc 34 bd af bc e7 97 07 3d
       -0.0015729935 -0.008152873 -0.021452524 0.03310385
0000a0 60 cf b1 3a 26 a5 8a bb 10 8a 12 bd 84 c0 04 bd
       0.0013565831 -0.004231113 -0.035776198 -0.03241016
0000b0 79 09 ac 3c 6b d6 59 bb 03 1e 7b bc d6 4e cc bc
       0.02100061 -0.0033239375 -0.01532698 -0.024939936
0000c0 3f 7a 41 3c 06 6b 85 bc 51 12 ce 3c d6 99 1d bc
       0.011808931 -0.016286384 0.025155218 -0.009619197
0000d0 06 ee ad 3b a9 88 1d 3d c5 d1 35 3c d2 0c 09 bd
       0.0053079156 0.038460407 0.011097376 -0.033459492
0000e0 64 c4 6b bc 45 c0 c1 bc 98 ef 5f bc 1e b2 17 3d
       -0.014390085 -0.023651252 -0.013667963 0.0370351
0000f0 ca 75 dd 3c e3 1d 03 3d fd bd 85 bb 3d 71 fa 3c
       0.027033705 0.032010924 -0.0040814863 0.030571574
000100 6c c6 9f bc f5 59 84 bb 15 d7 fe 3c f2 a6 87 3c
       -0.019503795 -0.004039044 0.031108418 0.016559098
000110 82 71 c8 3c 07 de f8 bc 19 3d ec bc d2 54 05 3d
       0.024468187 -0.030379308 -0.028837727 0.032551594
000120 6b 2e 03 bd a4 8a 42 bc 38 05 05 bc 03 4a 1c 3d
       -0.03202669 -0.011873875 -0.00811892 0.03815652
000130 13 06 08 3c 62 74 a4 3a cd 05 24 3c d9 ec 35 bc
       0.008302229 0.0012546892 0.010011149 -0.011103832
000140 af c7 86 bc 16 cd d2 bb 16 27 02 3d 02 cd 8c bc
       -0.016452638 -0.0064331396 0.031775557 -0.0171876
000150 64 4f c0 3c c5 a2 95 3b ca 48 2c bb 84 e5 ed 3c
       0.023475356 0.004566523 -0.0026288503 0.029040106
000160 7d d6 ce bc 6a c8 d7 3b b8 9e 9f bc cc 42 97 3c
       -0.02524876 0.0065851705 -0.019484863 0.018464468
000170 c6 07 83 bc 20 17 01 3c 4d 93 fe 3a af 2c d1 bc
       -0.015994918 0.007879049 0.0019422561 -0.025534002
000180 67 15 fe bc d5 3f bd bc 80 d3 e4 bb 8b e6 f2 bc
       -0.031016065 -0.023101727 -0.0069832206 -0.029650947
000190 2f 56 ac bb 6c 7c bd 3c db d7 01 bd cf 51 b5 3b
       -0.0052592973 0.023130618 -0.031699996 0.005533434
0001a0 d3 05 82 bc 13 d2 5e 3c 94 99 a0 bc 35 af b1 3c
       -0.015871918 0.01359989 -0.019604482 0.02168999
0001b0 29 13 1c bd 77 29 37 3c 3c d4 b4 bc 54 5d d6 3c
       -0.03810421 0.01117932 -0.022073857 0.02616755
0001c0 4b 74 8b 3c f3 f0 9c bc 17 b3 5e bc 44 ac 99 bb
       0.017023226 -0.019157862 -0.013592503 -0.004689725
0001d0 7d dd 19 3d 1c a6 10 3d c7 68 61 3b 46 3c 97 3c
       0.037564743 0.035314664 0.0034394728 0.018461358
0001e0 a9 6b f3 3c c8 0d 85 bb 5b 31 ba bc 4b 68 c0 bb
       0.029714422 -0.0040604807 -0.022728613 -0.0058718077
0001f0 3b f0 91 3c 32 38 2e 3c b3 f1 05 bc 7d 8d ee bc
       0.017814746 0.010633515 -0.008175301 -0.029120201
000200 6c 65 18 3d e4 a1 8f bc cd 9b e2 bc c0 17 c5 bc
       0.0372061 -0.01753325 -0.027662182 -0.024059176
000210 ee 97 83 bb cb 94 2b 3c 73 64 0b 3d ce 71 1d 3d
       -0.004015914 0.010472487 0.034031343 0.03843861
000220 32 4c e9 39 75 b8 3d 3c a9 24 0d 3b d5 1f c8 3b
       0.00044497993 0.0115796225 0.0021536744 0.0061073103
000230 87 86 c7 3b cc 59 fe bc e9 89 42 bc 13 92 9f 3b
       0.006089035 -0.031048678 -0.011873701 0.0048697083
000240 02 8e 14 3c 1e c1 29 3c 54 4b f0 3b 61 24 19 bd
       0.00906706 0.010360984 0.0073331986 -0.03738821
000250 82 2c 0d 3d 53 3b 2a 3a a6 9c 17 3d e0 bd 2c 3b
       0.034466274 0.00064938253 0.037014626 0.0026358292
000260 8c ff 73 3c 94 38 87 3c 6f 2c b5 bb 08 3a a4 3b
       0.01489247 0.01650647 -0.0055289785 0.0050118007
000270 c7 a9 87 bb 09 59 0c 3d 69 e4 93 bc 87 46 01 bc
       -0.004140112 0.034264598 -0.01805325 -0.00789035
000280 8d 8c c0 3c 65 66 8f bc a7 f7 f8 bc 39 f2 0a 3d
       0.02350452 -0.01750488 -0.030391527 0.033922408
000290 cb 17 03 3d 14 54 8e 3b bf 92 ce bb 03 eb a0 bc
       0.032005113 0.004343519 -0.0063041146 -0.019643312
0002a0 2d c8 ab bc a4 4f f2 bc 99 52 19 bd f1 8a c8 3c
       -0.020969475 -0.029578991 -0.037432287 0.024480315
0002b0 a6 dc 0b bc 8d 56 f5 3c cc 62 ce 3c 6f 0b 06 bd
       -0.008536493 0.029948497 0.025193594 -0.032725748
0002c0 20 6e 13 bd 5c ac 6a 3c 1c 7b 00 3b c2 aa c3 3b
       -0.035993695 0.01432332 0.001960463 0.0059712837
0002d0 8f dd 8f 3c 44 60 88 3c 5f 54 e6 3c cc cc df 3c
       0.017561702 0.016647466 0.028116403 0.027319334
0002e0 69 2e 0b 3d 58 12 a6 3b 8f a2 09 bd 2d 42 f0 bc
       0.033979807 0.0050681047 -0.033602294 -0.02932843
0002f0 aa 97 15 bd 25 1a 0f bc 62 49 3b 3c 9b a9 9e bc
       -0.03652159 -0.008734261 0.01143107 -0.019367984
000300 fc f6 1c 3d 0d 47 19 3d 05 7e 04 bc 3c be c3 3b
       0.03832148 0.037421275 -0.008086686 0.0059736054
000310 fa b2 eb 3c 76 68 a1 bb 4d 62 e4 3c 49 bc 7a bc
       0.028771866 -0.004925783 0.027878905 -0.01530368
000320 49 47 d6 3b 58 dc 68 3c 8d 41 05 3a 3a 99 0f bd
       0.0065392596 0.01421269 0.0005083315 -0.035058238
000330 49 e5 f0 bc 15 2e a4 bc 7c 7c e8 3c ba 08 b1 3c
       -0.029406207 -0.020041505 0.028379671 0.021610606
000340 18 f1 a7 3c 72 2e 75 3b 81 1e e6 3c 69 3c 78 bb
       0.020500705 0.0037411717 0.028090717 -0.0037877804
000350 75 e6 06 3c 46 a0 d5 bc a2 3c b4 bc 01 cc 67 3c
       0.008233656 -0.0260774 -0.022001568 0.014147759
000360 eb 37 e0 bc 8e 4e 50 3c 07 fa 09 bd 22 f1 30 bc
       -0.027370414 0.012714041 -0.03368571 -0.010799678
000370 16 bc 11 bc 16 f1 13 bd bb 68 18 bd f9 ed a4 3c
       -0.008894941 -0.03611859 -0.037209254 0.020133005
000380 33 7e e7 bb 77 5c a7 bc 6a 1a 93 bc a3 59 0b 3d
       -0.0070646047 -0.020429833 -0.017956931 0.03402103
000390 a4 12 0d bd f1 f6 2b 3c da 59 c0 bc 96 d5 a5 bc
       -0.034441605 0.010495887 -0.023480345 -0.020243447
0003a0 92 33 a9 bc 2c ab 53 bc 5f 67 04 3c f1 e4 55 3c
       -0.020654473 -0.0129192285 0.008081286 0.013055072
0003b0 79 35 8f 3b eb 36 12 bd 57 ce 02 3d af 2e 4a bc
       0.004370388 -0.035696905 0.031935062 -0.012340232
0003c0 67 3f ee 3c ff f6 5b 3c dd 2d be 3c e4 07 18 bd
       0.029082967 0.013425588 0.023215229 -0.0371169
0003d0 03 a9 9d 3c 39 14 22 3c 52 5d 77 3a 73 f2 5c 3c
       0.01924563 0.009892517 0.0009436208 0.013485539
0003e0 f2 2d d4 3c bb b6 9a 3c c8 47 94 3c fe e0 9e 3c
       0.025900815 0.01888596 0.018100634 0.019394394
0003f0 b1 1f 65 3c 8f 64 98 3a c2 89 cf 3c aa 15 b0 b9
       0.013984607 0.0011626648 0.025334243 -0.00033585477

bias f4 [75]
000000 e4 aa 65 bb 22 86 b0 bc 5f e8 fc 3c 57 89 d3 3c
       -0.0035044486 -0.021548335 0.030872522 0.025822325
000010 93 a2 a0 bc 1f a0 0f 3d 91 d6 b3 3b ec 26 90 bc
       -0.019608771 0.035064813 0.005488225 -0.017596684
000020 d8 69 95 39 b1 6c 0f 3d 11 9d 15 3d a4 ad ed bc
       0.00028498354 0.035015766 0.036526743 -0.029013462
000030 1f 2a bd 3c 29 0a fe bb c1 9b 41 ba 04 9a d3 3c
       0.023091374 -0.007752676 -0.0007385575 0.025830276
000040 c8 e8 3e ba 56 0f cd bc fa 75 87 3c 97 72 84 3c
       -0.0007282612 -0.025031727 0.016535748 0.016167922
000050 2c c5 bf bb b5 4e 43 bc 25 af 07 3c 85 cf d3 3c
       -0.005852362 -0.011920621 0.008281504 0.025855789
000060 39 46 50 bc 96 cc 03 3d 0c 7d e3 3c 16 c0 ea bc
       -0.012712055 0.03217753 0.027769588 -0.028656047
000070 2a 2c d7 3c 62 bd 30 3c a3 8b 15 bb a3 95 61 bc
       0.026266176 0.01078734 -0.0022818826 -0.013768586
000080 3a 69 84 3c 2a 4e 67 bc 28 4f 12 3c d8 77 17 bd
       0.016163457 -0.014117757 0.008930005 -0.036979526
000090 5c 1a 23 3b e1 46 0c ba 91 e7 0f bd 3d f2 14 bd
       0.0024887538 -0.0005351138 -0.03513295 -0.03636383
0000a0 96 83 b2 bb 80 db 93 3c 92 f9 1a bc 5e dc 58 3c
       -0.005447815 0.018049002 -0.009458916 0.013236133
0000b0 43 0b ac bc 4c da 20 bc 34 ab 12 3d 89 e1 11 bd
       -0.021001464 -0.009817671 0.035807803 -0.035615478
0000c0 87 c1 83 bc bd 86 f6 bc 9c b8 1c bd d3 d5 00 bd
       -0.016083492 -0.030093545 -0.038261995 -0.03145392
0000d0 c1 e9 3a bc 81 87 18 bd 34 39 83 3b 24 57 21 bc
       -0.01140827 -0.0372386 0.004004622 -0.009847436
0000e0 72 bd f5 bc be c3 17 bd 46 59 b9 3c 69 9d 8a 3c
       -0.029997561 -0.03705191 0.022625577 0.016920762
0000f0 0c 47 01 bc 66 6b 02 3b da b0 0c bd 57 03 be bc
       -0.007890474 0.001990044 -0.034348346 -0.023194952
000100 55 83 fc bb b2 28 e0 3c 98 08 d9 3c 7f 56 89 3c
       -0.0077060857 0.027363155 0.026493356 0.016764877
000110 55 71 c3 3c c3 ec 3f bc f8 f3 86 bc 47 bf 2e bc
       0.023857752 -0.011714163 -0.016473755 -0.010665721
000120 e9 8c 83 3c 6f 4b c1 bc a9 f6 09 bd
       0.016058402 -0.02359554 -0.0336825

weight f4 [75, 1, 3, 3]
000000 f4 8b a2 3e 8e e1 3d 3e 76 d9 1c bd 80 1f 66 3c
       0.317474 0.18543074 -0.038293324 0.014045596
000010 16 36 8d 3e e0 57 57 bd e3 b4 46 3e f4 da a4 be
       0.27580327 -0.05257404 0.1940494 -0.32198298
000020 b2 88 8b 3e 18 bb a5 be d3 b7 a3 3e 1e 82 9c be
       0.27252728 -0.32369304 0.31976184 -0.30568022
000030 26 89 3b be 1b f6 18 be 40 05 4d 3d d6 68 d7 bd
       -0.18314037 -0.14937632 0.050053835 -0.10518043
000040 56 5b 03 bd 90 94 29 3e 52 de a5 3e 86 3a 48 3e
       -0.032069527 0.16560578 0.3239618 0.19553575
000050 b4 96 9f 3e 33 30 5f be 60 60 07 be 26 4c d0 3d
       0.31169665 -0.2179573 -0.13220358 0.10170774
000060 23 4e 74 3e 6b 2d e7 3d b8 10 a7 be cc 80 94 be
       0.23857932 0.1128796 -0.32629943 -0.29004514
000070 e0 d6 de bd 0b 5c 78 3d eb e7 09 bd ab be ef 3d
       -0.10880828 0.060634654 -0.03366844 0.11706289
000080 22 d2 83 be a8 ab 06 3e 48 f8 a3 be 16 1b 64 bd
       -0.25746256 0.13151419 -0.3202536 -0.055689894
000090 ca e5 a3 be e4 14 94 3e 83 f2 95 3e de 09 2e 3e
       -0.32011253 0.28922188 0.29286584 0.16995952
0000a0 2e a3 83 be 28 ea 78 be 10 09 df 3d 0b 76 8e 3d
       -0.25710434 -0.24308074 0.108904004 0.06956109
0000b0 db 38 2b be 6b d6 40 be 9b 02 ba 3d c3 76 46 be
       -0.16720907 -0.18831794 0.09082528 -0.19381242
0000c0 6b 88 80 3e 83 84 70 3e 56 8c 73 be 9b 7f f6 3d
       0.2510408 0.23488049 -0.23784003 0.120360576
0000d0 16 25 90 be 50 c3 d5 3d 83 ca 90 be 34 e8 a6 be
       -0.28153294 0.104376435 -0.28279504 -0.32599032
0000e0 db 1e 1f 3e e8 09 71 3e a0 ba ed bd 6b 95 a6 3c
       0.15539114 0.23538935 -0.116078615 0.02033492
0000f0 df 76 87 be eb e5 20 be 8b ac d6 3d 93 1a 26 3e
       -0.2645788 -0.15712707 0.10482129 0.16221075
000100 6b 1e 05 be d6 59 8e 3e b6 3b 62 3d f4 1a a6 be
       -0.12999885 0.27802914 0.055232726 -0.3244244
000110 ab fa 31 3e ab d7 ce bd 4a d1 9b be 76 2f 85 be
       0.17380778 -0.10099729 -0.30433112 -0.26012772
000120 5b 2e cf 3d 2b b6 e5 3c 56 ac e4 3c e0 f0 08 be
       0.101162635 0.028040966 0.027914207 -0.13373137
000130 40 ea fc 3d 44 8c 8a 3e 2e 7c 09 3e 03 3c 2e be
       0.12349367 0.2706014 0.13426277 -0.1701508
000140 8b 14 7d 3d 36 0f d3 3d a0 91 2b 3d 2b a9 ed bd
       0.06178717 0.10305636 0.041886926 -0.11604532
000150 66 b1 2a be bb 6a 9f bd 9e e1 1b 3e c0 dd a1 bc
       -0.16669235 -0.07784029 0.15222785 -0.019759059
000160 6b c5 0a 3d 2b 66 7c bc d3 23 04 3e 60 22 db 3d
       0.03387968 -0.015405218 0.12904291 0.10699916
000170 e3 a1 5b be be 73 07 3e 9e 37 2f be fb 7f 92 3d
       -0.21448474 0.13227746 -0.1711106 0.071533166
000180 f6 ab 88 bd 86 57 40 be 17 0c 81 3e 96 88 2f be
       -0.06673424 -0.18783388 0.25204536 -0.17141947
000190 36 4f 54 bd 4b 43 bd 3d 96 31 5a be 7b 24 90 bd
       -0.051833354 0.09241351 -0.21307978 -0.07038208
0001a0 80 7f eb bd 4b b9 56 bd 56 55 e4 3c 28 e2 5f be
       -0.11498928 -0.052422803 0.027872723 -0.21863616
0001b0 e0 35 0c be 38 bd 7d 3e b6 9e 80 3e 53 ec 6d 3e
       -0.13692427 0.24779212 0.25121087 0.23234682
0001c0 63 75 8b 3e 28 5a 42 be 16 ea 53 bd 9e be 03 be
       0.27237996 -0.18979704 -0.051736914 -0.12865683
0001d0 eb 06 34 3d 5b 9b f1 bd 16 b4 51 3d 33 ff 88 be
       0.04395191 -0.1179721 0.051197134 -0.26757202
0001e0 de 36 12 3e 0e b6 47 3e 10 7a 80 3e 96 db 91 3e
       0.14278743 0.19503042 0.25093126 0.28487843
0001f0 3b 9e a9 3d 7f 41 a3 3e 83 33 44 3e db 53 9f 3d
       0.08282133 0.31885907 0.19160275 0.07779666
000200 cb a9 3a 3e 36 b1 76 be 06 ae 8c 3d c6 91 b0 bd
       0.18228833 -0.24091038 0.0686913 -0.08621554
000210 53 3f 23 3e a0 19 63 3e 4b 3b 44 bd 3b c9 99 3e
       0.15942125 0.22177744 -0.04790811 0.3003634
000220 56 8f 9d bc 60 25 48 3d eb 03 26 3d 1e 41 2c be
       -0.019233387 0.04886377 0.04053108 -0.16821715
000230 db f0 6a be 5e d4 a3 be de 7d 2b be 9b 83 eb 3d
       -0.22943442 -0.3199796 -0.16747233 0.11499711
000240 d0 f9 06 be 36 07 a0 be 1b 2b 94 be 08 14 77 be
       -0.13181233 -0.31255502 -0.28939137 -0.24128735
000250 a3 09 9a 3e c6 62 15 3e 10 ec 93 3e 08 59 a0 be
       0.30085477 0.1458846 0.2889104 -0.31317925
000260 b0 37 d7 bd 33 ee 9b be a6 cb 6a be 36 88 fa bd
       -0.105086684 -0.3045517 -0.22929248 -0.122330114
000270 80 a0 27 3c a0 11 19 3e 76 ad 27 be 6b bb 5e be
       0.010231137 0.1494813 -0.16374764 -0.21751182
000280 fb 02 a0 bd ab 9b 06 3c 76 47 73 bd f4 2f a8 be
       -0.078130685 0.008215825 -0.059394322 -0.32849085
000290 23 b3 0e 3e 66 a7 fa 3d e0 47 06 3e 66 75 20 3e
       0.13935523 0.1223896 0.13113356 0.15669784
0002a0 f0 d5 19 be 08 51 54 be 4b 3b f4 bd b3 8f 76 be
       -0.15023017 -0.20734036 -0.11925372 -0.24078254
0002b0 c0 61 26 be de c8 2b 3e cb 97 9c be 62 47 9c 3e
       -0.16248226 0.16775844 -0.3058456 0.3052321
0002c0 60 65 43 3d 96 85 67 bd 38 d5 90 3e 56 5a 99 3d
       0.0477041 -0.05652388 0.28287673 0.07487933
0002d0 d0 06 7e 3e 94 9b 97 be f7 04 8e be 56 1f 1c bc
       0.24807286 -0.29610884 -0.27738163 -0.009528955
0002e0 cb 24 7c be 4b 24 32 3e 93 c9 a1 3e de bd 6f 3e
       -0.2462341 0.17396657 0.315991 0.23412272
0002f0 80 2b 3f 3e 0b 17 c6 3d 1b 52 ef bd 8b 11 36 3e
       0.18668938 0.09672364 -0.11685582 0.1778013
000300 e0 a7 9a 3d ee 8c 79 3e 20 4e a2 3e 46 af 2c be
       0.07551551 0.24370167 0.3170023 -0.16863737
000310 b6 7e 8a 3e 50 2a 08 3e 12 d3 a6 3e e6 2f c5 bd
       0.27049798 0.13297391 0.3258291 -0.096282765
000320 8e 19 33 be 36 a8 1e 3e f8 c5 33 3e b4 91 84 3e
       -0.17490217 0.15493855 0.17555988 0.25892413
000330 c3 3c 08 3e 60 13 5d be 2e bd 89 be 63 be 7a be
       0.13304429 -0.21589422 -0.26902145 -0.2448669
000340 73 ce 42 be b6 c5 61 be a6 53 98 3e 60 12 42 be
       -0.19024067 -0.22048077 0.2975132 -0.18952322
000350 ab 9a aa bb 36 db 64 bd 73 7f 48 be 23 c8 45 3e
       -0.005206426 -0.05587312 -0.19579868 0.19314627
000360 f0 ef 80 3e 5e 16 61 be 40 4a ad bc c6 c7 39 be
       0.25183058 -0.21981189 -0.02115357 -0.18142614
000370 7b ef 6d be 73 66 21 be 0e 54 1b 3e 2b 7c 83 be
       -0.23235886 -0.15761738 0.15168783 -0.2568067
000380 d4 d7 a7 be 7e f5 8d be db 78 16 3e 80 5d f5 3c
       -0.3278185 -0.27726358 0.1469454 0.02995181
000390 f6 30 58 be 0e bc 2b 3e 8f a6 9c 3e 88 40 41 be
       -0.21112427 0.16770956 0.30595824 -0.18872273
0003a0 db 96 17 be 0e 0f 30 3e b8 f8 88 3e 9c 6b 9e be
       -0.1480364 0.17193243 0.26752257 -0.30941474
0003b0 bb 49 26 3e c0 6f 10 3d e8 55 0a be ab 53 7b 3d
       0.16239063 0.035262823 -0.13509333 0.06135909
0003c0 27 4d 82 be fc 8c a0 3e ce fb 67 be 43 51 2f be
       -0.25449488 0.31357563 -0.2265465 -0.17120843
0003d0 80 08 7c bc d6 d1 49 bc ab b2 c1 ba ab 05 55 bd
       -0.015382886 -0.012318095 -0.0014777979 -0.05200736
0003e0 0c 2a 9c be 0e 98 99 be 30 f8 61 3e 20 0c 09 3e
       -0.3050083 -0.2999882 0.22067332 0.13383532
0003f0 2b f9 11 bc ee 22 60 be 66 f9 26 3e e8 1a 19 3e
       -0.008909504 -0.21888325 0.16306075 0.1495167

weight f4 [76, 1, 3, 3]
000000 85 7b 00 be ec 86 b9 bd 22 8a 19 3e 75 00 7f 3e
       -0.12547119 -0.090589374 0.149941 0.24902518
000010 ce cc a5 be 02 fb 91 3e 96 2f 6f 3d 4e b0 80 be
       -0.32382816 0.28511816 0.05839499 -0.2513451
000020 28 c7 87 3e 55 dc 5b 3e 01 85 5b be eb 1c 5e 3e
       0.26519132 0.21470769 -0.21437456 0.21690719
000030 cb 81 30 3e f0 e8 47 be 63 7b 79 be 5a 81 ca 3c
       0.17237012 -0.19522452 -0.24363475 0.024719883
000040 ca 6d 9b be 74 a6 2e 3e b8 14 1e 3f 96 bc c7 bd
       -0.303572 0.17055684 0.61750364 -0.09752767
000050 b5 0f 17 be b4 ff 56 be 6c a3 d5 be bc 50 9b bd
       -0.14752086 -0.2099598 -0.41726243 -0.07583758
000060 1a 8a 12 bf 26 f9 08 bf f3 69 e7 be a9 4f f7 be
       -0.57241976 -0.5350517 -0.4519802 -0.48302963
000070 ad 6f 7d 3c b3 07 e8 bc 4c bc 89 3e 44 5b 46 bd
       0.01546852 -0.028323984 0.26901472 -0.04842688
000080 e4 72 28 be f4 e6 8e be e8 55 65 3e 60 b2 c2 3e
       -0.16450077 -0.27910578 0.22396052 0.38026714
000090 41 7e 73 3b 23 f8 d1 3d a9 b2 fe bd b0 e8 3e be
       0.003715411 0.102524064 -0.124364205 -0.1864345
0000a0 b3 07 88 3e f9 29 5e 3d 38 c3 fc 3e be 04 b3 be
       0.26568374 0.054239247 0.4936769 -0.34964556
0000b0 27 e6 39 be 50 9a 0a 3e b5 68 66 3e 03 34 3c be
       -0.18154202 0.13535428 0.2250088 -0.18379216
0000c0 46 23 52 be 96 e1 ce be 5d 7e 66 3d a2 24 29 bc
       -0.20521268 -0.40406483 0.056272853 -0.010323675
0000d0 a1 d0 53 3e c5 69 49 be c4 e7 9d 3e 9f 57 9e 3b
       0.20685054 -0.19669254 0.30840886 0.0048322226
0000e0 5f 15 0b 3c 66 38 c3 bd d3 92 b1 3d e7 5d bc bd
       0.008488982 -0.095322415 0.086705826 -0.09197598
0000f0 49 ea c9 3d 62 97 63 be b7 ac aa bb fe a7 2b 3d
       0.098591395 -0.22225717 -0.0052085775 0.041908257
000100 17 53 1f be 28 86 08 3e 6d b9 b5 be ad a2 f8 3e
       -0.1555904 0.13332427 -0.3549303 0.48561612
000110 e9 3d 20 be 99 48 e0 be b3 29 d5 3e c7 dc 3e 3d
       -0.15648617 -0.43805388 0.41633376 0.04659727
000120 50 2f 64 3d ee 64 92 3c dd 0e 23 3d 37 72 b8 3d
       0.055709183 0.017870393 0.039809097 0.0900616
000130 f4 a2 15 bc 97 e6 79 3e 2f e0 2f be 7a 60 b4 3e
       -0.009133089 0.2440437 -0.17175363 0.35229856
000140 9b 5e 39 3e bb 9e b6 3e 82 63 a3 be ca 8a 9d be
       0.18102495 0.35667977 -0.31911856 -0.3076995
000150 32 56 ca 3e fd 9d 02 3e 61 b7 50 be f4 f3 4b 3e
       0.39518887 0.1275558 -0.20382454 0.1991728
000160 e6 b6 30 be 3a 76 0f bc 0e ee 5e 3e bc 73 e3 bc
       -0.1725727 -0.008756215 0.21770498 -0.027765147
000170 82 55 6f 3e ab c1 19 3d e8 6f be 3d 49 96 79 3e
       0.23372462 0.03753821 0.09298688 0.24373735
000180 5d ce 80 3e 91 8a 84 be 40 73 f4 3d d2 cb a0 3e
       0.25157443 -0.25886968 0.11936045 0.31405503
000190 5c a8 df 3c 81 50 43 3e 4f 42 9c 3e 04 c2 ed 3d
       0.02730196 0.19073679 0.3051934 0.11609271
0001a0 1c e9 b9 be df 0b eb 3d 2d d0 98 be ad 96 1a be
       -0.3631066 0.114768736 -0.29846326 -0.15096541
0001b0 4b 77 32 be a2 c8 d9 be 55 0d 38 be 0c f1 28 3e
       -0.17428319 -0.42535883 -0.17973836 0.16498202
0001c0 37 f9 7c 3e bd d5 40 3e 68 d3 78 3e 61 c7 b4 be
       0.24704443 0.18831535 0.24299395 -0.35308364
0001d0 f4 1f 86 3e 36 24 ae 3d 07 85 1a 3e 8f 11 2a 3e
       0.26196253 0.085030004 0.15089808 0.1660826
0001e0 e3 15 e6 be c9 d8 fb 3e 8b 68 31 3d 46 a8 b9 be
       -0.44938573 0.4918883 0.04331259 -0.36261195
0001f0 20 a4 ec bd 8a 54 b0 3e 0b 08 3e be eb 26 90 bd
       -0.11554742 0.34439498 -0.18557756 -0.07038673
000200 80 88 f8 bd e8 bd 2c be 67 f2 86 be 66 99 81 be
       -0.1213541 -0.16869318 -0.26356813 -0.25312346
000210 9b 2c c4 bd 16 de 6c bd d0 5c f7 3d 50 0e 01 be
       -0.0957882 -0.057828985 0.120782495 -0.12603116
000220 e1 0b 82 be 34 38 8e 3e 97 79 1d 3c a3 b9 88 3e
       -0.25399688 0.27777255 0.009611509 0.2670413
000230 55 15 ec be e2 c9 23 3e a9 83 77 bd f0 9e aa bc
       -0.46110025 0.15994981 -0.060428295 -0.02082774
000240 d7 e2 09 be 83 4c 64 bd 46 7a bc be 78 68 33 bd
       -0.13465439 -0.05573703 -0.36812037 -0.0438008
000250 06 28 e6 bd 7c fe 9c bd 69 d4 bf 3e 0d bb 75 3e
       -0.112381026 -0.076657265 0.37466744 0.23997135
000260 49 c1 d4 3e 35 bc aa 3e c8 63 90 3e e9 35 cc bd
       0.41553715 0.33346716 0.28201127 -0.0997122
000270 e9 f1 1f bd 59 c2 b8 3d 27 ef 0a 3e d2 9f 3f 3e
       -0.039049063 0.09021444 0.13567792 0.1871331
000280 62 f6 22 be 02 8a 94 3e 8a 1b 69 3e b2 ef 5c be
       -0.159143 0.29011542 0.22764412 -0.21575812
000290 bf 16 66 3e be 86 28 bd 95 7c 14 bf ea 09 b1 be
       0.22469614 -0.041144125 -0.580026 -0.34577876
0002a0 42 db aa be 7b 20 cb 3e 6f c1 ba 3e 36 7d 9b 3d
       -0.33370405 0.39673218 0.36475703 0.075922415
0002b0 2d 1d 8c be 3b a4 7f be 37 a3 c0 bd aa f4 c2 3e
       -0.2736601 -0.24964993 -0.09406131 0.3807729
0002c0 7f 59 4f be d7 fa 53 3e a4 51 78 3e b7 c0 05 bc
       -0.20248984 0.20701157 0.24249893 -0.008163623
0002d0 16 bc 5a 3e 7e 01 b0 3e f4 fa 61 3e c5 34 00 3e
       0.21360812 0.34376138 0.22068387 0.1252013
0002e0 b1 9a ba be 9c c3 d3 3d 52 d2 f2 bd 53 98 ce bd
       -0.36446145 0.10340044 -0.11856522 -0.10087647
0002f0 f6 d3 1a 3d 16 6f 09 3e 95 18 6f be 79 cc 21 be
       0.037799798 0.13421282 -0.23349221 -0.15800656
000300 e5 b1 83 be b1 e8 ea bd 37 27 f5 bd 56 76 21 3d
       -0.2572166 -0.114701636 -0.1197037 0.039419495
000310 fe 12 8f 3e d6 b4 d7 3d 7d 53 a6 bd 40 18 c1 3d
       0.27944177 0.105325386 -0.08121393 0.094284534
000320 79 20 7a be 82 18 d7 3c 36 56 f6 3c 37 d9 e6 3d
       -0.2442645 0.026256803 0.030070405 0.11271899
000330 9b e3 8f 3e 8d 30 8b 3e 1f ac 06 bd 0b e5 8c 3e
       0.28103337 0.2718548 -0.03287899 0.27518496
000340 d0 e5 20 3e 4e 99 ec 3d f2 92 51 3e 9a d9 48 be
       0.15712667 0.11552678 0.20466211 -0.19614258
000350 2e 58 91 bd e6 56 70 be 07 9d 0c 3d da 76 6e 3e
       -0.07096897 -0.23470649 0.03432944 0.23287526
000360 a9 d0 e0 3d 84 b0 ec bd e4 e9 00 3e 84 45 3d bd
       0.10977299 -0.11557105 0.12589222 -0.046208873
000370 d3 34 00 3e 41 01 15 bd 3c 58 86 be d4 d5 ff 3d
       0.12520151 -0.03637815 -0.26239192 0.12491956
000380 a3 55 7d 38 ab 63 1f 3e 1a 8d 06 3d 05 cc 97 3e
       6.0399656e-05 0.15565364 0.03284941 0.29647842
000390 89 98 11 bd d9 c9 ae be 6c 70 5d 3e 61 fc 97 3e
       -0.03554586 -0.34138373 0.21624917 0.29684737
0003a0 6a b6 65 3e 99 b1 47 3e c0 ea 90 be 4c 3a d2 be
       0.22432867 0.19501342 -0.283041 -0.41060102
0003b0 8f 47 fa 3d 51 5e 84 3e 82 f3 02 3c 79 cc 42 3e
       0.1222068 0.25853208 0.007992627 0.19023313
0003c0 29 c2 ba 3e 58 8e bf 3d a5 e8 47 3e db 89 10 3e
       0.36476257 0.09353322 0.1952234 0.14115088
0003d0 8c 4f e4 be 93 57 97 3e c9 3a a1 bd f5 f1 64 3e
       -0.4459194 0.29559 -0.078725405 0.22357924
0003e0 ef 7b 84 bd e6 64 90 be f2 0b 33 3c c5 ac 90 be
       -0.06468951 -0.2820198 0.010928141 -0.28256813
0003f0 9a 67 1e be 23 5f a9 3d 16 85 89 3e e4 ef 95 3d
       -0.15469208 0.08270099 0.2685935 0.07321146

bias f4 [76]
000000 3a 48 27 be 25 59 81 3e 96 c0 29 3e 06 bc 1e 3d
       -0.16336146 0.25263324 0.16577372 0.038753532
000010 37 30 47 bc af da c1 3e f9 d9 0a 3e df ab 9e bd
       -0.012157491 0.37862155 0.13559712 -0.077476256
000020 53 90 d8 3c e3 82 40 3c 20 6a 36 3e 76 9d 48 be
       0.026436007 0.011749956 0.17813921 -0.19591317
000030 51 2a a2 3d 24 f5 8e be 23 31 20 be 78 da 54 3e
       0.079182275 -0.27921402 -0.15643744 0.20786464
000040 3d 44 1c bd f2 bc 72 3e d3 67 f7 bd f6 2f 8a 3c
       -0.038151015 0.2370489 -0.1208035 0.016868573
000050 22 e5 07 bd 9a 68 a6 3e 1c 23 04 3e 66 62 64 3e
       -0.033177502 0.3250168 0.12904018 0.22303161
000060 e3 88 95 3e b3 05 1f bd c7 f2 5f be 88 7d cd 3d
       0.29206 -0.038823795 -0.21869956 0.10033709
000070 3d 0f 65 3e c2 6d ea 3d 20 83 5f 3e c2 52 c1 3e
       0.22369094 0.11446716 0.21827364 0.37758452
000080 2d 35 77 3e fc 1f 15 be 2b d6 28 bc 5f cf 8a bd
       0.24141379 -0.14562982 -0.010304968 -0.06777834
000090 e2 8f 8a 3e 04 bd 3e bc 06 ec a6 be 13 80 9f bd
       0.270629 -0.0116417445 -0.32601947 -0.077881
0000a0 e4 59 b2 3e 49 0b 60 be 56 37 55 be 6b e5 d1 bb
       0.34834206 -0.21879305 -0.2082189 -0.0064055226
0000b0 f8 2a b1 bd ca 11 91 3e 7c b6 a5 3e 59 e1 54 3e
       -0.08650774 0.28333884 0.32365787 0.20789088
0000c0 68 ff 90 3e 6f f2 77 3e 03 b3 96 be 91 82 34 3e
       0.2831986 0.24213575 -0.2943345 0.17627932
0000d0 6f 1d 4c bc 6f b5 7c 3c e3 79 b2 3c c8 51 93 be
       -0.012458189 0.0154241165 0.021786636 -0.28773332
0000e0 19 cf d7 3e 61 a9 fa bd 80 39 9a be a2 bd c3 bb
       0.4215019 -0.12239338 -0.30121994 -0.0059735337
0000f0 cf 7f a5 3d 5e 51 90 be a8 87 66 bc 7c 47 11 3e
       0.08081018 -0.28187078 -0.014070429 0.14187425
000100 12 a6 ba 3e ac e2 8e 3e 51 80 b3 3e 20 6d 8a bd
       0.36454827 0.27907312 0.35058835 -0.06759095
000110 de 3d 94 bc 41 89 46 3e 15 3b 49 be ba 3e 36 3d
       -0.018095907 0.19388296 -0.19651444 0.044493414
000120 da 73 82 3b fd 41 fe bc 87 46 2f 3d df 65 d4 3b
       0.0039810957 -0.031037325 0.04279187 0.0064818705

weight f4 [38, 76, 2, 2]
000000 85 30 6e be fd c2 a9 bd a3 7e e2 3c 1c 04 0c bd
       -0.23260696 -0.08289144 0.027648276 -0.034183607
000010 3f 40 b2 bd 88 b8 4d 3c c4 de 9e bc 83 3b 98 3d
       -0.0870366 0.012556203 -0.019393332 0.07433226
000020 69 70 32 3d df 91 16 be 13 df 96 3d 30 03 ee 3d
       0.043564234 -0.14704083 0.07366767 0.11621702
000030 43 6f 04 bb a1 13 f5 3c 3a 73 20 3e 9b 86 44 3d
       -0.0020207919 0.029916586 0.15668955 0.047979932
000040 39 c5 32 3e 1d 8d 5e bc 9e d7 8c 3c 53 f4 29 3e
       0.17458047 -0.013583449 0.017192658 0.16597109
000050 43 b0 8b 3c ac 6d ad bc d5 14 13 bc 8a 8d bc bc
       0.017051822 -0.02117046 -0.008977135 -0.02301671
000060 4d a0 0f 3d 8e 7c 32 3d 94 6a e7 3c 12 91 53 3d
       0.035064984 0.043575816 0.028249063 0.05165202
000070 cb 20 1f 3c bd 45 f2 bd 2a 07 0f 3e 91 1d 86 bc
       0.009712408 -0.11829708 0.13967577 -0.01637152
000080 62 54 be bc d6 ea 4d 3d 79 a5 0d 3d da 4e 3d 3d
       -0.023233596 0.050272785 0.034581635 0.046217777
000090 56 28 8e be e0 6d 47 3c 95 3d 23 be 5b fa a1 3c
       -0.2776515 0.012172192 -0.1594146 0.0197727
0000a0 0b 76 8d 3d db 6b 43 3d 4c d3 f6 3b 86 ea 7c 3c
       0.069072805 0.04771028 0.007532513 0.015436774
0000b0 55 4a 9f bd af fe c3 bd 17 8f c2 3c be b5 ab 38
       -0.077778496 -0.095700614 0.023749871 8.1877675e-05
0000c0 6d 3a 14 3d 3d ce 48 3d 0a 4f 39 3d c5 5c 50 3d
       0.03618853 0.04902481 0.045241393 0.050869722
0000d0 a6 0a f9 bd 4a bb 8f bd 70 26 d0 bc 7c ea 79 be
       -0.12160234 -0.070181444 -0.025408953 -0.24405855
0000e0 2a a2 4b bd 0e 57 20 bd c8 6c f5 bc f2 9d d1 ba
       -0.0497152 -0.03914552 -0.029959098 -0.0015992506
0000f0 ad 77 2a 3d 5d 6a af 3d 0f d1 f4 bd d1 28 1c bd
       0.041618038 0.08565209 -0.11953937 -0.038124863
000100 7b 07 c5 bd 98 5c ae bd ec 16 48 be 90 7f 22 be
       -0.096205674 -0.085137546 -0.19539994 -0.15868974
000110 df 01 2f 3d a3 75 d2 3d ec a2 bb 3d 79 37 66 bc
       0.042726394 0.10276344 0.09161934 -0.014051312
000120 a1 69 c2 bc ce 57 e9 bd b3 64 31 be 20 96 76 3d
       -0.023732008 -0.113937005 -0.1732357 0.060201764
000130 5a 81 c4 3c b3 0c 96 3d 5d 01 d0 bd 13 86 dc bc
       0.02398746 0.07326641 -0.1015651 -0.0269194
000140 4c 7c 4f 3d 6d bf 97 3d 99 d7 96 3d 96 30 2c bc
       0.050655648 0.074095584 0.07365341 -0.010509631
000150 72 0d 0b 3d 25 f4 5f bd 37 a8 80 be ff 36 b1 bd
       0.03394837 -0.054676194 -0.25128338 -0.08653068
000160 0d 33 28 3b db 42 5b 3c 2e 21 1c 3d 0d 72 ee 3d
       0.0025665194 0.013382639 0.03811758 0.11642847
000170 88 b3 45 3c ee e6 9c 3d 10 cb 82 3d 8c 6e f6 3a
       0.012066729 0.07661234 0.06386387 0.0018801256
000180 31 9b 7b 3d 88 8e dc bc 31 7a 74 3d 01 5e 07 3d
       0.0614273 -0.026923433 0.059686843 0.033048633
000190 69 04 22 3c 80 a5 c2 3d 46 b2 7d 3d bb 66 00 3e
       0.009888747 0.09504223 0.061937593 0.12539189
0001a0 ad 8a 20 bc 21 4e b8 ba 7e 08 9e 3d b9 43 b4 3d
       -0.009798688 -0.001406137 0.077164635 0.088019796
0001b0 5a ec e4 3d 76 8a bf 3c 01 a4 b8 3c 08 d5 28 bc
       0.11177893 0.023381453 0.02253914 -0.010304697
0001c0 e4 b1 ec bc fd a7 1d 3d 2a 4b af 3c 41 6e 1a 3d
       -0.028893419 0.038490284 0.021398146 0.037702803
0001d0 3f 16 de 3d b2 52 a0 3d 3b 8d d1 3c 65 d6 e8 3c
       0.10844087 0.07828273 0.02558004 0.028422544
0001e0 1a d6 79 3c 17 02 39 3d 26 cc a8 3d e9 f1 03 3b
       0.0152488 0.04516801 0.08242063 0.0020133203
0001f0 8c b3 de 3c 19 2e 2f be 90 ae 00 3d 99 0c 14 be
       0.027185224 -0.17107429 0.031416476 -0.1445793
000200 1c 99 19 3d 72 6c 89 be bc 3c 20 be 0c d1 5a be
       0.037499532 -0.2684055 -0.15648168 -0.21368808
000210 2b f2 69 3c 9e 00 5f 3d 8a 6c 88 3d 8f 75 2d bd
       0.014278929 0.054443948 0.06661327 -0.04234844
000220 c7 d6 40 be dc 2e d6 bc c3 83 d2 3c 42 99 f0 bc
       -0.18831931 -0.026145391 0.025697595 -0.029369954
000230 9a 25 32 bd 68 1b b0 bd ce 2b 55 3c f8 41 6a 3d
       -0.04349289 -0.08598977 0.013010932 0.05719182
000240 03 43 0c 3d 53 00 1a bd 54 bb cd 3d 63 c8 ca 3c
       0.034243595 -0.037597965 0.10045496 0.024753755
000250 a5 07 fe 3d b2 ed 30 3d 05 f6 7d bc d0 af 1d 3e
       0.12403802 0.043195434 -0.01550055 0.15399098
000260 c9 72 8c bc c6 f8 e1 bc bb f8 00 3d 81 50 6f 3d
       -0.017144578 -0.027584445 0.031487208 0.058426384
000270 a1 b9 a3 be 24 f9 84 bd 1a d7 43 be 87 73 d0 bc
       -0.3197756 -0.06492832 -0.19125023 -0.025445713
000280 3b bd 9f bd 18 1d d1 3b 50 d3 09 3d 63 3e 82 bd
       -0.07799765 0.006381642 0.03364879 -0.063595556
000290 54 5a ea bd da e6 30 bd dd d0 5e be 3c 97 91 bd
       -0.1144301 -0.043188907 -0.21759363 -0.07108924
0002a0 59 53 e6 bd 18 2a 16 be b5 8b bc 3d 82 1f b2 bd
       -0.11246366 -0.14664495 0.092063345 -0.08697416
0002b0 74 a1 68 3d 7d e5 b6 be 44 96 7b bd 25 07 4d 3d
       0.0567946 -0.3572196 -0.0614226 0.05005564
0002c0 b8 22 f5 3b 63 64 3d bc e1 4f b2 3d 35 de c9 bd
       0.0074809454 -0.011559579 0.08706642 -0.09856836
0002d0 75 bf 2b bc 8e 84 da 3d 47 a1 0b 3e f6 8f e1 bd
       -0.010482659 0.10669814 0.13635741 -0.110137865
0002e0 c6 02 f8 bc 94 40 de 3c a5 4d 1a bd 8e 2a 78 3d
       -0.03027476 0.027130403 -0.037671704 0.06058746
0002f0 08 eb 18 3c 88 0f 5b ba 23 47 0f 3c 58 5a 63 3c
       0.00933338 -0.00083565013 0.008744988 0.01387652
000300 ee 0c 2e 3e 28 ae fd bc ef db 8b bd ae ac 65 be
       0.1699712 -0.030966833 -0.068290584 -0.22429153
000310 b5 be fb 3c 4d 9d 94 be ac 45 ee ba c2 96 19 be
       0.030730585 -0.2902626 -0.0018178723 -0.14998916
000320 17 89 97 bd 2b c7 0d bd 74 a5 e8 bd fc 73 65 bd
       -0.07399195 -0.03461377 -0.11359683 -0.056018814
000330 07 af e5 3c d0 27 b8 be 6b 03 d8 bd 20 09 cc 3c
       0.028037561 -0.35967875 -0.10547527 0.024906695
000340 16 b2 5a bc 75 c7 da bc 5a 26 ad 3d cc 90 05 3e
       -0.013348123 -0.026706437 0.084545806 0.13043517
000350 c8 f6 e1 3d 68 86 aa bd 1a 62 a1 3d 1b 92 18 bd
       0.11033398 -0.08326417 0.078800395 -0.037248712
000360 4b fb e3 bc e7 04 cc 3d 0b 21 85 3d 40 d0 38 3d
       -0.027829787 0.099618725 0.06500443 0.045120478
000370 ed ae c6 bd ce 11 89 bd 2f b9 6d 3d 46 23 bc bd
       -0.09701333 -0.06692849 0.058037933 -0.091864154
000380 e2 b7 dd bd 7f fc b8 bd ab 8c bd 3c 30 c8 e5 3d
       -0.108260885 -0.09032535 0.023138365 0.11219823
000390 56 b8 d0 bd 16 89 62 be 7c 64 d1 3d 40 af 4f 3d
       -0.10191409 -0.22122607 0.10224244 0.05070424
0003a0 9f cc 31 be b7 d7 43 bd a8 31 22 bb c3 ff e4 bd
       -0.17363213 -0.047813144 -0.0024748836 -0.11181595
0003b0 72 99 aa bd f0 c7 8e 3d c9 66 49 bd c1 fd 37 3d
       -0.083300486 0.06971729 -0.04917029 0.044919733
0003c0 6c 7c ce 3d 3a 97 af 3d cc ef 00 3e 7d b1 12 3e
       0.10082325 0.08573766 0.12591475 0.14325519
0003d0 4c c2 13 3d be 92 d3 bd d5 d6 88 be c2 3b 6c 3d
       0.036073968 -0.10330723 -0.26726404 0.057674177
0003e0 87 f3 cf bd 36 22 55 3e ae 91 a2 3e 4a b9 9a 3d
       -0.10153871 0.20813832 0.3175177 0.07554872
0003f0 18 13 7b 3c 13 2d a7 3d 5d 1b c7 3d a2 8e 0f 3e
       0.0153243765 0.08162894 0.09722016 0.14019254
