models/traced_model_9.pt (torch, 464234 bytes, 18 tensors)

weight f4 [76, 1, 3, 3]
0.05818395 -0.04837191 -0.13620767 0.115165316 -0.09635627 -0.31909102 0.06736656 0.01996994
-0.14514796 0.20733917 -0.27812636 0.19116855 -0.18281019 -0.05722658 -0.1057839 -0.30033594
0.24071702 -0.22093832 0.10186645 0.0994608 -0.18147103 -0.3091566 -0.31547126 0.07403076
0.23693466 -0.04192698 -0.019195478 -0.26907104 -0.16929464 0.29802567 0.100046515 0.067184374
0.24158812 0.10546081 0.1497558 0.09703799 0.2537778 0.25658703 0.25527212 -0.01730605
-0.14176187 -0.32053205 0.007997195 -0.29328305 0.16218731 0.17579138 0.10470518 -0.057987295
-0.23915172 0.20026657 -0.1618005 0.10934361 -0.0467484 -0.043565474 -0.08283063 0.10282453
-0.24013528 0.31614944 -0.2746989 -0.03079307 0.2580745 -0.082825586 -0.27676284 0.09256359
0.103961706 0.31700528 -0.16727889 0.16845784 -0.01461192 -0.17940581 0.013761481 0.18859887
-0.076750755 -0.097283445 0.06964147 0.23245665 -0.023936909 -0.26498264 -0.3318534 -0.1815134
0.20348553 -0.15204963 -0.2925273 0.20217149 -0.29183775 -0.014712056 -0.21761625 -0.31856856
0.2653119 -0.12152457 0.23745136 0.19410817 -0.08757409 -0.28431806 0.04110269 0.16383585
-0.06794059 -0.2633258 -0.113073036 -0.10352775 0.07019274 -0.01039958 -0.30047366 -0.002979676
-0.19992845 0.1617249 -0.025290292 -0.20053284 0.037467323 0.0026900768 0.17546019 0.07729181
0.22398755 0.13806908 -0.3043991 0.0848459 0.10854618 -0.24345982 -0.15547845 0.20908988
0.24290244 0.26213273 0.16438687 -0.2829206 -0.060853284 -0.23611367 0.0060031414 0.27545208
-0.14348817 0.29875797 -0.17485337 0.08801262 0.2696278 -0.13005798 0.25610256 -0.027412295
0.031496406 0.02912116 -0.17820315 0.24425241 0.15112647 0.08257043 0.08689424 -0.16349828
-0.013514757 -0.20113938 -0.17086256 0.11371164 -0.30648375 0.16855618 -0.17830591 -0.22841339
-0.008725564 -0.23861568 -0.09851289 0.30097637 0.13410449 -0.10748756 -0.04336071 -0.16960339
-0.112941265 0.051146388 0.048369568 0.11358583 0.18080208 -0.27933165 -0.29795012 0.25451815
-0.17973825 0.069823906 0.29864943 0.039110303 -0.27122182 0.24864106 -0.11560206 0.0060675545
-0.30788288 -0.03391608 -0.22050755 0.29670537 -0.100444004 -0.16830477 -0.010101954 -0.12876949
-0.02925555 0.2643854 0.15887555 -0.2587765 -0.16022083 -0.020532846 0.03160302 0.12145841
0.3136692 -0.21201698 0.23106019 0.16742393 0.10902119 0.18814918 0.037887417 0.29886824
-0.3049876 0.094092965 -0.1807679 -0.1331383 -0.10876107 -0.30707425 0.063897096 -0.13473722
-0.072190404 -0.09292047 -0.2887257 -0.21517746 -0.006776373 0.17142877 0.31171235 0.20169115
-0.15454333 -0.11095941 0.09875294 0.23713498 -0.027426481 0.06250739 -0.28200877 -0.08440133
0.30594394 0.23787491 -0.018771172 0.012365222 -0.24050725 -0.11057925 0.3237552 -0.28574443
-0.1680938 -0.2522409 0.22235987 0.14699385 0.07807545 -0.28169775 -0.08625817 -0.23761117
-0.064916216 0.060416102 -0.24928443 -0.33054334 0.17719805 -0.29856953 -0.12530422 -0.12939648
0.09756327 -0.16394207 0.00024251144 -0.32220447 0.06409987 -0.008200964 -0.33101842 0.14741635
00000000: 4b52 6e3d a021 46bd 067a 0bbe cbdb eb3d
00000010: 7056 c5bd e65f a3be 7bf7 893d 0098 a33c
00000020: aba1 14be b850 543e 9466 8ebe b0c1 433e
00000030: 9832 3bbe 6b66 6abd 3ba5 d8bd a2c5 99be
00000040: 867e 763e a83d 62be 5b9f d03d 1bb2 cb3d
00000050: 8bd3 39be c649 9ebe 7385 a1be 709d 973d
00000060: 009f 723e a0bb 2bbd d63f 9dbc aec3 89be
00000070: 935b 2dbe d296 983e 30e5 cc3d f697 893d
00000080: e062 773e d6fb d73d 9659 193e dbbb c63d
00000090: 2aef 813e 605f 833e 07b3 823e 6bc5 8dbc
000000a0: 062a 11be c71c a4be ab06 033c 3229 96be
000000b0: 6e14 263e a802 343e ab6f d63d 1684 6dbd
000000c0: 30e4 74be ae12 4d3e 08af 25be 8bef df3d
000000d0: 407b 3fbd b671 32bd 1ba3 a9bd ab95 d23d
000000e0: 06e6 75be 57de a13e 56a5 8cbe c041 fcbc
000000f0: 5722 843e 76a0 a9bd dcb3 8dbe fb91 bd3d
00000100: e0e9 d43d 844e a23e 284b 2bbe 3680 2c3e
00000110: d666 6fbc 28b6 37be d677 613c 1020 413e
00000120: 802f 9dbd 8b3c c7bd 30a0 8e3d 1e09 6e3e
00000130: 5617 c4bc ceab 87be b0e8 a9be a6de 39be
00000140: 835e 503e e6b2 1bbe 23c6 95be 0b06 4f3e
00000150: c26b 95be d60a 71bc cbd6 5ebe 6b1b a3be
00000160: f6d6 873e e0e1 f8bd 7326 733e 4bc4 463e
00000170: 0b5a b3bd 2392 91be 4b5b 283d 96c4 273e
00000180: 7024 8bbd a4d2 86be d692 e7bd 5b06 d4bd
00000190: 36c1 8f3d 0063 2abc afd7 99be ab46 43bb
000001a0: 0bba 4cbe 369b 253e 962d cfbc 7b58 4dbe
000001b0: 5677 193d 004c 303b d6ab 333e 2b4b 9e3d
000001c0: fe5c 653e fb61 0d3e 33da 9bbe b0c3 ad3d
000001d0: 764d de3d 884d 79be be35 1fbe a81b 563e
000001e0: 6bbb 783e 4336 863e 0855 283e f8da 90be
000001f0: 4b41 79bd c8c7 71be 00b6 c43b 0e08 8d3e
00000200: 90ee 12be cef6 983e c30c 33be f63f b43d
00000210: a80c 8a3e eb2d 05be e01f 833e c08f e0bc
00000220: 6002 013d 808f ee3c e37a 36be 4e1d 7a3e
00000230: e6c0 1a3e b01a a93d 9bf5 b13d 186c 27be
00000240: 006d 5dbc 7bf7 4dbe 98f6 2ebe a6e1 e83d
00000250: 70eb 9cbe fe99 2c3e d395 36be 33e5 69be
00000260: abf5 0ebc ab57 74be 20c1 c9bd 9319 9a3e
00000270: b052 093e 7022 dcbd 009b 31bd 83ac 2dbe
00000280: c04d e7bd e07e 513d 2b1f 463d b09f e83d
00000290: 2e24 393e 8f04 8fbe eb8c 98be 3450 823e
000002a0: 4e0d 38be d6ff 8e3d 94e8 983e 2032 203d
000002b0: 96dd 8abe c39b 7e3e c6c0 ecbd 56d2 c63b
000002c0: d3a2 9dbe 96eb 0abd bbcc 61be c4e9 973e
000002d0: 96b5 cdbd 1658 2cbe ab82 25bc 26dc 03be
000002e0: 56a9 efbc 865d 873e 46b0 223e 5a7e 84be
000002f0: ee10 24be 8034 a8bc 2b72 013d 30bf f83d
00000300: 4099 a03e fb1a 59be 0b9b 6c3e 2e71 2b3e
00000310: 8046 df3d 2eaa 403e d62f 1b3d 4205 993e
00000320: 5627 9cbe d0b3 c03d 381b 39be 6855 08be
00000330: 20be debd d638 9dbe 7bdc 823d 8ef8 09be
00000340: 90d8 93bd 164d bebd dbd3 93be 7b57 5cbe
00000350: 560c debb 068b 2f3e c398 9f3e 2088 4e3e
00000360: 9b40 1ebe b03e e3bd fb3e ca3d 83d3 723e
00000370: 80ad e0bc e003 803d 7463 90be 9bda acbd
00000380: afa4 9c3e 7b95 733e 00c6 99bc 8097 4a3c
00000390: 8847 76be 6077 e2bd 3ec3 a53e 184d 92be
000003a0: c820 2cbe b825 81be 4eb2 633e 8e85 163e
000003b0: 06e6 9f3d b03a 90be 20a8 b0bd 5850 73be
000003c0: cbf2 84bd e076 773d 6b44 7fbe fa3c a9be
000003d0: 6873 353e 1bde 98be c04f 00be 8380 04be
000003e0: 40cf c73d 6ee0 27be ab4a 7e39 fcf7 a4be
000003f0: cb46 833d 565d 06bc 3f7b a9be 50f4 163e

bias f4 [76]
0.25899917 0.15161812 -0.2881893 -0.19041924 -0.18186657 0.0752825 0.05633692 0.1873225
0.22874439 -0.054162305 0.19609892 0.18126373 -0.19217417 -0.052260756 -0.20862257 0.2700398
0.25277218 -0.3088336 0.14896362 0.19637851 -0.26564175 -0.13424334 0.26650727 0.31429288
-0.3211668 0.12178223 0.1490523 -0.0484285 -0.29574868 -0.0142366495 -0.16493587 -0.25421172
-0.039120954 -0.28845116 0.2975164 -0.010509849 0.17142396 -0.12576553 0.14937854 -0.053270977
0.14724526 0.037692986 -0.101167366 0.2151628 0.089353286 0.12680408 0.10576153 -0.130409
-0.30767688 0.07124424 0.27611133 -0.2016331 0.19447665 -0.26298094 -0.22180419 -0.10589723
-0.009293279 0.25865766 0.18837509 0.32046518 0.25530797 -0.049203437 -0.15306482 -0.29526445
-0.147863 -0.27933484 0.0129237175 -0.15013322 0.23318514 0.27835616 0.24847448 -0.0008380413
-0.27596912 -0.1938777 0.04954092 0.10146415
00000000: 8a9b 843e c841 1b3e 8c8d 93be 43fd 42be
00000010: 3b3b 3abe b62d 9a3d 8bc1 663d 78d1 3f3e
00000020: f83b 6a3e 4bd9 5dbd 28ce 483e 339d 393e
00000030: 4ec9 44be 600f 56bd 28a1 55be a842 8a3e
00000040: 5b6b 813e 701f 9ebe eb89 183e 7317 493e
00000050: 3202 88be 1677 09be a473 883e ffea a03e
00000060: fa6f a4be f668 f93d 2ba1 183e f65c 46bd
00000070: 5f6c 97be d640 69bc f3e4 28be 0a28 82be
00000080: 4b3d 20bd dfaf 93be 1254 983e 8031 2cbc
00000090: c389 2f3e aec8 00be b0f6 183e ab32 5abd
000000a0: 76c7 163e f663 1a3d d630 cfbd a353 5c3e
000000b0: dbfe b63d eed8 013e 8099 d83d f089 05be
000000c0: d387 9dbe 80e8 913d 775e 8d3e e878 4ebe
000000d0: e324 473e 70a5 86be a320 63be a6e0 d8bd
000000e0: d642 18bc c76e 843e 66e5 403e 0314 a43e
000000f0: bab7 823e 8b89 49bd 06bd 1cbe e72c 97be
00000100: 6669 17be fa04 8fbe 00be 533c 86bc 19be
00000110: 16c8 6e3e b384 8e3e 1870 7e3e 00b0 5bba
00000120: d34b 8dbe e087 46be 6beb 4a3d 70cc cf3d

weight f4 [50, 76, 3, 3]
-0.023797983 0.034722272 0.000121254074 0.010426738 -0.023601543 -0.030505838 -0.031903517 -0.0049602496
-0.033067297 -0.0024115029 0.015057471 -0.031103784 -0.01454609 -0.034191 -0.0003978521 -0.027348774
0.036998563 0.0050492915 -0.0030855702 0.0002603576 -0.03516259 -0.010532677 -0.006350683 -0.03566737
-0.027017342 0.014912004 0.022920616 0.01887748 -0.0025218038 0.023949772 -0.0011065973 -0.011019785
-0.035874672 0.026030768 -0.028395118 0.03131101 0.0009963282 -0.005206965 -0.031413842 -0.013871024
0.0014311691 -0.018254453 -0.032789964 0.021710586 -0.010326556 0.012831914 0.02072001 0.003062643
-0.022724176 -0.006833794 -0.017827693 0.03194555 0.013002778 0.0003871224 -0.0019292762 0.029471135
-0.017347688 0.0031349433 0.027881742 0.009540164 0.0083666 0.009792713 0.028937483 0.025144413
0.015556621 0.025543883 -0.00846881 0.0021293988 0.0020784484 0.03126349 -0.01801628 0.03565036
0.015352488 0.017746205 -0.0036650938 0.0025133076 -0.036729675 0.033321172 -0.02092507 0.01667954
-0.014380517 0.020303207 0.00020430231 -0.026904821 0.00078436825 0.023256775 -0.0332903 -0.01804563
0.01167155 -0.028972376 0.00985659 -0.0038699294 0.014703508 0.027071355 0.0005744777 0.036457643
-0.015942011 0.029341625 -0.0028176052 0.03292451 0.02965549 0.037753865 -0.029233035 0.025052767
-0.028656231 0.019138357 0.036866304 0.019054247 -0.023302414 -0.018741475 -0.019328343 0.0053486302
-0.006377576 -0.023269651 0.03023037 -0.021157837 0.023276994 0.03347684 -0.0035613836 0.007754203
-0.030088717 0.03709922 -0.03665583 0.022099473 -0.003411564 0.0010004031 -0.02967602 0.031825
-0.020900195 0.022271682 -0.02986931 -0.020193717 -0.002884071 -0.01808373 0.0021485563 -0.0078070676
-0.033714507 0.017724868 -0.020905282 0.030429704 0.035952043 0.0053038425 -0.022872638 0.006006589
-0.030135356 -0.023226818 0.0038098674 0.024197986 0.029404491 0.0061640525 -0.017966218 0.011900529
-0.0046254722 -0.022682589 0.0017136607 0.024495382 0.0033196732 0.009345593 -0.023529215 -0.014387592
0.017346853 -0.0189164 -0.023146838 -0.0039167497 0.026605286 0.024181942 0.03819242 -0.0065930593
0.0016055384 0.030624863 0.026220672 0.003004345 -0.03127409 0.0051340265 -0.02180771 0.03373196
0.036088966 -0.010308169 0.018868485 0.036195703 0.023744402 -0.0053423173 0.02258881 -0.014657293
-0.0066051288 0.016424762 -0.026567696 -0.018603202 -0.02458123 0.03501886 -0.03611051 -0.008926979
0.034255434 -0.000801575 -0.027783591 -0.01495062 -0.011484144 0.015953539 -0.006388009 -0.017863298
0.027668195 0.025852734 -0.0369058 0.033701174 0.021127257 0.023664737 0.016505696 0.03516122
-0.008173068 -0.0071404483 -0.003109035 0.023114348 -0.02404953 -0.017662778 0.035400677 0.023536172
0.026715282 0.031923678 -0.011539922 -0.01572394 -0.015132948 0.037190795 0.007687664 -0.03573419
0.0057207425 0.018693201 -0.022501066 0.009684655 -0.0021211943 -0.024894055 0.023707755 -0.012885308
-0.03625338 -0.03822244 -0.03474423 0.037392046 0.010053476 -0.031941295 0.01878511 0.018841859
0.020215245 0.008947568 0.00030115698 0.034416657 0.024382794 -0.011685539 0.031043094 0.006373852
0.03434844 0.026451606 0.034033783 -0.018239085 -0.013380315 -0.025311995 -0.012361721 -0.03269634
00000000: fdf3 c2bc f138 0e3d c949 fe38 e9d4 2a3c
00000010: 0658 c1bc 61e7 f9bc 43ad 02bd 9789 a2bb
00000020: 9371 07bd 4e0a 1ebb 9cb3 763c 5dcd febc
00000030: b952 6ebc dd0b 0cbd ce96 d0b9 890a e0bc
00000040: ce8b 173d 8774 a53b 4737 4abb 9b80 8839
00000050: a606 10bd 4091 2cbc 6419 d0bb f317 12bd
00000060: 7953 ddbc 7a51 743c 04c4 bb3c f2a4 9a3c
00000070: d944 25bb 5032 c43c 3e0b 91ba 548c 34bc
00000080: 52f1 12bd 7a3e d53c e19c e8bc f93f 003d
00000090: 3a97 823a 309f aabb cdab 00bd 4b43 63bc
000000a0: 1196 bb3a 5d8a 95bc c54e 06bd 66da b13c
000000b0: b730 29bc f33c 523c 03bd a93c a0b6 483b
000000c0: 0d28 babc 05ee dfbb 620b 92bc 56d9 023d
000000d0: 9b09 553c b0f6 ca39 c4df fcba 736d f13c
000000e0: bd1c 8ebc 9f73 4d3b 4068 e43c 594e 1c3c
000000f0: 1014 093c 9e71 203c 4d0e ed3c a8fb cd3c
00000100: 33e1 7e3c 6841 d13c c3c0 0abc 628d 0b3b
00000110: 9436 083b 250e 003d e196 93bc 1d06 123d
00000120: 0089 7b3c 7d60 913c 1232 70bb 4eb6 243b
00000130: db71 16bd c87b 083d 0d6b abbc 88a3 883c
00000140: 439c 6bbc e952 a63c fc39 5639 8067 dcbc
00000150: 109e 4d3a fe84 be3c 695b 08bd 6ed4 93bc
00000160: 073a 3f3c 7a57 edbc 897d 213c a49e 7dbb
00000170: fbe6 703c bfc4 dd3c 8c98 163a 9c54 153d
00000180: d298 82bc d95d f03c 92a7 38bb dadb 063d
00000190: 12f0 f23c cca3 1a3d 1e7a efbc 763b cd3c
000001a0: 79c0 eabc 0bc8 9c3c 1f01 173d a717 9c3c
000001b0: b4e4 bebc b987 99bc 7956 9ebc 9043 af3b
000001c0: fcfa d0bb ff9f bebc aea5 f73c 3353 adbc
000001d0: 65af be3c 031f 093d 1a66 69bb f816 fe3b
000001e0: 9d7c f6bc 5af5 173d 6c24 16bd f409 b53c
000001f0: 8c94 5fbb f51f 833a 201b f3bc ee5a 023d
00000200: e336 abbc 1a73 b63c 7cb0 f4bc 4b6d a5bc
00000210: af02 3dbb 5524 94bc cbce 0c3b 6ed2 ffbb
00000220: 3918 0abd be33 913c 8e41 abbc b747 f93c
00000230: 7342 133d dbcb ad3b 665f bbbc ecd2 c43b
00000240: 6cde f6bc 2b46 bebc f8ae 793b db3a c63c
00000250: b0e1 f03c d2fb c93b e42d 93bc 70fa 423c
00000260: 4691 97bb d6d0 b9bc e99c e03a 8aaa c83c
00000270: e08e 593b 421e 193c 57c0 c0bc efb9 6bbc
00000280: fd1a 8e3c 91f6 9abc 709e bdbc 1458 80bb
00000290: 54f3 d93c 3519 c63c a86f 1c3d 970a d8bb
000002a0: ee70 d23a fee0 fa3c bccc d63c 8ce4 443b
000002b0: 4319 00bd 563b a83b 15a6 b2bc 862a 0a3d
000002c0: 06d2 133d 98e3 28bc 1592 9a3c f241 143d
000002d0: 9f83 c23c 9b0e afbb 2b0c b93c 2525 70bc
000002e0: d66f d8bb 398d 863c 7fa4 d9bc be65 98bc
000002f0: 935e c9bc f06f 0f3d 9de8 13bd 7742 12bc
00000300: 6d4f 0c3d ca20 52ba 6a9a e3bc 72f3 74bc
00000310: fe27 3cbc ffb0 823c 8152 d1bb 0d56 92bc
00000320: 69a8 e23c 1dc9 d33c 892a 17bd 3e0a 0a3d
00000330: 1213 ad3c 8ddc c13c f436 873c 3605 103d
00000340: 55e8 05bc 6cfa e9bb f4c0 4bbb 4d5a bd3c
00000350: 8503 c5bc 88b1 90bc 4d00 113d eece c03c
00000360: 02da da3c 67c2 023d f111 3dbc 7ecf 80bc
00000370: 2ff0 77bc 6055 183d cde8 fb3b 045e 12bd
00000380: 1175 bb3b 7c22 993c 2854 b8bc 63ac 1e3c
00000390: bc03 0bbb 9eee cbbc c436 c23c e61c 53bc
000003a0: 6d7e 14bd 228f 1cbd f74f 0ebd 6728 193d
000003b0: 56b7 243c e0d4 02bd 3be3 993c 3e5a 9a3c
000003c0: 719a a53c d298 123c 9be4 9d39 7bf8 0c3d
000003d0: 6dbe c73c b474 3fbc 164e fe3c bfdb d03b
000003e0: f3b0 0c3d 0ab1 d83c 0267 0b3d 226a 95bc
000003f0: 1c39 5bbc 1a5b cfbc d188 4abc 99ec 05bd

bias f4 [50]
-0.0128432 -0.02749614 -0.015830152 0.004267339 0.028200222 0.022182202 0.032199215 -0.0304807
0.027902111 -0.005915915 -0.011424028 0.015380146 -0.030442465 -0.029846465 -0.0063794353 -0.024767805
0.025645688 -0.012581242 0.02107843 0.0070120012 -0.00076167355 0.018870141 -0.022084454 0.013048345
0.010876237 0.024370296 0.00052036875 0.009626544 0.010246529 -0.034619957 -0.012809439 0.017895473
-0.01283974 -0.01617713 -0.035292327 -0.025728507 -0.032352217 -0.023690226 -0.030041939 -0.024001656
0.035350133 -0.036444567 0.0015844345 0.029265862 -0.028344294 -0.022580601 -0.026521148 0.016513558
0.010988207 -0.029146763
00000000: 496c 52bc 963f e1bc 3cae 81bc 09d5 8b3b
00000010: 2704 e73c 73b7 b53c 53e3 033d a9b2 f9bc
00000020: f892 e43c 4bda c1bb d92b 3bbc 02fd 7b3c
00000030: 7a62 f9bc 9380 f4bc 950a d1bb dae5 cabc
00000040: e816 d23c 8e21 4ebc acac ac3c eec4 e53b
00000050: 0cab 47ba 8e95 9a3c 75ea b4bc bac8 553c
00000060: 3f32 323c 37a4 c73c 5b69 083a a7b8 1d3c
00000070: 0fe1 273c a8cd 0dbd aede 51bc 8799 923c
00000080: c65d 52bc e785 84bc b08e 10bd 97c4 d2bc
00000090: c283 04bd 0112 c2bc 831a f6bc 1f9f c4bc
000000a0: 4dcb 103d e646 15bd cdac cf3a f6be ef3c
000000b0: 4b32 e8bc f4fa b8bc e142 d9bc 7147 873c
000000c0: e107 343c 31c5 eebc

weight f4 [50, 75, 3, 3]
-0.024901155 -0.01434115 -0.02820511 0.016875232 -0.010980574 -0.0019888142 0.03521365 -0.023327304
0.01344825 0.028325137 -0.034642424 0.011924342 -0.0010781288 0.030439751 0.025609866 0.008845442
-0.0029987462 0.002857911 -0.034332372 0.02411336 0.004296961 -0.02736281 0.019797092 -0.010795351
-0.023862327 0.016626759 0.023088815 -0.024120165 0.015304983 0.0084660025 0.008314784 -0.0022413305
0.030477421 -0.007409549 -0.015179707 -0.008858266 -0.013431158 -0.0035575223 0.0028614071 0.027568983
0.005453179 -0.007657215 0.031194327 0.035988174 -0.0133020505 -0.030844105 -0.018659797 -0.02226222
0.0009239872 0.018420568 0.017304676 0.007798289 -0.033854384 0.0018422572 -0.031901877 -0.005226913
0.009946214 0.005021377 0.020553323 -0.010506151 0.015528496 -0.008014988 -0.03791039 0.01894996
0.027814893 0.0330115 -0.03590628 0.014320337 -0.027992977 -0.005169003 0.025307951 0.013276057
-0.0017410608 0.012965163 -0.032787118 0.016904369 -0.03500021 0.007021763 0.004553377 -0.00015856941
-0.021079343 0.0331495 -0.0357352 -0.013249376 0.021680025 0.016680209 -0.013957356 -0.031168617
0.0011058243 -0.029904068 -0.03521407 0.018556245 -0.016725922 -0.0013794377 -0.022604462 -0.018653968
-0.02587494 0.009601903 -0.030971883 0.018478816 -0.024920082 0.01884171 0.01695657 0.0018989465
0.0070975902 0.02261045 -0.034858946 0.0069718002 0.034889456 0.021795863 0.035974037 0.012995786
-0.028474255 0.011851401 0.0016256634 0.015832439 -0.016748162 0.0075490354 0.013374087 0.014565531
0.01117831 0.014797188 -0.0022384583 -0.038310092 0.023128072 5.9969967e-05 -0.029691715 0.009397849
0.0060378285 -0.030034356 0.02364548 -0.036408026 0.025184065 -0.036177132 -6.2842286e-05 0.017826905
0.01025853 -0.026309522 0.0083826175 -0.026935114 0.037863024 0.014211359 0.028163861 0.03658602
0.02797009 0.026995264 0.0075707384 0.03576905 0.0010684978 0.01885677 -0.034785926 -0.027373098
0.022117265 -0.027765108 0.028777143 0.00801291 -0.03370978 -0.0008884365 0.022599332 0.0034611435
0.0010346494 -0.008156159 0.032766797 0.015238071 0.026500715 -0.011261534 0.0019406594 -0.03468617
-0.029017586 0.014716617 -0.0017730142 0.024336446 0.017310673 0.017113034 -0.001870205 -0.03709443
-0.001683541 0.021166174 -0.0040099034 -0.0230955 0.024859635 0.0023235404 -0.02844015 0.027853563
-0.005350124 -0.023056274 -0.028674712 -0.02002779 -0.013634304 0.024626495 -0.019917086 0.012695587
0.00757757 -0.017468082 0.021897132 -0.029425308 -0.03523806 0.005172632 -0.028685182 0.03270259
0.0019178002 -0.0011155882 -0.038052395 -0.019234654 0.006826748 0.014600903 0.020725824 -0.024052
-0.018161274 -0.020317096 0.030157892 -0.011340904 -0.015985567 0.011167317 0.008146619 0.008429167
-0.023939269 -0.0358613 0.038422607 -0.020187842 -0.013464699 -0.024658555 0.017712187 -0.014569445
0.015897272 0.034867525 -0.0019527038 -0.038163267 0.00041068645 0.0012579148 -0.027857725 -0.018412882
0.0039898246 0.002916642 -0.034622017 -0.015006147 -0.034586444 -0.030778497 0.0040838677 0.021493213
-0.019547649 -0.009778565 -0.016878977 0.011292042 0.031539798 -0.030452952 0.008201028 -0.00888743
-0.022666538 0.030461634 0.036366824 -0.0045717903 0.03407191 0.014406663 -0.017655682 0.000260032
00000000: 82fd cbbc 25f7 6abc 670e e7bc ed3d 8a3c
00000010: dee7 33bc c456 02bb 303c 103d e718 bfbc
00000020: 0c56 5c3c 1e0a e83c 37e5 0dbd 515e 433c
00000030: 0050 8dba c95c f93c c8cb d13c 79ec 103c
00000040: 9d86 44bb ca4b 3b3b 1aa0 0cbd 6289 c53c
00000050: 85cd 8c3b f927 e0bc 832d a23c fcde 30bc
00000060: ed7a c3bc d734 883c c124 bd3c a797 c5bc
00000070: c0c1 7a3c fdb4 0a3c bb3a 083c 49e3 12bb
00000080: c9ab f93c cdcb f2bb 4eb4 78bc 4322 11bc
00000090: 5c0e 5cbc 5225 69bb 7286 3b3b 59d8 e13c
000000a0: 95b0 b23b 60e9 fabb 3f8b ff3c 5668 133d
000000b0: d8f0 59bc c7ac fcbc 6edc 98bc 425f b6bc
000000c0: bb37 723a bbe6 963c 89c2 8d3c ca88 ff3b
000000d0: e5aa 0abd e577 f13a 8bab 02bd 8646 abbb
000000e0: 72f5 223c 5d8a a43b 715f a83c fe21 2cbc
000000f0: 3c6b 7e3c 4c51 03bc ed47 1bbd f23c 9b3c
00000100: 0fdc e33c 1137 073d 7712 13bd d99f 6a3c
00000110: 8751 e5bc bd60 a9bb 9f52 cf3c d283 593c
00000120: 4e34 e4ba d66b 543c c94b 06bd 087b 8a3c
00000130: 615c 0fbd d116 e63b 7f34 953b a745 26b9
00000140: 96ae acbc c5c7 073d 135f 12bd e913 59bc
00000150: 4f9a b13c efa4 883c 65ad 64bc 5455 ffbc
00000160: 4ef1 903a 60f9 f4bc a13c 10bd 4403 983c
00000170: cd04 89bc 40ce b4ba fe2c b9bc 35d0 98bc
00000180: aff7 d3bc 4d51 1d3c bfb8 fdbc e360 973c
00000190: 3325 ccbc ee59 9a3c 81e8 8a3c 12e6 f83a
000001a0: e792 e83b 8d39 b93c 41c8 0ebd b373 e43b
000001b0: 3fe8 0e3d 3d8d b23c 8359 133d 47ec 543c
000001c0: d742 e9bc 612c 423c 3614 d53a 08b3 813c
000001d0: 7133 89bc e65d f73b fd1e 5b3c 44a4 6e3c
000001e0: 3b25 373c e86f 723c 19b3 12bb 0beb 1cbd
000001f0: 1577 bd3c 4388 7b38 0a3c f3bc 70f9 193c
00000200: fad8 c53b 9c0a f6bc 2ab4 c13c 9520 15bd
00000210: d04e ce3c 792e 14bd 32ca 83b8 bb09 923c
00000220: 6513 283c 1187 d7bc 3f57 093c 07a7 dcbc
00000230: 4216 1b3d c3d6 683c e6b7 e63c 39db 153d
00000240: 8821 e53c 2c25 dd3c f513 f83b 9182 123d
00000250: d60c 8c3a 8379 9a3c b07b 0ebd 8c3d e0bc
00000260: 442f b53c a773 e3bc 0bbe eb3c 9548 033c
00000270: 4413 0abd f7e5 68ba 3c22 b93c 5ad4 623b
00000280: 139d 873a 69a1 05bc 7a36 063d 1aa9 793c
00000290: 0718 d93c 4c82 38bc b95d fe3a 1613 0ebd
000002a0: 4ab6 edbc f71d 713c 7c64 e8ba 3a5d c73c
000002b0: 1dcf 8d3c a230 8c3c ab21 f5ba 54f0 17bd
000002c0: 43aa dcba af64 ad3c 8265 83bb c632 bdbc
000002d0: 6fa6 cb3c 8a46 183b 51fb e8bc 282d e43c
000002e0: 1850 afbb 83e0 bcbc 3be7 eabc 5211 a4bc
000002f0: 6a62 5fbc 81bd c93c 2829 a3bc 2701 503c
00000300: 444d f83b 3919 8fbc 9d61 b33c 580d f1bc
00000310: c955 10bd 2f7f a93b 30fd eabc 27f3 053d
00000320: b25e fb3a ee38 92ba d4dc 1bbd fe91 9dbc
00000330: eab2 df3b a038 6f3c 34c9 a93c b308 c5bc
00000340: f4c6 94bc 0a70 a6bc af0d f73c 33cf 39bc
00000350: 2af4 82bc 1ff7 363c 6679 053c 7d1a 0a3c
00000360: 491c c4bc 4ce3 12bd 0661 1d3d f960 a5bc
00000370: 0a9b 5cbc bd00 cabc 2619 913c aeb4 6ebc
00000380: ff3a 823c 40d1 0e3d def1 ffba 1651 1cbd
00000390: 6751 d739 9ee0 a43a e235 e4bc 9dd6 96bc
000003a0: 13bd 823b 2225 3f3b d1cf 0dbd 58dc 75bc
000003b0: 84aa 0dbd 3023 fcbc f7d1 853b 8912 b03c
000003c0: 6422 a0bc 4636 20bc c845 8abc 4202 393c
000003d0: e02f 013d 7878 f9bc 9b5d 063c 959c 11bc
000003e0: 2daf b9bc ad8a f93c 61f5 143d f5ce 95bb
000003f0: fd8e 0b3d ed09 6c3c a6a2 90bc e754 8839

bias f4 [75]
-0.0010536086 0.020989567 -0.035769302 0.013353826 -0.018692052 0.023678498 0.011521667 -0.0032582139
-0.003757396 -0.03540446 -0.0028292243 -0.02746546 -0.020179216 -0.007073295 -0.022560602 0.03222528
0.0037274065 -0.031069579 -0.0068939724 -0.018824248 -0.025860904 0.026457617 0.0008592912 -0.02759472
-0.03104209 -0.030847607 -0.030217353 -0.026030622 0.004690248 -0.025562843 -0.030440545 -0.033295695
0.01104523 -0.027159788 0.019025255 -0.03703137 0.027238203 -0.0156030115 0.025598697 -0.0016247411
0.035080675 0.009344936 0.030807734 0.0117398165 0.019673068 -0.024478735 0.002831959 0.009269169
-0.010794232 -0.0006529431 0.016103745 0.029115558 0.0025401113 -0.017524542 0.030394217 0.027639318
0.014718562 0.027929828 0.011638689 -0.011953515 -0.01879953 0.033828065 -0.009540896 0.038236495
0.0050340868 -0.038035378 -0.03209558 -0.0032989585 0.015698954 -0.018750297 0.033790756 0.004891783
0.005256462 -0.03786672 0.02588574
00000000: 3d19 8aba 50f2 ab3c d582 12bd 01ca 5a3c
00000010: 1320 99bc 69f9 c13c 60c5 3c3c c287 55bb
00000020: a53e 76bb 4404 11bd 826a 39bb 3fff e0bc
00000030: e24e a5bc 19c7 e7bb 03d1 b8bc a8fe 033d
00000040: 8147 743b a185 febc d5e6 e1bb 4f35 9abc
00000050: 3fda d3bc a5bd d83c 0e42 613a 520e e2bc
00000060: fb4b febc 1fb4 fcbc 628a f7bc 2c3e d5bc
00000070: a7b0 993b 2b69 d1bc 735e f9bc 1161 08bd
00000080: 0df7 343c 347e debc dada 9b3c 35ae 17bd
00000090: a722 df3c c6a3 7fbc 5cb4 d13c 44f5 d4ba
000000a0: c1b0 0f3d 811b 193c 8060 fc3c 5c58 403c
000000b0: 6a29 a13c a187 c8bc 6398 393b b6dd 173c
000000c0: 4ada 30bc 452a 2bba 00ec 833c c083 ee3c
000000d0: ff77 263b a18f 8fbc 4bfd f83c da6b e23c
000000e0: 2026 713c 18cd e43c 33b0 3e3c add8 43bc
000000f0: 7901 9abc 4c8f 0a3d 6b51 1cbc df9d 1c3d
00000100: fbf4 a43b fcca 1bbd a876 03bd 5733 58bb
00000110: 189b 803c 399a 99bc 2d68 0a3d 404b a03b
00000120: 663e ac3b 221a 1bbd 550e d43c

weight f4 [75, 1, 3, 3]
0.11192326 0.037460607 -0.2250762 0.2112535 0.19965267 -0.29753312 0.18473399 0.2924803
0.05622538 -0.08515509 0.04323582 0.27018926 0.10346115 -0.0073164306 -0.28425094 0.05749452
0.32469273 0.013053576 -0.18375067 0.14342332 -0.0024828515 -0.27258238 -0.12669067 -0.12497191
0.013437669 0.27322695 0.22006413 0.09979495 -0.15198903 -0.02076002 -0.14621381 -0.023240408
-0.17271039 0.1606811 -0.17503941 -0.1675934 0.01637733 -0.0059549017 -0.009874901 -0.19223332
0.0070717735 -0.25547168 -0.107679844 0.0674152 0.15726583 -0.16071384 -0.3217152 -0.22056684
-0.17243569 0.31562465 -0.2606585 -0.29193613 0.30674082 0.006236951 -0.25831875 -0.27143455
0.09390362 0.1157891 0.20233321 -0.042725086 0.28790575 -0.2184963 -0.18558869 0.0632871
0.23953307 -0.050117694 -0.31542736 0.1624268 0.09218355 -0.20884316 0.24751672 0.23075442
-0.2838211 0.064399004 0.14102638 -0.23611495 0.2312361 0.025729856 -0.31828162 0.13567102
-0.11895275 -0.039198082 0.312769 0.05779668 -0.21154718 0.07234351 0.17382602 -0.097113654
-0.2050482 0.0785658 -0.13998024 -0.16405666 -0.14636445 -0.2392916 -0.048770033 -0.22748372
0.2562744 -0.09339909 0.24185698 0.22039804 0.33270115 -0.14654407 0.17103311 -0.20012903
-0.1867321 0.119278 0.21574752 0.30791745 0.10691778 -0.14780605 -0.3121955 -0.091493055
-0.13514301 -0.012737989 -0.14243858 -0.09880769 -0.18552515 0.31703532 -0.124295115 -0.17227118
-0.14880642 0.17639065 -0.12171917 0.01181829 -0.0021143358 -0.15652883 0.041927855 0.054979764
-0.2970472 -0.2632519 -0.29888698 -0.15712051 0.1977117 0.23377642 -0.17547882 -0.185485
0.09426733 -0.1399431 -0.046807013 0.11678326 -0.095839545 -0.25227797 -0.3225879 -0.25445232
0.27687085 0.0075845323 -0.24204871 -0.022471985 -0.31662428 -0.08923801 -0.24464202 0.10485296
0.13109097 -0.20443699 -0.043323915 -0.10909426 0.14571123 -0.2965102 -0.16868305 -0.1673799
-0.08354919 -0.3266992 -0.23993954 0.19426918 0.14826605 0.20109098 -0.2457132 -0.29041547
-0.1082592 0.14650297 -0.043017626 0.123540364 -0.31310618 -0.017020226 -0.20777714 0.011835536
0.059552073 0.13202533 -0.15523414 0.08493086 0.22876891 0.14238477 0.2858357 -0.07605839
-0.10864167 0.05262355 -0.25936055 -0.23060302 0.19028923 -0.19107008 -0.20495746 0.23078863
-0.16692357 -0.10180068 -0.18741775 0.07754123 -0.08576195 -0.01763769 -0.08987598 -0.31390733
-0.2942099 -0.31020385 0.25718564 -0.08002448 0.074058056 -0.09299557 0.20153043 -0.018514633
0.14719705 0.007998943 -0.011076093 -0.18200144 0.32801637 0.16830266 -0.28076252 -0.25784016
-0.32866663 -0.30383396 -0.16645408 0.101290986 0.10120933 0.026047349 -0.08983509 -0.31607065
-0.26242602 -0.07518268 0.028783482 0.21447358 0.078202486 -0.14465559 -0.11325713 0.11473203
0.07292025 -0.12575352 -0.16219911 0.19145954 -0.05132564 -0.11576562 -0.17921838 -0.042921066
-0.00046165785 0.27502555 -0.00252529 -0.18172917 0.28808233 0.07646148 0.17679927 -0.27783832
-0.32224905 -0.10431111 -0.29967624 -0.2994346 0.10818963 0.06294942 0.23773062 0.16160095
00000000: 0638 e53d 4b70 193d 607a 66be d652 583e
00000010: c071 4c3e 4356 98be e82a 3d3e fabf 953e
00000020: 964c 663d cb65 aebd 0b18 313d 3f56 8a3e
00000030: 70e3 d33d abbe efbb 5789 91be 607f 6b3d
00000040: 203e a63e abde 553c 2329 3cbe 90dd 123e
00000050: 56b7 22bb eb8f 8bbe 33bb 01be 46f1 ffbd
00000060: ab29 5c3c 67e4 8b3e 7e58 613e 4b61 cc3d
00000070: 03a3 1bbe eb10 aabc 13b9 15be ab62 bebc
00000080: feda 30be 9689 243e 883d 33be 9b9d 2bbe
00000090: c029 863c 5621 c3bb 56ca 21bc d0d8 44be
000000a0: 56ba e73b 2fcd 82be 4087 dcbd fb10 8a3d
000000b0: 4b0a 213e 2b92 24be dbb7 a4be 46dc 61be
000000c0: fb92 30be 8e99 a13e 0875 85be a778 95be
000000d0: 220d 9d3e 565f cc3b 5b42 84be 78f9 8abe
000000e0: 8b50 c03d d622 ed3d 7030 4f3e 8000 2fbd
000000f0: 6268 933e 7ebd 5fbe f60a 3ebe ab9c 813d
00000100: 2848 753e 3648 4dbd b27f a1be 3653 263e
00000110: bbca bc3d fbda 55be 0675 7d3e e34a 6c3e
00000120: 0051 91be a0e3 833d 3869 103e 1ec8 71be
00000130: 28c9 6c3e 6bc7 d23c cff5 a2be 58ed 0a3e
00000140: 809d f3bd 2b8e 20bd 4223 a03e 36bc 6c3d
00000150: d39f 58be d628 943d 73ff 313e 86e3 c6bd
00000160: 28f8 51be 1be7 a03d fb56 0fbe 78fe 27be
00000170: 90e0 15be db08 75be 16c3 47bd 7ef1 68be
00000180: 6636 833e 0648 bfbd 5ba9 773e 06b0 613e
00000190: ce57 aa3e a60f 16be 4e23 2f3e a0ee 4cbe
000001a0: b336 3fbe 0648 f43d ebec 5c3e 5ba7 9d3e
000001b0: b6f7 da3d 785a 17be 17d8 9fbe b660 bbbd
000001c0: ee62 0abe 00b3 50bc 6bdb 11be b05b cabd
000001d0: 4efa 3dbe 7452 a23e 708e febd db67 30be
000001e0: b660 18be c09f 343e e647 f9bd 80a1 413c
000001f0: ab90 0abb 1849 20be 8bbc 2b3d 7632 613d
00000200: 9216 98be f4c8 86be b707 99be 33e4 20be
00000210: f074 4a3e 1663 6f3e b8b0 33be c8ef 3dbe
00000220: 3b0f c13d 3e4d 0fbe b6b8 3fbd 102c ef3d
00000230: 8647 c4bd 942a 81be 3e2a a5be 9347 82be
00000240: 04c2 8d3e ab87 f83b 9edb 77be 2b17 b8bc
00000250: 941c a2be 6bc2 b6bd 7083 7abe 26bd d63d
00000260: b63c 063e ee57 51be 6b74 31bd d06c dfbd
00000270: 5335 153e 2fd0 97be 40bb 2cbe a365 2bbe
00000280: d61b abbd 1e45 a7be b6b2 75be 80ee 463e
00000290: 0ed3 173e cbea 4d3e 3e9c 7bbe 56b1 94be
000002a0: 00b7 ddbd e004 163e 4033 30bd bb02 fd3d
000002b0: 744f a0be 006e 8bbc 88c3 54be d6e9 413c
000002c0: e0ec 733d a631 073e b3f5 1ebe 3bf0 ad3d
000002d0: 6642 6a3e 50cd 113e 0f59 923e 80c4 9bbd
000002e0: 867f debd cb8b 573d e8ca 84be 3323 6cbe
000002f0: 2edb 423e e0a7 43be 5ee0 51be db53 6c3e
00000300: 03ee 2abe e07c d0bd 70ea 3fbe f0cd 9e3d
00000310: f6a3 afbd eb7c 90bc e610 b8bd 76b8 a0be
00000320: aea2 96be 0ad3 9ebe d6ad 833e e0e3 a3bd
00000330: c0ab 973d 7674 bebd fe5d 4e3e 00ac 97bc
00000340: d3ba 163e 000e 033c 8078 35bc 965e 3abe
00000350: c3f1 a73e 8857 2c3e 1bc0 8fbe a003 84be
00000360: fe46 a8be 2090 9bbe f072 2abe a671 cf3d
00000370: d646 cf3d 4061 d53c 76fb b7bd 03d4 a1be
00000380: b45c 86be 60f9 99bd 56cb eb3c f69e 5b3e
00000390: a028 a03d 9820 14be 5bf3 e7bd a0f8 ea3d
000003a0: 3657 953d 88c5 00be 8617 26be f80d 443e
000003b0: d63a 52bd 8616 edbd 0685 37be 00ce 2fbd
000003c0: ab0a f2b9 26d0 8c3e 567f 25bb 3617 3abe
000003d0: 877f 933e d697 9c3d de0a 353e d340 8ebe
000003e0: d4fd a4be 10a1 d5bd 2a6f 99be 7e4f 99be
000003f0: 8692 dd3d a0eb 803d a86f 733e b87a 253e

weight f4 [76, 1, 3, 3]
0.26909894 -0.32043797 -0.16777606 -0.03167867 -0.19785821 0.26763463 0.17153767 0.27936724
-0.27488428 0.07119643 -0.25831085 0.17137797 -0.18992847 -0.23319961 0.26348212 0.30726823
0.06294215 -0.102124505 -0.27443126 -0.11611623 -0.1797954 0.2796512 0.15387975 -0.063975036
0.27746382 0.33578515 -0.04431002 0.23616 0.07531808 0.094072856 0.26886335 0.07473076
0.3197862 -0.018074093 0.22046356 0.30895942 -0.27799103 -0.04849864 -0.25082126 0.031553045
-0.10778696 0.17542818 0.1494106 0.19845617 0.2012438 0.3228418 0.22365695 -0.04799448
0.32213336 0.013558649 0.30165046 0.27982318 0.101594694 0.045067932 -0.3111441 -0.07550869
0.09075023 0.026208652 -0.23624359 -0.05799518 -0.18275324 -0.29234415 0.0038002587 -0.12354506
-0.30057448 -0.010405879 0.31628755 0.06860277 0.14135209 -0.27654114 0.30076727 0.2225584
-0.1196995 -0.06650365 0.16624734 0.33403063 0.016253512 0.06796763 0.1348364 0.30670622
0.022706836 0.05515317 0.217816 -0.3035474 0.25048175 -0.19283564 -0.028025964 -0.11780027
-0.14485486 -0.08754354 -0.04515655 -0.1254134 0.21289161 0.27867258 0.21075736 0.2119181
0.28834954 -0.18216951 -0.21749929 0.10441795 0.02448295 0.28679773 0.17318872 0.2613329
0.071561046 0.28226158 0.14677338 0.1537679 0.30823278 0.29084343 0.06840665 -0.2997821
0.19903632 0.10713685 -0.0030931293 -0.17696379 0.025538169 0.33263725 0.19209024 -0.29005378
-0.10439192 0.26347476 0.21345794 0.20731737 -0.03538239 0.32712102 -0.03486474 -0.021519221
0.25210264 0.23878078 0.13406725 -0.05798432 -0.13810493 -0.14628814 0.25170052 -0.19159485
-0.1297426 -0.052225146 0.14093691 -0.043039773 0.22505195 -0.03868058 -0.24356166 0.32937813
0.27401277 -0.06835423 0.1724294 -0.21690261 -0.076272815 0.009814041 -0.009629002 0.17117071
-0.018298935 0.030480161 -0.13646233 0.07884991 -0.08313327 0.36184502 0.3271817 -0.2816334
0.067619555 -0.19688012 0.17974667 -0.039885867 0.34178197 -0.13741596 -0.27339688 -0.06394375
-0.05606723 -0.106783286 0.34300107 -0.23448564 -0.115237884 -0.049984884 -0.1906388 -0.29964444
-0.012828926 -0.116957605 -0.24505366 0.24953057 0.24689095 -0.19434021 0.21073258 0.07240882
0.11823363 0.3356722 0.028096499 -0.16747674 -0.21298705 -0.16074571 0.120636486 -0.08334205
-0.12247988 0.32073534 -0.076245084 0.044770267 -0.18056236 -0.08185067 0.081946045 -0.13810214
0.32474247 0.21415815 -0.02880549 0.11132177 0.0312904 0.18987209 0.09009566 -0.2332568
0.11129994 0.02245964 -0.23191933 0.30428076 0.3079905 -0.058857102 0.20027442 -0.010271155
0.1786522 0.27346426 -0.1267802 0.27491686 -0.1332439 -0.32151112 0.028429886 -0.27734783
0.15352815 0.22644338 -0.17217948 0.14638916 0.31266692 -0.20647855 0.03892494 0.27130386
0.06751332 0.30297026 0.31849888 -0.2526321 0.06002981 0.26371896 -0.09344573 -0.26034698
0.14915301 0.3312502 0.056598067 0.06886131 0.15762073 0.08885594 -0.19389752 -0.2319159
0.19164956 0.2795011 0.30622044 -0.28028017 0.04536489 0.061635148 0.20119715 -0.29726428
00000000: 56c7 893e 7210 a4be 7dcd 2bbe 7ec1 01bd
00000010: 589b 4abe 6807 893e 92a7 2f3e 3909 8f3e
00000020: a2bd 8cbe 6fcf 913d 5241 84be b57d 2f3e
00000030: 9c7c 42be e1cb 6ebe 21e7 863e 4352 9d3e
00000040: d0e7 803d a726 d1bd 4182 8cbe 59ce edbd
00000050: 491c 38be 712e 8f3e a792 1d3e 5805 83bd
00000060: bd0f 8e3e 08ec ab3e 6c7e 35bd edd3 713e
00000070: 5e40 9a3d 45a9 c03d 75a8 893e 710c 993d
00000080: 04bb a33e 1f10 94bc 33c1 613e ee2f 9e3e
00000090: d754 8ebe 83a6 46bd a56b 80be c43d 013d
000000a0: 69bf dcbd 72a3 333e 18ff 183e 1838 4b3e
000000b0: db12 4e3e 854b a53e 5406 653e dc95 44bd
000000c0: aaee a43e 1925 5e3c ee71 9a3e fc44 8f3e
000000d0: e110 d03d 2799 383d 484e 9fbe 4da4 9abd
000000e0: 42db b93d 87b3 d63c d7e9 71be 5b8c 6dbd
000000f0: aa23 3bbe 22ae 95be c30d 793b 3105 fdbd
00000100: e6e4 99be 6b7d 2abc 71f0 a13e 9c7f 8c3d
00000110: 9abe 103e cd96 8dbe 2bfe 993e 59e6 633e
00000120: 0325 f5bd 1133 88bd be3c 2a3e 1006 ab3e
00000130: 1626 853c 9d32 8b3d 8e12 0a3e 9908 9d3e
00000140: b003 ba3c 4ae8 613d 280b 5f3e 916a 9bbe
00000150: 253f 803e b576 45be b596 e5bc 4541 f1bd
00000160: d554 14be 074a b3bd 13f6 38bd 5f6c 00be
00000170: 4200 5a3e 2cae 8e3e c7d0 573e 0f01 593e
00000180: 8da2 933e a58a 3abe 22b8 5ebe 14d9 d53d
00000190: 7890 c83c 27d7 923e 6258 313e 6dcd 853e
000001a0: 998e 923d 9784 903e c34b 163e 5575 1d3e
000001b0: b0d0 9d3e 6ee9 943e c918 8c3d 0a7d 99be
000001c0: 2dd0 4b3e 916a db3d 19b6 4abb ff35 35be
000001d0: 6c35 d13c 6e4f aa3e 4eb3 443e ee81 94be
000001e0: 6ecb d5bd 2ae6 863e b894 5a3e 014b 543e
000001f0: 20ed 10bd 687c a73e 54ce 0ebd 1449 b0bc
00000200: 9913 813e f382 743e ed48 093e f780 6dbd
00000210: 616b 0dbe 8fcc 15be e4de 803e 7131 44be
00000220: 3edb 04be 09ea 55bd c451 103e 794a 30bd
00000230: 0574 663e 876f 1ebd 3a68 79be 40a4 a83e
00000240: 674b 8c3e 4dfd 8bbd 5591 303e b81b 5ebe
00000250: ec34 9cbd 12cb 203c f6c2 1dbc 6047 2f3e
00000260: a6e7 95bc 88b1 f93c c8bc 0bbe 107c a13d
00000270: c741 aabd c043 b93e 5c84 a73e 4132 90be
00000280: 1f7c 8a3d f19a 49be 830f 383e 5d5f 23bd
00000290: 0cfe ae3e c5b6 0cbe adfa 8bbe f1f4 82bd
000002a0: c0a6 65bd 32b1 dabd d69d af3e 011d 70be
000002b0: d701 ecbd f3bc 4cbd d136 43be ff6a 99be
000002c0: 6a30 52bc 7887 efbd 59ef 7abe f184 7f3e
000002d0: fbd0 7c3e 1f01 47be 48ca 573e 134b 943d
000002e0: 7924 f23d 3add ab3e a12a e63c 067f 2bbe
000002f0: 4719 5abe 869a 24be 4310 f73d 3daf aabd
00000300: bbd6 fabd 6c37 a43e 6226 9cbd 0761 373d
00000310: 57e5 38be 53a1 a7bd 54d3 a73d a66a 0dbe
00000320: a544 a63e 464c 5b3e 7ef9 ebbc abfc e33d
00000330: 5d2a 003d d46d 423e 1384 b83d dfda 6ebe
00000340: 39f1 e33d 47fd b73c 437c 6dbe b0ca 9b3e
00000350: eeb0 9d3e 2514 71bd bd14 4d3e 5948 28bc
00000360: 9af0 363e 8203 8c3e abd2 01be e7c1 8c3e
00000370: 1771 08be 1b9d a4be cbe5 e83c 8900 8ebe
00000380: 7c36 1d3e c6e0 673e d14f 30be 0ae7 153e
00000390: e115 a03e 1d6f 53be c26f 1f3d 57e8 8a3e
000003a0: 6c44 8a3d eb1e 9b3e 4912 a33e ff58 81be
000003b0: d1e1 753d 2c06 873e 7a60 bfbd 334c 85be
000003c0: 91bb 183e a099 a93e 60d3 673d 2907 8d3d
000003d0: 5467 213e 1afa b53d 128d 46be 5d7b 6dbe
000003e0: c83f 443e c51a 8f3e edc8 9c3e e280 8fbe
000003f0: 89d0 393d 2375 7c3d a006 4e3e 0633 98be

bias f4 [76]
-0.005888679 -0.0880457 0.19106154 0.052801188 0.18988074 0.1412285 0.12561104 -0.035248246
-0.0084375115 0.34967458 0.078382045 -0.24284743 0.14763623 -0.3192079 -0.2368685 0.08805506
0.16949828 -0.006837803 -0.18962485 0.120547615 0.21294132 0.23397952 -0.29339483 -0.30938607
-0.05567569 -0.16970073 -0.07174161 -0.09875521 0.05845143 0.0827131 0.21524929 0.14737576
0.25509477 -0.035581425 0.26003408 0.25500512 -0.09051919 0.24055275 0.14511482 0.053277962
0.066477574 -0.030356988 0.14102803 -0.2531157 -0.23298088 -0.094913095 -0.20084049 0.082424104
-0.09760167 -0.06910683 0.047373917 -0.2044984 0.337806 -0.29169416 0.22571276 -0.043793626
-0.35147914 0.0850658 -0.27038983 0.1705125 0.25176352 0.31659493 0.22197555 -0.30088434
0.25827542 0.27022186 -0.03941896 -0.26827177 0.23847319 0.050810944 -0.15225181 -0.13395368
-0.31987518 0.0979188 -0.03366816 -0.1995327
00000000: d2f5 c0bb 4e51 b4bd a3a5 433e 0f46 583d
00000010: 1970 423e 349e 103e 2ea0 003e 7760 10bd
00000020: 7d3d 0abc 8c08 b33e c486 a03d ffac 78be
00000030: f42d 173e 386f a3be a88d 72be 3656 b43d
00000040: f590 2d3e a60f e0bb 042d 42be abe1 f63d
00000050: 4a0d 5a3e 5498 6f3e d937 96be da67 9ebe
00000060: 310c 64bd 07c6 2dbe 44ed 92bd 2c40 cabd
00000070: c46a 6f3d 7c65 a93d 4f6a 5c3e ace9 163e
00000080: c89b 823e d4bd 11bd 3023 853e 0890 823e
00000090: 2062 b9bd 7653 763e fb98 143e fe39 5a3d
000000a0: 6525 883d 38af f8bc a769 103e 6298 81be
000000b0: 8a92 6ebe cc61 c2bd 21a9 4dbe f8cd a83d
000000c0: 62e3 c7bd e287 8dbd 270b 423d 0768 51be
000000d0: e8f4 ac3e f058 95be 3f21 673e f260 33bd
000000e0: 13f5 b3be fa36 ae3d 8970 8abe d49a 2e3e
000000f0: 26e7 803e bb18 a23e 8f4d 633e 830d 9abe
00000100: ad3c 843e 855a 8a3e c775 21bd eb5a 89be
00000110: 5132 743e 231f 503d e6e7 1bbe 272b 09be
00000120: aec6 a3be a789 c83d a0e7 09bd 4d52 4cbe

weight f4 [38, 76, 2, 2]
-0.053119656 -0.0024411443 -0.0024503404 0.02137929 0.01740002 0.019616175 0.00054259296 -0.0003579283
-0.012414618 -0.020019364 0.017751236 0.030845443 0.058180343 -0.0017385285 0.062413827 -0.027307227
0.03999348 -0.0004550456 -0.000365519 -0.004219995 0.061225597 0.0327173 -0.02905652 -0.036925018
0.03742189 0.048818644 0.048851173 0.06823194 -0.018312061 -0.015246746 -0.0008151964 0.027110545
-0.015757889 -0.05789978 0.044067066 -0.04801825 0.02896406 0.008921024 -0.0035115215 -0.0019977135
0.009872201 0.042816427 0.07467358 0.0056420043 -0.0022744713 0.021110235 -0.016459098 -0.044524264
0.054871112 0.07822855 -0.029754288 0.04870379 -0.046799544 -0.059016827 0.013683727 -0.081484385
-0.033077385 -0.03507378 -0.038689524 0.016310535 0.037457235 -0.02433898 -0.047023933 -0.029248223
0.00844163 0.04198879 0.075203724 0.072353646 -0.010814176 0.023059083 -0.08365132 -0.00017499973
-0.035141647 0.031633783 -0.14986534 0.019001216 -0.008134399 0.046740502 -0.03596209 -0.0023345973
-0.0061083413 0.0020671065 0.07125305 -0.010779029 -0.02342823 0.064807445 0.022648934 -0.02884178
0.0028686996 -0.06983944 -0.022500921 0.011343944 -0.13362348 -0.13211024 -0.09145207 -0.08914638
-0.0571965 -0.061216354 -0.02051478 -0.0068678255 -0.025442952 -0.014590829 0.022970887 0.009923545
-0.04865137 -0.07153416 0.04580275 -0.05124312 0.02672825 -0.029365841 0.043234795 -0.026239008
-0.048507772 -0.03664193 0.0069767227 0.015593051 0.0017295501 -0.016605906 -0.026497979 -0.015166412
0.0469102 0.06664542 0.056125887 -0.028263463 0.0016594214 -0.01099381 0.012531097 -0.011471027
0.014634865 -0.036404055 0.075261176 -0.024244186 0.013466038 0.049367364 -0.034231786 -0.05635861
0.038120106 0.05932995 0.06867169 0.07415147 0.012329371 0.06369615 0.032826602 -0.03430624
-0.0894358 -0.055417787 -0.08313012 -0.036830112 0.07731309 0.050307043 0.053630553 0.043840922
-0.03238257 -0.0011996573 -0.0014527868 -0.018635647 0.05841886 0.06270637 -0.019357575 -0.021513483
-0.035291653 -0.03214558 0.04334137 -0.014754963 0.03141113 0.026210781 -0.053819984 -0.07528818
0.043722164 0.054931555 0.050246187 -0.019246647 -0.030614141 0.013786992 -0.0046809893 -0.014254376
-0.100056164 -0.1458637 -0.09358008 -0.07361409 0.07813972 -0.045418482 0.08462266 -0.003656896
0.030538714 0.021170909 -0.03926846 0.027384823 -0.03662406 0.065882996 0.051652808 -0.013934288
-0.06693679 -0.05778998 -0.05426289 -0.006013586 0.047501158 -0.030159676 -0.07140868 0.011592868
0.041730605 0.0064503374 -0.035979897 -0.051007625 0.05818734 0.022666534 -0.05163661 0.005169905
0.061931018 -0.0038219779 0.02291644 0.06413359 -0.022362651 -0.0077097025 0.036604904 -0.017335836
0.060831387 -2.422682e-05 -0.0081206225 -0.011188111 -0.08232624 -0.044327006 0.025738437 -0.040835653
-0.09707907 -0.12062673 -0.029047612 -0.082473084 0.047376823 -0.0024570914 -0.030731803 0.02196776
0.026498595 -0.059521765 -0.10599192 -0.04623966 0.058487225 0.06680989 -0.030097524 -0.019916788
0.05726895 0.050350673 0.033373877 0.0076421658 -0.01501732 0.0016117678 0.0078029716 -0.007914308
0.06810198 0.020312838 0.003977668 0.08102383 -0.015158427 -0.031384096 -0.036352232 0.042319674
00000000: ff93 59bd 9bfb 1fbb e495 20bb 9f23 af3c
00000010: 7d8a 8e3c 1ab2 a03c cc3c 0e3a 53a8 bbb9
00000020: af66 4bbc a6ff a3bc 0a6b 913c 95af fc3c
00000030: 834e 6e3d 56df e3ba a4a5 7f3d 68b3 dfbc
00000040: 34d0 233d 3093 eeb9 21a3 bfb9 e247 8abb
00000050: b1c7 7a3d 9302 063d f007 eebc b03e 17bd
00000060: b247 193d 0ff6 473d 2b18 483d 30bd 8b3d
00000070: 2d03 96bc 7dcd 79bc e8b2 55ba ef16 de3c
00000080: b016 81bc 5228 6dbd ab7f 343d c9ae 44bd
00000090: 0946 ed3c 7d29 123c 8e21 66bb 12ec 02bb
000000a0: 03bf 213c 4760 2f3d 76ee 983d 90e0 b83b
000000b0: 4c0f 15bb 5fef ac3c 3bd5 86bc 135f 36bd
000000c0: 88c0 603d 4a36 a03d 44bf f3bc a07d 473d
000000d0: e1b0 3fbd a1bb 71bd b631 603c 49e1 a6bd
000000e0: 277c 07bd 86a9 0fbd e878 1ebd ac9d 853c
000000f0: c26c 193d 8a62 c7bc 2b9c 40bd f899 efbc
00000100: c34e 0a3c 70fc 2b3d 6904 9a3d 262e 943d
00000110: f12d 31bc 67e6 bc3c 6251 abbd 2280 37b9
00000120: b0f0 0fbd 6d92 013d 4d76 19be 70a8 9b3c
00000130: 2446 05bc f872 3f3d fc4c 13bd 0b00 19bb
00000140: 7b28 c8bb 4b78 073b 1eed 913d 869a 30bc
00000150: 8fec bfbc c4b9 843d 428a b93c 9945 ecbc
00000160: cb00 3c3b fb07 8fbd da53 b8bc f3db 393c
00000170: 98d4 08be e847 07be 394b bbbd 6192 b6bd
00000180: e146 6abd 00be 7abd 9d0e a8bc 7f0b e1bb
00000190: bd6d d0bc 5f0e 6fbc 712d bc3c 5d96 223c
000001a0: a946 47bd 8080 92bd aa9b 3b3d 4ee4 51bd
000001b0: 34f5 da3c a290 f0bc f816 313d 30f3 d6bc
000001c0: 16b0 46bd d915 16bd fe9c e43b ff79 7f3c
000001d0: 12b2 e23a 1c09 88bc 4a12 d9bc 8b7c 78bc
000001e0: e924 403d 657d 883d 42e4 653d c788 e7bc
000001f0: f180 d93a 621f 34bc 3b4f 4d3c f9f0 3bbc
00000200: 13c7 6f3c 6b1c 15bd 8822 9a3d be9b c6bc
00000210: a8a0 5c3c 6f35 4a3d a136 0cbd 49d8 66bd
00000220: d423 1c3d f603 733d bea3 8c3d badc 973d
00000230: 2101 4a3c 2173 823d 3075 063d b384 0cbd
00000240: 1e2a b7bd c3fd 62bd 2040 aabd 2cdb 16bd
00000250: 5356 9e3d c20e 4e3d b6ab 5b3d 8a92 333d
00000260: 96a3 04bd d23d 9dba 706b beba c9a9 98bc
00000270: 9d48 6f3d 336c 803d c793 9ebc 0b3d b0bc
00000280: fb8d 10bd 15ab 03bd b886 313d cdbe 71bc
00000290: f5a8 003d feb7 d63c 5872 5cbd b030 9abd
000002a0: 0316 333d e9ff 603d f2ce 4d3d 25ab 9dbc
000002b0: 82ca fabc d6e2 613c fc62 99bb 308b 69bc
000002c0: 3fea ccbd 4b5d 15be eaa6 bfbd fcc2 96bd
000002d0: b807 a03d bb08 3abd a54e ad3d 89a8 6fbb
000002e0: 532c fa3c 9d6e ad3c f7d7 20bd 2356 e03c
000002f0: 1c03 16bd aaed 863d e591 533d a44c 64bc
00000300: 2816 89bd 30b5 6cbd c442 5ebd 9e0d c5bb
00000310: 9390 423d 6d11 f7bc b73e 92bd 03f0 3d3c
00000320: b6ed 2a3d 5a5d d33b a85f 13bd 5fed 50bd
00000330: d955 6e3d 2baf b93c e980 53bd 4e68 a93b
00000340: 61ab 7d3d 267a 7abb 42bb bb3c 7958 833d
00000350: e131 b7bc aca1 fcbb 06ef 153d e203 8ebc
00000360: 552a 793d b33a cbb7 5c0c 05bc 574e 37bc
00000370: a99a a8bd 3c90 35bd 6ad9 d23c 4943 27bd
00000380: 64d1 c6bd 260b f7bd 42f5 edbc a6e7 a8bd
00000390: 330e 423d 2707 21bb 43c1 fbbc bbf5 b33c
000003a0: 9513 d93c 18cd 73bd 4b12 d9bd cc65 3dbd
000003b0: 4d90 6f3d a0d3 883d 158f f6bc 8828 a3bc
000003c0: d992 6a3d 823c 4e3d 0cb3 083d 226b fa3b
000003d0: 350b 76bc f441 d33a 12b0 ff3b 04ab 01bc
000003e0: 0d79 8b3d 1c67 a63c 1957 823b d2ef a53d
000003f0: 0d5b 78bc 9c8c 00bd 14e6 14bd 6557 2d3d

bias f4 [38]
0.032890312 -0.0021149153 0.018842734 -0.017834073 -0.012581756 -0.026815774 -0.008108896 -0.0065027857
0.016890446 -0.013250681 -0.03723762 -0.06169471 0.041104037 -0.051118005 -0.050047588 -0.04867866
-0.02732063 0.018161269 -0.011535988 -0.04398785 -0.05035255 -0.029752282 0.0652448 -0.02354935
0.032396454 0.07940525 -0.02287758 -0.05767418 -0.054733675 0.014756045 -0.05802539 -0.027192766
-0.0022221247 0.03824556 -0.060189158 -0.050860293 0.048850056 0.05335889
00000000: feb7 063d 649a 0abb 145c 9a3c c318 92bc
00000010: b623 4ebc c1ac dbbc 2ddb 04bc 5215 d5bb
00000020: d55d 8a3c 6219 59bc 7a86 18bd 98b3 7cbd
00000030: b55c 283d 1d61 51bd b3fe 4cbd 4663 47bd
00000040: 84cf dfbc f1c6 943c 7101 3dbc 9b2c 34bd
00000050: 7a3e 4ebd 0fbb f3bc 119f 853d 91ea c0bc
00000060: 25b2 043d 389f a23d c369 bbbc c33b 6cbd
00000070: 6b30 60bd 57c3 713c 08ac 6dbd 5dc3 debc
00000080: 11a1 11bb 60a7 1c3d e888 76bd e252 50bd
00000090: ff16 483d da8e 5a3d
