models/traced_model_11.pt (torch, 306015 bytes, 18 tensors)

weight f4 [76, 1, 2, 2]
00000000: 1859 363e 4409 063e e068 83bc 6e9e 9c3e
00000010: 0020 e1bc 0465 653e ee9d 9a3e 8cee 30be
00000020: 8092 bcbb b0c5 503d ce33 f73e 544a 6d3e
00000030: 5c7d 083e 2607 b1be ca2c b7be 0067 513b
00000040: e0d2 ed3e 288d 06be 7ed1 993e 3e15 e5be
00000050: 9cd6 9dbe 2c57 97be c8e2 40be 80a3 283d
00000060: 80e7 39be 485d 55be faf1 d0be 945d d8be
00000070: a646 c6be c285 8ebe a864 50be fc2c ae3e
00000080: b499 d1be 48e4 c4be 44c3 d9be 12e0 e3be
00000090: 8c8a b13e 2077 30be 206c e13c 987a e13e
000000a0: 0068 963e a0b4 0c3e 3065 133d 7874 c9be
000000b0: 64a4 8cbe 2676 bbbe fafd d9be 403a 51bc
000000c0: 44ec a73e feb4 87be fe57 cf3e 40d0 a8bd
000000d0: 82ea cc3e 023d e6be 1493 a7be 60d3 cfbe
000000e0: 742d 173e d62f 84be 360e d23e 3820 0d3e
000000f0: 2862 ddbd 0280 9fbe a23b d43e 9271 a6be
00000100: 18a0 353e 2449 783e d095 df3d 2010 d2be
00000110: 18ac fcbd c41e d03e 7269 f5be d8d4 7fbe
00000120: 8aa7 a9be a0b4 7bbd 7609 d4be 5077 243e
00000130: 4c00 3c3e 72e8 b0be 8ef8 b0be 4851 03be
00000140: 8866 753e d4b9 f83e 025a 843e d07c 863d
00000150: 2698 d93e a2ac e6be ac45 2fbe 68d6 d83e
00000160: 96fd 9dbe 9010 b03d 70a8 ea3e 6046 f4bd
00000170: 0035 9f3e 3466 39be b43f 84be 8831 ba3e
00000180: 28d3 e93e 4ab6 95be 2018 6ebd 6a1d a8be
00000190: 9af8 8bbe 8c24 573e a860 75be 40dd 3d3e
000001a0: ca68 8f3e 9a5a f2be 88f4 f6bd a018 52bd
000001b0: b01c ea3e 6aa3 cebe 96f8 e9be 3af1 d93e
000001c0: ae5d 9d3e 4673 d2be 7079 0e3d b8a7 d4bd
000001d0: 3cf7 b6be c242 d5be 0230 f13e 8401 a43e
000001e0: 5625 a93e 6671 b5be 009d fc3e 1e5b 9bbe
000001f0: 3472 683e 709c d83e 76ba 8bbe 04ce af3e
00000200: 00f2 e3bd 304c bcbe a088 bd3c 0010 873d
00000210: 5c88 44be 087c b23d b0e2 f2bd acab 9e3e
00000220: 2061 9fbc ea63 bcbe 7c97 0f3e 088d 063e
00000230: 58a8 b33e cc3f 3bbe a0b6 b2be f277 d2be
00000240: 6488 853e c020 eb3c ee46 92be d21d ac3e
00000250: 8ccc 233e d08e c63e 54fb 1cbe 30d8 7abd
00000260: 90b9 d6be c2ef adbe 7810 e83e e4b3 353e
00000270: b003 dcbe 9e5c b53e 0a84 dabe 00d3 c7be
00000280: a4a5 54be be9b 86be 8eb1 f63e 0c01 263e
00000290: d4fd 9a3e 5c8c d6be e0d4 fbbc 683e c63d
000002a0: 44aa 5cbe 40fe b0bd f826 4bbe 2256 d43e
000002b0: 98ef 7b3e 50c6 c63e 64ba 6dbe fced eebe
000002c0: a062 16bd f078 c83d c096 20bd 00ce ed3d
000002d0: 1c54 423e 9807 83be 1466 503e 764d b03e
000002e0: c08a 2b3e f0cb b53e e42f 883e c817 d8bd
000002f0: 40a6 563e f41f b33e 8659 c93e f09a e5bd
00000300: 5c01 693e 48cf a2bd aca7 d43e 0ea3 9cbe
00000310: dc1f 33be 12c6 a5be 3ef7 84be be3f d5be
00000320: 2008 16be b616 98be 0607 ffbe 44b0 1a3e
00000330: c05e c7bd 46ee ac3e 7409 94be 2813 bc3d
00000340: 4026 e73c a075 953e 5c59 ffbe 3e96 f93e
00000350: c0a8 6cbc 74ad 61be d839 a33d d8c4 b9be
00000360: fed0 c73e a06a b1bc f223 d93e fea3 d4be
00000370: 0021 093c 94ef ce3e 88d6 913d 3a87 f6be
00000380: 6852 773e 82e6 c3be 5651 843e d2b9 bebe
00000390: 701b c03d 08f0 bcbd 269d 81be e612 883e
000003a0: ecef 61be e087 fcbc c077 0fbd 505e 433e
000003b0: 4035 d1be 5ad2 b13e ea1d b83e 9c09 133e
000003c0: 00fe 73bd 4015 823e d488 e8be 94c1 0d3e
000003d0: 58fe 193e 1ef0 c6be a067 d33c 30db 283e
000003e0: c083 c4be 2ac1 e93e 704c b3be 0897 60be
000003f0: 8e5f c53e 6cca f93e 00dc 3bbc 2a53 d2be
0.17807424 0.13089472 -0.01604122 0.30589622 -0.02748108 0.22401816 0.30198616 -0.17278498
-0.005754769 0.05096978 0.4828171 0.23172885 0.13329071 -0.34575766 -0.3577636 0.0031952262
0.46449947 -0.13139784 0.30042642 -0.4474277 -0.30827796 -0.29558694 -0.1883651 0.04117155
-0.18154716 -0.20836365 -0.40809613 -0.42258894 -0.38725775 -0.27836424 -0.20350897 0.34018695
-0.4093758 -0.38455415 -0.42531788 -0.4450689 0.34676015 -0.17232943 0.027517378 0.44038844
0.2937622 0.13740778 0.03598517 -0.3934667 -0.2746917 -0.36613578 -0.4257658 -0.012770236
0.32797444 -0.26505274 0.4049682 -0.082428455 0.40022665 -0.4496842 -0.327294 -0.40590954
0.14763433 -0.25817746 0.41026467 0.13781822 -0.108097374 -0.3115235 0.41451746 -0.32508522
0.17736852 0.24246651 0.10917246 -0.41027927 -0.12337512 0.40648472 -0.4793201 -0.24983537
-0.33135635 -0.061451554 -0.41413468 0.16061139 0.18359488 -0.34552342 -0.34564632 -0.12823975
0.23964894 0.48579276 0.2584992 0.06566775 0.42498893 -0.45053583 -0.17116421 0.4235108
-0.30857533 0.08596909 0.45831633 -0.119274855 0.31095123 -0.18105394 -0.25829852 0.36365914
0.45668912 -0.29240638 -0.058128476 -0.3283494 -0.27338105 0.21010035 -0.23962653 0.18541431
0.28009635 -0.47334749 -0.120583594 -0.051293015 0.45725012 -0.4035905 -0.4569747 0.42566854
0.30735534 -0.41103572 0.03478378 -0.10383552 -0.357355 -0.41652495 0.4710694 0.32032406
0.33036298 -0.3543808 0.49338531 -0.30342954 0.22699815 0.42306852 -0.27290696 0.34336865
-0.11130142 -0.36776876 0.023136437 0.06594849 -0.19192642 0.08715063 -0.118596435 0.3099035
-0.019455492 -0.36794978 0.1402263 0.13139737 0.35089374 -0.18286055 -0.34904957 -0.41107136
0.2608062 0.02870214 -0.2856974 0.336165 0.15995997 0.38780832 -0.15330249 -0.06124133
-0.41938448 -0.33971983 0.45325065 0.17744404 -0.42971563 0.35422224 -0.42678863 -0.39028168
-0.20766312 -0.26290697 0.48182338 0.16211337 0.3027178 -0.4190396 -0.030741155 0.09679872
-0.21549326 -0.08642244 -0.19839084 0.41471964 0.24603117 0.38823175 -0.23215634 -0.46665943
-0.03671515 0.09788692 -0.039206266 0.11611557 0.18977398 -0.2559173 0.2035144 0.34434098
0.16752148 0.35507154 0.26599038 -0.10551411 0.20961857 0.34985316 0.39326113 -0.112111926
0.22754425 -0.07949692 0.41534173 -0.3059315 -0.17492622 -0.32377678 -0.2596988 -0.41650194
-0.14651537 -0.29704827 -0.49810046 0.15106302 -0.09734869 0.33775538 -0.28913462 0.09183341
0.028216481 0.29191303 -0.49872863 0.48747438 -0.01444453 -0.22038823 0.07970017 -0.36282992
0.39026636 -0.021657288 0.42410237 -0.41531366 0.008369684 0.4041716 0.07120997 -0.48150045
0.24152529 -0.382618 0.25843304 -0.37251145 0.09380233 -0.0922547 -0.25315207 0.26576918
-0.22064179 -0.030826509 -0.035026312 0.19078946 -0.4086094 0.34730798 0.35960323 0.14359134
-0.059568405 0.25406837 -0.45416892 0.13843375 0.1503843 -0.3885507 0.025806248 0.16489863
-0.38381767 0.45655185 -0.35019255 -0.21932614 0.38549465 0.48787248 -0.011466026 -0.41079074

bias f4 [76]
00000000: 0c93 38be 6020 4bbe 4231 ecbe 3877 7c3e
00000010: 42d5 a73e 3247 803e ae67 e5be 30de fb3e
00000020: 302f f1be 00ed 62bb c4e2 cb3e 2c4b 49be
00000030: e48c 32be 1cc4 593e 5057 2dbe 021f 9ebe
00000040: f88e 2a3e f0b8 4a3d 1c6f c7be ae60 e1be
00000050: 34f7 11be 80dd 3e3d d252 f83e 14cd da3e
00000060: aa97 e93e f474 5cbe 36b2 db3e 68b6 3f3e
00000070: a0e4 e13d 2c7c bd3e d097 303d accf 99be
00000080: 9c0d a13e 7e14 b63e 8479 7abe feec be3e
00000090: f8eb c9bd 6ce3 cebe 30e2 85be 3823 2b3e
000000a0: 5e0c f2be 8095 263e b031 babe 6425 c83e
000000b0: a0d1 06bd da8f c3be 0460 09be 047a 923e
000000c0: 827e 9c3e 7844 dd3d ec65 953e f0ee f7bd
000000d0: 7c50 073e aca2 a13e d838 5bbe 5ed5 b73e
000000e0: 8e91 fa3e 18ce d8be 4e6e e7be 8a22 ce3e
000000f0: 8039 e3be b6fc aebe c238 eb3e 6ebe 953e
00000100: 6035 c93e 800c 773c 10ad 853e e6b9 d33e
00000110: 40a5 cdbe 0c33 e5be 2c0f ffbe ded9 fd3e
00000120: 60bc 403e 502d cfbe 3232 86be 78d2 153e
-0.18024844 -0.19836569 -0.4613133 0.24654853 0.3277989 0.25054318 -0.44805664 0.49192953
-0.47106314 -0.0034626126 0.39821446 -0.19657582 -0.17436558 0.21266216 -0.16927838 -0.30883032
0.16656101 0.049492776 -0.38951957 -0.44019073 -0.14254457 0.046597958 0.48500687 0.42734587
0.45623523 -0.21528989 0.42909402 0.18721926 0.11029935 0.37008798 0.04311353 -0.30041254
0.31455696 0.3556251 -0.24460417 0.37290186 -0.098594606 -0.40407884 -0.2614913 0.16712654
-0.4727506 0.16267967 -0.36366034 0.39091027 -0.032914758 -0.38195688 -0.13415533 0.28608716
0.30565268 0.10804075 0.29179323 -0.121061206 0.13214296 0.3156942 -0.21408403 0.35904974
0.48939174 -0.42344737 -0.45201343 0.40260726 -0.44379807 -0.34177178 0.4594174 0.2924685
0.39298534 0.015078664 0.261086 0.41352767 -0.40165138 -0.44765508 -0.49816263 0.49580282
0.1882186 -0.40464258 -0.2621017 0.14631069

weight f4 [50, 76, 2, 2]
00000000: 91bc d9bc a1fa 52bc 2497 1ebd 6211 673d
00000010: 59c3 0cbd f6a4 5e3b 8bea 42bd 1f64 13bc
00000020: b5a0 56bd ae83 1dbd 25a8 353d 964a 253d
00000030: e9ec 1bbd 3d10 a83c ed9f 4dbc 44e3 b2bc
00000040: 2a6c f43b aeab 843c f034 533d 32f1 ce3b
00000050: a0d4 b33c 0112 28ba bc38 8d3c 4e1c b2bc
00000060: 00a5 79bc fd6a 95bc 8ba4 4e3d f8fc a53c
00000070: c5b1 9b39 8bb1 57bd c67e d2ba 285c 2d3d
00000080: 0f73 65bc 68b4 663d 279f 433d db5f d63c
00000090: 7c2d c23c e247 07bd 8317 213c 5079 93bc
000000a0: 3d31 473d d7de 493d 9351 af3c eff7 833c
000000b0: 7be8 4a3c ebf8 1abd de07 debc 6e3d 4ebd
000000c0: 0778 ec3c 3f69 af3c 2b5f 683d a880 343d
000000d0: d0e3 693d 7ed6 89bb 9db7 26bd becc b0bc
000000e0: 01c8 dd3c addf 55bd 6a82 973c 73ac 333c
000000f0: 24c9 0c3d 6a64 c5bc 4904 0c3d 8f2a 413b
00000100: cbf1 623d 6718 233b bdba babc 8b90 423d
00000110: fab6 183d e508 5d3d cd65 f03b ec10 ff3c
00000120: 4e46 e9bc f5f2 85bc a19b 0dbd c4de c2bc
00000130: 76f3 763c 7bf5 d13c e164 463d b405 b63c
00000140: 469f 623d 1772 5b3d 40d4 4b3d 3a6f 38bd
00000150: ae11 9cbc 856a 0abd ebdf 013d 7d87 43bd
00000160: cbbc 353c 6868 013c b30b 713c 3ef8 b2bc
00000170: 796c 643d d46a 153d 4fed 2b3d 026c cd3c
00000180: 08ea a3bb 5069 12bd 25d2 5d3d da0f 82bc
00000190: b72f 243b 30f6 a5ba f015 703c 1ab7 5abd
000001a0: 0454 3fbd 27b9 2b3d 26a3 1a3c 5e75 533c
000001b0: a606 cfbb 18e0 60bb 1e84 c43a 2b1b b83b
000001c0: cf32 4fbd 5bfa 2a3d 8154 96bc 2d74 54bd
000001d0: 85fb 79bc 8fc2 ecbc cd01 47bd 7980 46bd
000001e0: 43a8 9fbc 5efa c3bc 7564 24bd 6a1d 853a
000001f0: 08ea c6b9 353a 77bc c013 67bd c4dd e33c
00000200: 6750 533c 8899 e43c c8b3 67bd c05d 673d
00000210: 320e 5cbd d7eb 6d3c eb3a 453d a1b5 673d
00000220: 8deb 233d a635 203d 3374 21bc 1e6a b7bc
00000230: c667 d03c c37c e9bc 2d37 9ebc a283 843c
00000240: 2ec4 20bd b002 2c3d f4bd 423d fbd6 563d
00000250: 567c 283c c036 653d d9a8 c93c 2867 2b3d
00000260: 2804 a13c 88e7 263c 6d09 d2bb d6a4 9f3c
00000270: 5509 dfbb 5c2c f5bc 8a62 10bd 4820 03bc
00000280: 0e61 483d b271 053c 48fb 223d 0a05 04bd
00000290: 9678 5bbd d91c 22bb 2d8b 953b 3c20 1b3c
000002a0: d4e6 bcbc 6589 d6bc f616 043c a820 be3c
000002b0: 95bc 613d 33bc 0e3d cecf 8e3b 9e8d cabc
000002c0: a9e6 0fbb 9ded 09bd 627e 573d a40d fabb
000002d0: 064b e9bc 179a 0bbd ecb4 213d c617 88bc
000002e0: ba90 293d 6ba7 123d 4efd 253d a8ff 253d
000002f0: fd3c 49bd c881 493d 3287 dbbc d0a3 623b
00000300: 8e2f 613c 5aba 11bc 3f7f 3cbc ce6a 0ebc
00000310: a91e 553d 1f43 e8bc fde4 07bd 491c 12bc
00000320: da2f 54bc 73cb 473d 2744 ea3c ea02 57bd
00000330: 7f27 953a 4e98 9d3c 1316 03bd 31ba 293d
00000340: 41e0 4f3d c21b 0e3d a1c4 7dbc d1b4 5abd
00000350: fd0a 183d 7498 46bd 59d0 803c 2445 c83b
00000360: 5068 0a3d 7f62 793b e23f 7b3c 4b19 513d
00000370: 3a7d 24bc 80e3 e8bc 6b3e 0abc caaa 603d
00000380: 6078 24bd 200c ce3c 2234 903c 93ae d53b
00000390: e02f a13c 5a4d e33b 5cfd 8d3c 847f 06bc
000003a0: de58 0ebd f939 b23b ade0 34bd 8bac 13bd
000003b0: 2a47 31bd 1783 cfbc 9eab 3abd 2b91 1a3a
000003c0: 6997 cdbc 50d0 983b 8b03 9b3c 6d52 64bc
000003d0: 43c3 6ebc 6d2b 6abd c679 4d3d 45e8 9fbc
000003e0: 3ec4 d2bc 7800 a3bc 9a33 023d d466 633d
000003f0: dc56 6abd 39e7 32bd 924c 06bd c79b c13c
-0.026579173 -0.012877137 -0.038718358 0.056413062 -0.034365986 0.0033972836 -0.04758696 -0.008996039
-0.052399356 -0.038455658 0.04434981 0.040354334 -0.038067732 0.020515556 -0.012550336 -0.021836884
0.007459183 0.016195145 0.051564157 0.006315374 0.021951973 -0.0006411374 0.017238967 -0.021742012
-0.015237093 -0.018239493 0.05044989 0.020262226 0.00029696352 -0.052659553 -0.001605951 0.042324215
-0.014004483 0.056324393 0.0477592 0.026168754 0.02370333 -0.033027537 0.009832266 -0.018002182
0.04863094 0.049284782 0.021401202 0.016109435 0.012384529 -0.037835043 -0.02710336 -0.050351553
0.028865827 0.02141249 0.056731384 0.04406801 0.057102025 -0.0042064777 -0.04070245 -0.021582004
0.027072908 -0.052215267 0.018494803 0.010966408 0.03437151 -0.024095733 0.034183774 0.002947483
0.055406373 0.002488637 -0.022794122 0.04750113 0.037283875 0.05396356 0.0073363543 0.031135999
-0.028475907 -0.016351203 -0.034572247 -0.023787864 0.015072694 0.02562975 0.04843605 0.022219516
0.055327676 0.0535756 0.049762964 -0.04502795 -0.0190514 -0.03379299 0.031707685 -0.047736634
0.011092375 0.007898428 0.014712262 -0.021846887 0.05576751 0.036478832 0.041974362 0.025075916
-0.005002264 -0.035744965 0.054155488 -0.0158767 0.0025052854 -0.001266187 0.014653668 -0.053397276
-0.046710983 0.041924622 0.009438312 0.0129064005 -0.006317931 -0.0034313258 0.0014992987 0.005618473
-0.050585564 0.041742664 -0.018350841 -0.051868606 -0.015257721 -0.028901367 -0.0485857 -0.048462365
-0.019489413 -0.023923095 -0.040134866 0.0010155861 -0.0003793987 -0.015089561 -0.05641532 0.027815707
0.012897587 0.02790524 -0.056567937 0.05648589 -0.053724475 0.014521561 0.04815189 0.0565697
0.04001956 0.039113663 -0.009854364 -0.022389468 0.025440108 -0.028501874 -0.01931342 0.016176049
-0.03924959 0.04199475 0.047544435 0.052451115 0.01028355 0.055960417 0.024616646 0.041846424
0.019655302 0.010187037 -0.006409815 0.01948778 -0.0068065324 -0.029928379 -0.035250224 -0.008003302
0.048920684 0.008144783 0.03979042 -0.032231368 -0.053581797 -0.0024736433 0.00456371 0.0094681345
-0.023059286 -0.026188562 0.008062115 0.023208931 0.055111486 0.03484745 0.0043582683 -0.024725731
-0.0021957553 -0.03367387 0.052610762 -0.0076310206 -0.028478157 -0.0340825 0.03947918 -0.016612899
0.041397788 0.035804193 0.040524773 0.040527016 -0.04913043 0.049196035 -0.026797865 0.0034582503
0.013744248 -0.008894527 -0.011504947 -0.008692456 0.052031193 -0.028352318 -0.033177365 -0.0089178765
-0.012950862 0.04877801 0.02859695 -0.052493013 0.0011379569 0.019237664 -0.032003473 0.04143733
0.050750975 0.03469444 -0.0154887745 -0.053395096 0.037119854 -0.048485234 0.015724348 0.006111758
0.033790886 0.0038053093 0.015335055 0.051049512 -0.010039622 -0.028428793 -0.008437733 0.054850377
-0.04015386 0.025152266 0.017602984 0.006521055 0.019676149 0.0069367113 0.017332725 -0.008209113
-0.03475272 0.00543904 -0.04415958 -0.03605322 -0.043280758 -0.025331063 -0.045573823 0.00058962655
-0.025096612 0.0046635047 0.018922588 -0.013935667 -0.014572921 -0.05717032 0.05016496 -0.019519934
-0.025728341 -0.019897684 0.031787492 0.055517986 -0.05721174 -0.043677542 -0.032787867 0.02363385

bias f4 [50]
00000000: 8cce b13c 0a82 41bd 9daf 4f3d d1b4 51bd
00000010: 15d8 1dbd 8b50 54bc a3a8 d6bc 4f26 40bd
00000020: 6bd9 2e3c c50c 91bb 9274 40bd ec2e 0cbd
00000030: 5ebd da3c acb7 cabb dd3f c63c 12f7 4dbd
00000040: 5ebc 2d3d cd6b 9bbb 0043 393b 1c33 50bd
00000050: 112c 7dbc 3afb 563c 3ffc 19bc 345b 90b9
00000060: 59b1 3bbc 90ea 3f3d be0c ce3c 55fb 473d
00000070: afcb 793c edcc c6bc 9954 453d 0122 26ba
00000080: 9cfe 333d ebd9 eb3c 40c3 55bc 9528 d4bc
00000090: f89e 5fbd 2246 85bb 9906 003d 0129 223c
000000a0: 2fb5 6cbc 4bef b43c 10cb 25bd cf92 60bd
000000b0: 3d30 1a3d 1984 f4bc 4502 0d3d 4030 653d
000000c0: 31cf ec3c 2f21 42bc
0.021704935 -0.047243156 0.050704587 -0.05119783 -0.03853615 -0.012958656 -0.02620346 -0.046911534
0.010671954 -0.004426571 -0.04698617 -0.034224436 0.026701625 -0.006186446 0.024200374 -0.050284453
0.04241597 -0.0047430755 0.0028268695 -0.05082999 -0.015452401 0.0131214205 -0.009398519 -0.00027533772
-0.011455857 0.046854556 0.02515256 0.048823673 0.015246316 -0.024267638 0.04817638 -0.00063374644
0.043943986 0.028790435 -0.0130470395 -0.025898257 -0.054594964 -0.0040671984 0.031256292 0.009897471
-0.014447494 0.02208676 -0.04047686 -0.054827508 0.03764366 -0.029848145 0.034425993 0.055954218
0.02890739 -0.011848732

weight f4 [50, 75, 2, 2]
00000000: 9280 71bc e06d 8f3c 7d53 c13c 7720 9ebc
00000010: 84e0 c3bc 5972 e43c ce13 9a3c ce39 ffba
00000020: 427a d03b 5a5a 44bd 6bbb 293d e44b 91bc
00000030: 8643 513d 0752 3d3d 6980 163d 459c 1cbc
00000040: a03d 36bc e1d9 59bd 45bd 043d f108 68bc
00000050: cbf3 60bd dc44 bfbc c1b7 05bd c071 c33c
00000060: 7465 c3bc 3411 82bc e2a0 0abd de7b 49bc
00000070: a793 0d3c 21e4 bcbc 675b a23c babd 1d3a
00000080: eca7 bdbc 7e5c 6abd 1a3c 8cba a030 b93c
00000090: 77a5 0f3d 2de8 4cbd 74ee b1bb 4899 1d3d
000000a0: 21bc d13c ba1e a53c 320f d83b 4dd0 403d
000000b0: 83d6 aab9 96f9 b43b 2fdb 29bd 8401 91bc
000000c0: 3f2f 523d 8c8b d6bc 4c6b e6bb 4568 523c
000000d0: 2a6e 433d eaca 64bd f3d4 01bd 596c cebc
000000e0: 89a3 ef3c 74d0 d6bc e434 edbc 614a 42bc
000000f0: b17a f8bc 08e2 093d 423b d4bc 772b 573d
00000100: 3063 163d c80d e2bc 6a8a f63c 6e3d ae3c
00000110: b3cb 6abd 84ba 083d 9377 54bd ad0c 9a3c
00000120: a412 4a3d 6b62 01bd 78c5 2ebd 3841 183d
00000130: 5658 90bc f7e8 b2ba c9f1 593d 9dfa 273d
00000140: a515 5ebd 7856 103d 02f2 1bbd 3bdc 1f3d
00000150: 1101 aa3c 3c93 2bbd 0db3 11bc 0daa ed3c
00000160: da94 4b3d 1343 f9bc d73a 59bd af26 1dbd
00000170: 7d85 28bc a84f cebb 330f febc 3386 543c
00000180: e885 5a3d 66e8 38bd 455e b73c bd86 2cbd
00000190: c7c2 fcbc c9d4 1a3d b26a 563d b79d 053d
000001a0: 6f21 593a 369b 3ebd 79fc 23bd ecf5 c8bc
000001b0: 5bc1 31bd e697 9cbc f520 cb3c adf3 dfbc
000001c0: 5751 8fbc 60d1 54bd 1b4b 0ebd eba1 bdbb
000001d0: 12a5 133d 1002 dcbc 491d efbc 28b3 4e3d
000001e0: 957c 2bbd 0d9c b63c 4257 d0bc ee5c 03bd
000001f0: b53c 823c fae4 02bd e1f9 a93c 4587 cd3c
00000200: 38a5 ab3c 19da a8bc ad72 aebb b6eb 1b3d
00000210: 3c2c 88bc 2a6b 07bd 8b02 19bd 3259 243d
00000220: 7058 30bd e5e3 2e3b de2d 7bbc 92b0 06bc
00000230: 95c9 34bd c708 453d 5caf 003d 2166 1f3d
00000240: b3ef 913c dbf5 143d 8542 01bd ef2f 75bc
00000250: 3a5e 4ebd 0708 463d 999c d43c 15bb 403c
00000260: bc94 ec3a 1451 9ebc ca57 c63c f967 f73c
00000270: d2a3 0c3d ae3f d73c 92ba 34bd 600f cb3c
00000280: fcdb a53c 0a95 003d 96e7 30bb 27f3 d13a
00000290: e99d 57bd 10d0 7e3c cc5c b83c ee9d 383d
000002a0: 8baf 3e3b bcb3 8a3c e6b2 663d 8827 123c
000002b0: 1b0e 5d3d 1fa5 28bd ebe4 19bd 611c 533d
000002c0: 080d 283d 2c17 2a3d b3e4 ffbb 33ce 343c
000002d0: 06f8 22bc ae9f cdbb 5f08 423d f942 8bbb
000002e0: 02ae 2b3d 8159 1b3b 616d 023d 7c64 ffbc
000002f0: be3f f93c 925b 4ebd 75f5 463d b5dd fd3c
00000300: 7e39 643d a888 b5bc dbad 1fbd f083 0abd
00000310: 5aa9 5e3d 107b 1a3d 1199 433c ea93 aabc
00000320: 100e 00bd 5ef8 c0bc e013 313d 9ccb 3ebd
00000330: 9f75 42bc 46bd 8f3c 7c80 bfbb 8785 68bd
00000340: 562c 49bc a6f6 5abd 7619 183d 6977 9a39
00000350: 7854 26bd 1049 363d cf32 c73b 67b8 1cbd
00000360: 2381 1bbd 129d 01bd 43f2 5fbd 5d2f 233d
00000370: 03d9 1a3c 0267 d83c ac39 35bc fcae 3cbd
00000380: 2780 0bbd b838 f63c fc46 0f3d ac5f debc
00000390: 797c 30bd e3de 3d3b 89a6 c3bc 1263 0cbc
000003a0: c285 563c b749 18bd aaea d7bc feab 203d
000003b0: 46de 4abd 8a87 6d3c 25fd 9ebc 362e acbb
000003c0: cf3c 573b f573 50bd e3a6 863c b9c1 42bd
000003d0: cc7f a9bb 96e9 f33b 3351 97bb 991e 1ebd
000003e0: 0ae4 d23c 7da0 6abc 6470 603d 2fe3 ddbb
000003f0: 76a8 0fbd 88c0 16bd f88e 50bd ef61 1dbd
-0.014740126 0.017508447 0.02359938 -0.01930259 -0.023910768 0.027886556 0.018808272 -0.0019472183
0.0063622305 -0.04793773 0.0414385 -0.017736383 0.051089786 0.046220805 0.036743555 -0.009558742
-0.011123091 -0.0531863 0.032407064 -0.014162288 -0.05492 -0.023348264 -0.032645945 0.023857951
-0.023852088 -0.015877344 -0.033844836 -0.012297599 0.00864116 -0.023058 0.019818975 0.0006017346
-0.02315136 -0.057217114 -0.0010699064 0.022606194 0.03506991 -0.050026108 -0.005430037 0.03847626
0.025602402 0.020156253 0.0065936083 0.04707365 -0.0003258475 0.005522917 -0.041468795 -0.017700918
0.05131459 -0.026189588 -0.0070318338 0.012842243 0.047712483 -0.055857576 -0.031697225 -0.025198149
0.029252784 -0.026222445 -0.028955884 -0.011858554 -0.030331941 0.033662826 -0.025907163 0.052531686
0.036715686 -0.027594462 0.030095298 0.021269526 -0.05732317 0.033381 -0.051871847 0.018804872
0.049334183 -0.031588 -0.04266879 0.037171572 -0.017620247 -0.0013649751 0.0532091 0.041010488
-0.05421986 0.035238713 -0.038072594 0.039028388 0.020752462 -0.04188846 -0.008892787 0.02901175
0.049702503 -0.030427491 -0.05303463 -0.03836697 -0.010285732 -0.006296117 -0.031013107 0.012971449
0.05335036 -0.045143507 0.022383818 -0.042120684 -0.030854596 0.037800584 0.052347846 0.03262111
0.0008282875 -0.04653474 -0.0400357 -0.024531327 -0.04339729 -0.0191154 0.024795989 -0.027337873
-0.01749484 -0.051957488 -0.034739595 -0.0057871244 0.036046095 -0.026856452 -0.029188769 0.050463825
-0.041866858 0.022291208 -0.025432233 -0.032071047 0.015898088 -0.03195665 0.020749034 0.025088916
0.020952806 -0.02061181 -0.005323729 0.03806659 -0.016622655 -0.033061184 -0.03735594 0.040124126
-0.04305309 0.0026686129 -0.01533076 -0.008220809 -0.044137556 0.048104074 0.031417236 0.038915757
0.017814493 0.03636728 -0.03155758 -0.014965042 -0.05038283 0.0483475 0.025953578 0.011763354
0.0018049697 -0.01932577 0.024211783 0.030200945 0.03433592 0.026275482 -0.04412324 0.024787605
0.020246498 0.031392135 -0.0026993505 0.00160179 -0.05264083 0.015552536 0.022505186 0.04507249
0.002909633 0.016931407 0.056322955 0.008920558 0.05396853 -0.041173097 -0.03757183 0.051540736
0.041028053 0.041526005 -0.0078092455 0.01103549 -0.009946829 -0.006275139 0.047371265 -0.004249927
0.041913994 0.0023704472 0.031842593 -0.031175844 0.030425902 -0.050380297 0.04857393 0.030989507
0.05571889 -0.02215989 -0.03898416 -0.03381723 0.054360725 0.037715018 0.011938349 -0.020822484
-0.03126341 -0.02355593 0.043231845 -0.046580896 -0.011868863 0.017546307 -0.005844174 -0.056767967
-0.012278637 -0.05345788 0.037133656 0.00029462136 -0.0406079 0.04450327 0.006079055 -0.038261797
-0.03796495 -0.031643935 -0.0546744 0.03984009 0.009451154 0.026416305 -0.011061113 -0.046065316
-0.034057762 0.030056342 0.034979805 -0.02714523 -0.043087456 0.0028971962 -0.023883121 -0.008568542
0.013093414 -0.037179675 -0.026357014 0.039226525 -0.049528383 0.014497647 -0.019407818 -0.005254532
0.0032842641 -0.050891835 0.016437 -0.04754803 -0.0051727053 0.007443617 -0.004617834 -0.0386034
0.025743503 -0.01432049 0.054794684 -0.006771467 -0.035072766 -0.036804706 -0.050917596 -0.038423475

bias f4 [75]
00000000: c0c8 2dbd 9bab 4bbd 2b1a e5bc cfe1 20bd
00000010: d12f 3cbd cf21 61bd 5493 37bd a64f 51ba
00000020: 1ba6 44bd f918 1abd 0d73 4cbd 3c94 b3bc
00000030: 71f6 02bc d077 4fbd 4c78 0f3d 6df0 e0bc
00000040: e30f 063d d3d5 653d e59c ae3c ac9b 943c
00000050: 4a7a 4a3d 2492 b4bc 1e69 49bd 4767 05bc
00000060: 7d9c be3c 12e2 923c ecb8 a13c 9440 95b9
00000070: d9da 143b ee32 043d 8152 eabc 36e0 61bd
00000080: 1b19 54bd df6c 503d 5f6d c0bc bdeb 31bc
00000090: 4b64 40bd b9cd b4bc bb7d 343d 5fdf 673c
000000a0: 57ba 4c3d f7fd 2ebc 7f04 043c 7746 04bd
000000b0: 092c 61bb 5266 a5bc 0399 6a3b f10c 9c39
000000c0: 9fbb 8dbc 55d4 a539 a00a 603d 6780 6fbc
000000d0: fe27 373d 241c 1fbd 9ff5 c23c d9ee f03c
000000e0: 53ae a73c a3d6 d93c dc5b 9a3c aaed be3b
000000f0: 64d2 1eb9 da13 da3c 8174 93bc d3f2 05bd
00000100: 2c25 1c3d da38 353d 8885 bcbc 97b6 e5bc
00000110: 821f 61bc 6a9f fbbc 9338 c93c 4bbe c8bb
00000120: 1557 553c 30cc c53c ea6a f83c
-0.04242778 -0.049724203 -0.02796658 -0.039277848 -0.04594404 -0.054963883 -0.044818237 -0.0007984586
-0.048009973 -0.037621472 -0.04991441 -0.02192127 -0.0079933265 -0.05065137 0.035026833 -0.027458394
0.032729995 0.05611212 0.021315048 0.018140636 0.04943303 -0.022042342 -0.049172513 -0.008142299
0.023267979 0.017930064 0.019741498 -0.0002846761 0.0022713451 0.032275133 -0.028603794 -0.055145465
-0.051781755 0.050885078 -0.023489652 -0.010859427 -0.046970647 -0.022070752 0.04406522 0.014152377
0.049982395 -0.010680667 0.008057713 -0.032293763 -0.0034358522 -0.020190392 0.0035796768 0.0002976428
-0.017301379 0.00031629452 0.054697633 -0.014618016 0.044715874 -0.038845196 0.023798762 0.029410766
0.020468866 0.026591605 0.01884263 0.0058266716 -0.00015146431 0.026620794 -0.01799989 -0.03270228
0.038121387 0.04424367 -0.023012891 -0.028041167 -0.013740422 -0.030715663 0.02456311 -0.0061262003
0.01302125 0.024145216 0.030324418

weight f4 [75, 1, 2, 2]
00000000: 2021 b43c 5896 853e ce65 be3e 90db 283e
00000010: 4469 393e 3824 fbbe c6a6 9d3e 5c29 24be
00000020: 78bd 7b3e 003d 75bd ce4f e8be c46d 313e
00000030: a2df 83be 1622 d13e 2827 ff3d 604e aa3e
00000040: d88d cabd 3826 703e b8fc e83e 40a3 53be
00000050: 5884 663e 3c02 a13e 1c0f 92be 9cdd 673e
00000060: 6011 d5be 80ed f93c 52cb c63e 685f a73e
00000070: aa18 a4be e04a 8bbc e0bd 2ebd 606c 813e
00000080: 5cd5 c33e c00c 2dbe 36a9 a1be 8080 32bc
00000090: 7090 a1bd d8b2 f83d be93 bfbe f8d2 97bd
000000a0: 6a35 fc3e 345c 373e eed9 dfbe bccf 9a3e
000000b0: cced 243e 12cb f3be 4066 7c3d 20ee ecbc
000000c0: 0c4d 3ebe dc7e 84be a017 63be 7000 f1be
000000d0: 7098 103d 9a9e bf3e 04ea 65be a845 71be
000000e0: 0050 273c f08c 34be c0d0 2a3c 2812 533e
000000f0: 06d2 93be dcb3 01be ba96 9ebe 28e5 113e
00000100: 8c0e 7cbe 6ccb 8abe 00eb d13b 9a39 9abe
00000110: 6267 d8be 6cd7 4fbe 384a 3f3e 82ce 99be
00000120: 3858 bf3d 3827 c53e 00b6 c33e b8d3 58be
00000130: 9e2d e73e 4445 d7be b8e4 c53d 00ec 5e3d
00000140: ea33 913e eab5 92be 5209 e13e 1e6f e63e
00000150: d41f 21be 448b bb3e a6be 8e3e b0dd 1f3d
00000160: fee3 9fbe d882 b43d 6e70 b73e 9038 653d
00000170: fc1d c6be 20aa c3bd 107d 2e3e 9ea3 da3e
00000180: 6668 edbe 4091 53bd d4a2 3c3e a813 f9be
00000190: 3050 b73d aa09 9cbe b660 d9be 70ff 2ebe
000001a0: 68ab 903d d43c a33e d07e 943e 5041 38be
000001b0: d44a 553e 009a bbbe 2624 85be 7035 c93d
000001c0: d022 963e 805e 3ebc 80db 8c3b 129f e43e
000001d0: 00d4 a4bc eed4 9ebe c403 723e a834 44be
000001e0: e4b4 fd3e b653 c33e 5252 8e3e 409a c0bd
000001f0: 42b1 d93e 28f1 693e c040 24be 924d 863e
00000200: 04e9 c8be ea84 b13e 248d 193e 8c55 153e
00000210: 209c bebc c81f 663e 6c94 91be f001 593e
00000220: 201b f43e 2c17 7cbe 6cbe 123e 185d 7d3e
00000230: 2618 f93e 708a 9bbd f499 cabe 3ca5 7abe
00000240: cc7f cbbe 722b c6be 74b6 ea3e e495 00be
00000250: 0064 49bc f03f b4bd c0c5 4ebc 0c55 873e
00000260: 845b aa3e d872 04be c471 7ebe f2f6 a1be
00000270: 2857 993e 628d ba3e 6450 85be ba92 82be
00000280: d0b9 29be c868 533e 8243 e3be fa25 c73e
00000290: 8601 bdbe 4089 2d3d 5ad1 953e 0003 9b3c
000002a0: aa6e 83be 4c98 263e 4043 663e 3464 2c3e
000002b0: fc3f 3bbe 9cc8 06be 0074 f8ba 4442 babe
000002c0: 6804 9bbd 900b 5e3d 8409 e93e 406a b2bc
000002d0: e2b6 d3be a051 fd3d 40d7 e4bd 4ce8 76be
000002e0: 5a83 e63e 6a64 ebbe 186c e6be 56ad 8bbe
000002f0: 20c0 bc3e d44e 643e c2a0 a33e 3455 fdbe
00000300: 3c4f d73e 60d4 f83d a6eb a03e 6893 92be
00000310: 26d3 d33e e888 28be a066 7e3e 628a 80be
00000320: 4a38 d43e ac27 4abe a040 2fbe 2c35 963e
00000330: 98a2 f4be 1234 d53e 4021 6e3c 349f e0be
00000340: 6c27 e83e 6a87 f8be de3a bf3e 404c bf3c
00000350: a824 913d a85a babd d43e 233e c067 f33c
00000360: 7cf4 bebe e841 7dbe 0013 b03d 282e 5dbe
00000370: 5c44 7a3e 9ae3 b53e 2058 adbc e086 e53c
00000380: 6c63 4b3e 90a9 6b3e eac9 b53e 2823 81bd
00000390: dc36 ac3e ac78 773e eae6 a03e 60c5 f1bc
000003a0: c0b2 d33e 10a0 1d3d 608e 16be d481 afbe
000003b0: d0a4 d4be 80aa ca3b f0b2 47be 6009 2dbe
000003c0: 00fa 24be 004e b0be 5632 d43e a2e8 aebe
000003d0: a082 9c3e e075 babc c072 cf3c b49e f73e
000003e0: 5abb e13e 609a b43c 64df f23e a40f f2be
000003f0: 5854 cfbe 5c8f 5bbe 8892 6ebe ba0a afbe
0.021988451 0.26091266 0.37187046 0.16490006 0.18106562 -0.4905107 0.307913 -0.16031402
0.24583995 -0.059872627 -0.45373386 0.17327029 -0.25756556 0.40846318 0.1245864 0.3326292
-0.09890336 0.2345208 0.4550531 -0.20667744 0.22511423 0.31447017 -0.28527153 0.22643131
-0.4161482 0.030508757 0.38826996 0.32689977 -0.32050067 -0.017003477 -0.042661548 0.25277996
0.38248718 -0.16899395 -0.3157441 -0.010894895 -0.078888774 0.12143487 -0.37417406 -0.07413286
0.49259502 0.17906266 -0.43720955 0.30236614 0.16106337 -0.47615868 0.06162095 -0.02892214
-0.18584079 -0.25878036 -0.22176981 -0.47070646 0.035301626 0.3742569 -0.22452551 -0.23561728
0.010211945 -0.17631888 0.010425746 0.20612395 -0.28871173 -0.12666267 -0.3097437 0.14247572
-0.24614924 -0.27108324 0.006406188 -0.30122072 -0.42266375 -0.2029702 0.18680656 -0.30040365
0.09342998 0.38506484 0.38224792 -0.21174514 0.4515199 -0.42045033 0.09662765 0.054424286
0.2835992 -0.28654414 0.43952423 0.4500665 -0.15734798 0.3662969 0.27879828 0.039029777
-0.31228632 0.08814019 0.35827965 0.055962145 -0.3869475 -0.09553933 0.17039895 0.42702955
-0.46368712 -0.051652193 0.18421489 -0.4864781 0.089508414 -0.30476123 -0.42456597 -0.17089629
0.07063943 0.31882346 0.29003 -0.17993665 0.20829326 -0.3664093 -0.26004142 0.098246455
0.29323435 -0.01161921 0.0042986274 0.4465261 -0.02012062 -0.31021827 0.23634249 -0.19160712
0.4955207 0.38149804 0.2779718 -0.09404421 0.4251805 0.228459 -0.16040325 0.26231056
-0.39240277 0.34671718 0.14995247 0.14583415 -0.023267806 0.22473061 -0.2843355 0.21192145
0.47676945 -0.24618214 0.14330453 0.24742544 0.48651236 -0.07594764 -0.39570582 -0.24477094
-0.3974594 -0.3870502 0.45842326 -0.12557179 -0.012291908 -0.088012576 -0.012620389 0.26432073
0.33272946 -0.12934434 -0.24848086 -0.31633717 0.29949307 0.36435992 -0.26037896 -0.25502568
-0.16574788 0.2064544 -0.44387442 0.3889616 -0.36915225 0.04236722 0.29261285 0.018922329
-0.25670367 0.16269034 0.22486591 0.168351 -0.18286127 -0.13162464 -0.0018955469 -0.36378682
-0.075692 0.054210246 0.45515072 -0.02177918 -0.41350466 0.12369084 -0.11173868 -0.24112052
0.45022088 -0.45975047 -0.45004344 -0.27280682 0.3686533 0.22295696 0.31958586 -0.49479067
0.4205264 0.12149882 0.31429785 -0.28628087 0.4137203 -0.16458476 0.24843836 -0.25105578
0.41449195 -0.19741696 -0.17114496 0.29337442 -0.477803 0.4164129 0.014534295 -0.43871462
0.45342577 -0.48540813 0.373496 0.023351789 0.0708707 -0.090993226 0.15941936 0.029712558
-0.37295902 -0.24732172 0.08597374 -0.21599638 0.2444014 0.3552521 -0.021160185 0.028018415
0.19862145 0.23013902 0.3550561 -0.06305534 0.33635604 0.24167126 0.31426173 -0.029513061
0.41347313 0.038482726 -0.14702749 -0.34278738 -0.41531992 0.006184876 -0.19501853 -0.16898108
-0.16110992 -0.3443451 0.41444653 -0.3416186 0.3056841 -0.022761285 0.025323272 0.48363268
0.4408825 0.022046268 0.4743606 -0.47277558 -0.40494037 -0.21441406 -0.23298085 -0.3418787

weight f4 [76, 1, 3, 3]
00000000: 5358 8abe 3bae f5bc 74f5 9e3e 77cf 823e
00000010: 8064 f43c 8b45 ae3d 6cfb a13d 5f26 803e
00000020: 37cb a0bd 6101 a43e c864 bb3d 4df5 34be
00000030: 4518 843e bf1c aebe 7038 663e 2514 bc3b
00000040: e2d2 a03d 735a 93be 49d2 493e 1792 64be
00000050: 35a9 a3bc f763 ab3b 6949 8abe ec1e a4bd
00000060: ac96 483d bb18 9fbe e1c9 af3d 430d 8f3a
00000070: bc84 9ebe 77b4 43be 4cf2 50bd ce37 87bd
00000080: 55cc 94be fb09 973e 5735 7e3b 9be3 92bd
00000090: 28a8 8ebd 63f7 f2bd 1478 023e 5a8e 71bb
000000a0: 5177 1abf 1ee0 8c3c f5b6 913e df2d 5dbe
000000b0: 11c1 71bd 1ed6 15be d211 2a3e fc25 3e3e
000000c0: 33cd 353e 4c7a 4c3e bc41 7f3e 21b2 473d
000000d0: d6fc 8e3d 2da0 47bd 1479 88bd 8271 9fbe
000000e0: 248e f03d c661 33be 4eaf 9bbe 52f0 febd
000000f0: 3212 af3e f85c 8d3e 09f1 193e 39b3 4cbe
00000100: a0d9 b63d a46d 353d b85f 183e ff14 713e
00000110: 5cad cfbc 1f31 5abd 4ddd a63d 5fb9 ea3d
00000120: cf65 913c 9965 a53d e21f e83e 638a a1bd
00000130: f4c9 83be ae84 57bd 7e0f 803d b66f 7f3e
00000140: eeea 46be e1cc 7e3e d890 78be 45cb 2abe
00000150: b7a5 1ebe 2dab 583e e1ba 843d bcf9 60be
00000160: 36e7 653e 5aff 1dbe d326 2bbd cf01 a3be
00000170: 63e7 a3be 72a0 c7bd d6b0 833e 7f2a a23b
00000180: 25d6 4f3e fe5c 3abe 08d7 8bbe 43cf 27be
00000190: 04d0 293e 2f0f e03c 7b8e 60be 3b19 1d3e
000001a0: 6e81 4bbe 1754 1bbe dbfd 6e3e 036f 87be
000001b0: 43e3 c03d aca9 d83d 2cb0 163c 2d84 8e3c
000001c0: cf5a 4fbe d340 bdbc 458b 83bc 1eb3 9ebe
000001d0: eba7 19be ead2 6dbd 8a58 1b3e a939 e9bd
000001e0: f63f c93d 2d53 c03d dc3f 913e 6321 76bd
000001f0: 7ec5 1bbe 3216 e83d c903 7ebe eddd 723e
00000200: 5920 d13e 7eb4 8ebe ad6f a63e 6de3 34be
00000210: 439f 7d3c 09b7 523e 85d6 64be cd98 143e
00000220: c1e5 02be 3a3d 823e 836b 533e bf72 e3bc
00000230: 58d4 303e 8721 c4be 0a30 31be c612 0e3e
00000240: 1744 e5ba 74f6 f93d 1f52 69be 3126 163e
00000250: 32cc 323e b8f4 533e 6d08 20be 3fda a33e
00000260: 90a8 8d3e 4ca6 573d 49c2 963e 1990 adbe
00000270: 7f9e e9bd 7f6a 5b3e 7ed8 173e 7cf1 bd3c
00000280: 04bd 57be 750f 1f3e 2472 4b3e 7175 4fbe
00000290: 8308 f9bc b303 8dbe 5b71 37bd 8c52 65be
000002a0: 326d 253e cd33 ae3e dddb 56be bb89 6a3e
000002b0: b94c e2bd 8e49 8e3d 9514 de3d d361 22be
000002c0: fee5 2c3e fe10 b8be cfa6 70bd ef0e a4be
000002d0: 8de2 433e 809f 583c 74f7 49bd ae33 3e3e
000002e0: c312 903d 754f 21be 7827 b8be ddec 0e3e
000002f0: 35b5 253e 5965 8bbe 084e 29bd 01de 393e
00000300: 7ab1 82be 9727 b53d a807 fabd 6e6e 413e
00000310: a9a6 723e 8e78 ff3d c0d0 993e 90db 5f3e
00000320: 1426 973c 3808 91be 74c6 2f3e dabf 34bd
00000330: e1f6 83bd b5ab ca3c 21ab 7cbe 9ae5 0cbe
00000340: dcaf 5fbd 2bc1 83be f385 193e b563 bd3d
00000350: 6240 cb3e a3f9 fbbd 8472 973e bb74 41bb
00000360: fa5d 173e 9c7a c3ba e6ad 883d db1d 663e
00000370: 311d d73d 8003 f9bd 9357 c3bd faf6 703e
00000380: 3495 a53e 7528 8f3d 2dd8 7bbe e538 433e
00000390: 63c5 95be 7215 e7bd fb98 243f 51a4 19bd
000003a0: dac9 75bd 2ced a03d 49fd b7be 9d9c 643e
000003b0: afbd 803e 25bc 173d 8123 873e 9c55 da3d
000003c0: e2a0 f3bd 9656 43be de98 13bd 6260 88be
000003d0: 26ea d7bc 5c34 593d 43ea a33d afab c53d
000003e0: 1fe2 b6be 09ba 613e 044c 92bd 41b8 81be
000003f0: 9054 7cbe e01d b43e 31f6 893d 47fd a9be
-0.2702051 -0.029990306 0.3104664 0.25548908 0.029833078 0.08509358 0.07909283 0.25029275
-0.0785126 0.32032302 0.09150082 -0.176717 0.25799766 -0.34006307 0.22482467 0.005739706
0.07852723 -0.28779945 0.19709124 -0.22321354 -0.019978145 0.0052304226 -0.27009133 -0.080137104
0.048971817 -0.31073555 0.08583427 0.0010913986 -0.30960643 -0.1911181 -0.051012322 -0.06602441
-0.29062143 0.29499802 0.0038789117 -0.071723185 -0.06965667 -0.118635915 0.12741119 -0.003685853
-0.6033831 0.017196711 0.28459898 -0.2159953 -0.059022013 -0.1463246 0.1660836 0.18569177
0.17754059 0.19968528 0.2492742 0.04875386 0.069818184 -0.04873674 -0.06663719 -0.31141287
0.11745861 -0.17517766 -0.30407184 -0.12448181 0.3419357 0.27609992 0.15033354 -0.19990243
0.089282274 0.044294015 0.14880264 0.23543166 -0.025351219 -0.0532695 0.081476785 0.11461138
0.017748741 0.08076019 0.45336825 -0.07887723 -0.25740016 -0.052616768 0.06252955 0.24944958
-0.19425556 0.24882843 -0.24274004 -0.16679104 -0.15492903 0.21159048 0.06480957 -0.21970266
0.22451481 -0.1542944 -0.041785073 -0.31837317 -0.32012472 -0.097473994 0.25720853 0.0049489136
0.20296533 -0.18199536 -0.27312493 -0.16387658 0.16583258 0.02735099 -0.21929352 0.15341656
-0.19873592 -0.15168796 0.23339026 -0.26451883 0.09418347 0.10579237 0.009197276 0.01739701
-0.20249484 -0.0231022 -0.01605762 -0.3099603 -0.15005462 -0.05806247 0.15170494 -0.11387951
0.09826653 0.093908645 0.28369033 -0.060090434 -0.15212056 0.113323584 -0.24806131 0.2371747
0.40844992 -0.2787208 0.32507077 -0.17664881 0.0154798655 0.20577635 -0.22347458 0.14511414
-0.12782957 0.25437337 0.20646481 -0.027764676 0.17268503 -0.3830683 -0.17303482 0.13874349
-0.0017491606 0.1220521 -0.22785233 0.14663006 0.17460707 0.20698822 -0.15628214 0.32002446
0.27667665 0.052648827 0.29445103 -0.33899 -0.11407184 0.21427344 0.14828679 0.023186438
-0.21068197 0.1553324 0.1986776 -0.20259644 -0.030399567 -0.27541885 -0.04478584 -0.2239477
0.16154936 0.34023896 -0.20982309 0.22904103 -0.1104979 0.06947623 0.108437695 -0.1585763
0.1688461 -0.35950464 -0.05875283 -0.32042643 0.19129391 0.0132216215 -0.049308255 0.18574402
0.070348285 -0.15752967 -0.35967612 0.13957544 0.16182406 -0.2722576 -0.041334182 0.18151094
-0.2552603 0.08845442 -0.122084916 0.18889782 0.23696388 0.12474166 0.30042076 0.218611
0.018450774 -0.28326583 0.17165548 -0.044128276 -0.06443573 0.02474008 -0.24674655 -0.13759461
-0.054611072 -0.25733313 0.14992504 0.09247533 0.39697558 -0.12303474 0.29579556 -0.002951904
0.14781943 -0.001491386 0.066737935 0.22472326 0.10503615 -0.12158871 -0.09538188 0.23531714
0.32340395 0.069901384 -0.24594183 0.19064672 -0.29252157 -0.11283387 0.6429593 -0.03751022
-0.060006954 0.07857737 -0.3593543 0.22325368 0.25144717 0.037044663 0.26394275 0.1066086
-0.1189592 -0.19075999 -0.036034457 -0.26636034 -0.026356768 0.05302845 0.08003666 0.09651887
-0.35719392 0.22043623 -0.07143405 -0.25335887 -0.24641633 0.35179043 0.067364104 -0.33201048

bias f4 [76]
00000000: c25c 4ebe 311e 15be 02b5 a33e 9fb3 613e
00000010: ca80 3f3e d1a5 5ebe 779b 7bbd bfb1 37be
00000020: ec43 5dbe 9f6e 3d3e 0fd1 893e 9c15 6a3e
00000030: 513b 433d 3566 02be a666 5abe cd81 1abe
00000040: 791b 9abe 134f 09bd 8044 6f3e 176a 3c3e
00000050: 5385 ddbd 626e f8bd 9a6a d5bd facd 8fbe
00000060: 29e7 b1be 0a64 52be 6ed0 18be 5bcb 343e
00000070: 304c 4d3e 40dc 943e 6a09 89be 827d a03e
00000080: 2a5f 7fbe 3e57 563d 3382 46bd 5b59 f3bd
00000090: 23c2 23be 757d 8d3d a469 15be ecf0 89be
000000a0: d220 453e 971d 363e b60f 5bbd 0421 8cbe
000000b0: 8bfc 49be 634e 9e3e 35ee 923e c848 81be
000000c0: 1710 213e 5241 973e 4c8e a43e 8361 1bbe
000000d0: 99f8 a93e 18af 57be b1b3 72bc b4a3 aa3e
000000e0: 4a71 09be f207 523e 2179 3abe 686f 383c
000000f0: 8939 b13c a271 45bd cd95 59be 3abf b33e
00000100: 11cd 40be 175a 4dbe 9bbd 27be ec1d 97bd
00000110: d942 94be d5cc 03be fe9e 833e b3d9 af3e
00000120: 65bc 96bd a82e 823e 8a94 a7be e515 993d
-0.20152572 -0.14562298 0.31974036 0.22041176 0.18701473 -0.21742941 -0.06142756 -0.17938899
-0.21607941 0.1849923 0.26917312 0.22859806 0.04766399 -0.12734301 -0.2132822 -0.15088578
-0.30099085 -0.033522677 0.23365974 0.18399845 -0.10816445 -0.12130429 -0.10420723 -0.28086835
-0.34746674 -0.20545974 -0.1492326 0.17655699 0.20048594 0.29074287 -0.26764995 0.31345755
-0.24938646 0.052329294 -0.04846401 -0.118822776 -0.15992026 0.06908695 -0.1459108 -0.2694162
0.19250801 0.17784725 -0.05348178 -0.2736894 -0.19725244 0.3091918 0.28697363 -0.2525084
0.15728794 0.29542023 0.32139814 -0.15173917 0.33197477 -0.21062887 -0.01481335 0.3332802
-0.13422123 0.20510843 -0.1821027 0.01125703 0.02163388 -0.04820407 -0.2124855 0.35106832
-0.18828227 -0.20053898 -0.16380922 -0.07378754 -0.2895725 -0.12871106 0.2570724 0.3434578
-0.07360152 0.2542622 -0.32730514 0.07474879

weight f4 [38, 76, 2, 2]
00000000: 3b2a 44bd 7ffd 473d 4124 ac3d 3ec7 2abd
00000010: 2736 c8bb 2bc4 c1bd 844f a03c 46dd a3bc
00000020: 63ba bd3d 6168 a4bc f52c 1e3c ce64 a0bb
00000030: fd26 b5bd a75a 70bd f2b0 43bd 95d3 bfbd
00000040: 4242 14be 175e 813e 8c55 5b3e bc14 5e3d
00000050: 8b91 7e3b 1fa0 4c3d 7d03 813d db23 133d
00000060: f500 b3bd 3886 0cbd e033 5cbd 560c 90be
00000070: f306 f3bd 94b3 13bd ad7d 02be b2dc 7c3b
00000080: a00e 56bf 64b3 06bf ccd7 a9be 26b3 22bf
00000090: d054 50bd 84de af3d fd64 323d a0dd 833d
000000a0: 1e53 62be 5342 17be 5ce3 14be 0137 a5bd
000000b0: dc21 d4bd 4e55 773d 6595 c03b 25cf 9abd
000000c0: 0dba 213c b4ee 493d dc7d 3f3b 8100 d03c
000000d0: eb48 d53d fae5 0d3b bbfb 473d 14db b63c
000000e0: d1ba 7ebd 9365 8f3d b2a6 9a3e 8345 4d3e
000000f0: 5c0a 86bd 4eb0 c0bd e92a b9bd be10 03be
00000100: c1e0 3fbc 0392 45bd affd bfbc 4d9a 003d
00000110: 4657 32bd 8ab4 06bd 0230 68bd fb75 1f3d
00000120: 8d07 66bd bd3f 403c 9b69 b4bc ac27 143d
00000130: 4009 8bbd 3509 7cbd e362 7bbd 4f22 91bd
00000140: 612c 5fbc 0850 a63c d3c9 f8bc f654 9d3c
00000150: 3efa b23c 815d 88bc 9440 c83b 692b ebbb
00000160: 7570 3fbe 2eac 953c 8bf1 37bd f035 b93d
00000170: 6e11 76bc f9cc 813c 92c1 e1be a18e c9be
00000180: 6eb2 74bd 6bb0 85bb 77fb a6bc 9853 efbc
00000190: fa68 a13e f04a cebe 508f 6f3e d922 d7be
000001a0: cca9 493c af47 e9bd 7f6f 8fb6 3937 05be
000001b0: 6134 90bd 8610 4c3d 15bd 03bd 1b75 2bbc
000001c0: f678 1abd b8d7 963d 0b03 3d3d 7b69 963e
000001d0: 766f a0bd a1e3 80bd f05e d0bd 9d5c 2bbe
000001e0: d6b0 05bd 5466 8a3c aae3 123c 5b9e 913d
000001f0: 4bd1 1c3e 10a2 cf3d b1f5 553e e9a5 b23d
00000200: 356a 1d3d 3eff 143e ceb9 8cbd db13 9e3b
00000210: 07fd 19be 55cc bf3d 43c9 423e ba48 103e
00000220: 09e4 06be 4d07 92bc 01fc 63be bd39 c83d
00000230: 3003 18bd feef bf3c 5f10 833c a33f 3e3c
00000240: 4b5e 89bc 6a49 2b3d e4fe 6c3d 82ca 4e3c
00000250: fcfe 65bd 083e 02bd 3208 373d a630 473c
00000260: 29d1 12bd 6b72 89bd 5cd6 623d afe4 9a3d
00000270: 4bb3 563d b69b 633d c0cf c9bc 4b7f cc3a
00000280: 8a2a 9abd d481 8a3c bb67 6ebd e4cd eb3c
00000290: cf07 773c c624 94bd 886a 403d e850 e43d
000002a0: 69df b13b 1e5c e43b 17de 473d 7d82 82bc
000002b0: c2c3 903b 91ad 41bd 77b4 e8bc aecd 7fbd
000002c0: cb8e f13d 0a23 533d 3289 62bd 11bb a4bb
000002d0: 9c9b f43d c756 14bd 0781 233e 7eb6 9ebc
000002e0: 5ebc 52bd b99a ea3c 7f3f dbbb ae16 56bd
000002f0: 2eeb ae39 1b67 0cbe 5976 c6bd 479c c1bd
00000300: 12de 873d eee7 3bbb 46a7 02bd 948f 4d3c
00000310: ca69 a43c 9c79 323c c071 d2bb 4c62 953a
00000320: a57b 093d 0aa7 b4bd e374 2c3c 4065 3cbb
00000330: 2da8 58bd 23c4 1bbd fb44 82bd 6385 053c
00000340: d47d 3b3b fe83 b2bc 1065 8bbc b07d d93b
00000350: c99c 4cbb 8f8b 1c3d c0c7 4bbe 2692 96be
00000360: 956c 273d 9266 f13c 31f5 9b3d ded2 383d
00000370: c1af 853d 3864 d4bd 1500 063d 3794 07bd
00000380: cce1 05bc e0a5 853b 3ead 3f3d 286b 4a3d
00000390: 9670 17bc eba5 25bd fe93 5fbd d521 4f3d
000003a0: 00d4 32bc feb6 33bd e658 bfbd c6dd 9e3d
000003b0: 4a96 1fbd 314a a2be 0713 373e 06b4 ec3e
000003c0: 3c13 4bbc 9e44 0a3d 1fb4 383c f294 423d
000003d0: 2775 d4bb 9cb4 4ebd f9f3 53bd ad98 4abd
000003e0: c61d 8c3d 54ca 8dbe ce3a 9d3d 8462 04be
000003f0: e4f4 8bbb 184d b0bc 0a99 913c ce6a 6abd
-0.047891837 0.048825737 0.084053524 -0.04169392 -0.006109971 -0.09461244 0.019569166 -0.020002972
0.09264066 -0.020069303 0.009654273 -0.0048948294 -0.08845327 -0.058680203 -0.04777617 -0.09366528
-0.144784 0.25267097 0.21419352 0.054218993 0.0038844075 0.04995739 0.062994935 0.035922866
-0.08740417 -0.03430769 -0.05376041 -0.28134412 -0.1186656 -0.03605993 -0.12743254 0.0038583693
-0.83616066 -0.5261748 -0.33172452 -0.6355461 -0.050862134 0.08587363 0.04355334 0.06438756
-0.22102019 -0.14771394 -0.14539856 -0.08067132 -0.10358021 0.060384087 0.005877184 -0.07559041
0.009871018 0.04929991 0.0029219305 0.025390865 0.104142986 0.002165197 0.048824053 0.022321261
-0.06218988 0.070017956 0.30205303 0.20046048 -0.06544945 -0.094086275 -0.090413876 -0.12799355
-0.0117113 -0.04823495 -0.023436395 0.031397153 -0.04354026 -0.03288702 -0.05668641 0.038930874
-0.056159545 0.011733946 -0.022023013 0.036170647 -0.06788874 -0.061532218 -0.061373603 -0.07086622
-0.013621421 0.020301834 -0.030369675 0.019205552 0.02184784 -0.016646149 0.006111214 -0.0071768058
-0.18695243 0.018270578 -0.044908088 0.09043491 -0.015018804 0.015844809 -0.44092995 -0.3936663
-0.059740476 -0.0040798686 -0.02038358 -0.029214665 0.31525403 -0.40291548 0.23394513 -0.42018774
0.012308549 -0.11390626 -4.274712e-06 -0.13009347 -0.070412405 0.049820445 -0.032162745 -0.010464932
-0.037713014 0.07365364 0.04614548 0.2937735 -0.078337595 -0.06293417 -0.10174358 -0.16734548
-0.032639347 0.016894497 0.008965412 0.07110282 0.15314214 0.10138333 0.20894505 0.08723051
0.038431365 0.14550492 -0.06871377 0.0048241443 -0.15037929 0.09365145 0.19022088 0.14090243
-0.13172926 -0.017825747 -0.222641 0.09776638 -0.037112415 0.023429867 0.015999017 0.011611852
-0.016768595 0.04181806 0.05786027 0.012621524 -0.056151375 -0.03179744 0.04468555 0.012157595
-0.035844002 -0.067112766 0.05538021 0.07563149 0.05241708 0.05556842 -0.024635196 0.0015601901
-0.07527645 0.01690761 -0.058204394 0.0287847 0.015077545 -0.072335765 0.046976596 0.11148244
0.005428244 0.006968989 0.048795786 -0.015931362 0.0044178674 -0.047284666 -0.028406365 -0.06245201
0.11794814 0.051547088 -0.05530662 -0.005027183 0.11943743 -0.03621557 0.15967189 -0.019374128
-0.051449172 0.02863823 -0.006690919 -0.052267723 0.0003336309 -0.13711207 -0.09690542 -0.09453636
0.066341534 -0.0028672176 -0.031897806 0.012546439 0.020069975 0.010893252 -0.0064222515 0.0011397093
0.033565182 -0.08820923 0.010525915 -0.0028746873 -0.05289476 -0.038028847 -0.06360813 0.008149478
0.0028608935 -0.021791454 -0.017015964 0.0066372976 -0.003122138 0.03821903 -0.19900417 -0.29408377
0.040875036 0.029467855 0.07615126 0.045122974 0.06527663 -0.10370678 0.032714922 -0.033100333
-0.00817151 0.0040786117 0.046796076 0.0494186 -0.009243151 -0.040441435 -0.054584496 0.050569374
-0.010914803 -0.043875687 -0.09343128 0.07757144 -0.038961686 -0.3169723 0.17878352 0.46231097
-0.012394723 0.033756845 0.011273413 0.047505327 -0.006483692 -0.05046521 -0.051746342 -0.04946201
0.06841616 -0.27693427 0.07677232 -0.12928206 -0.0042711366 -0.021521136 0.01777317 -0.057230763

bias f4 [38]
00000000: 6fee 703d 0448 593d 2e27 e83c e7bd 9abc
00000010: dd24 afb9 3948 88bc 0783 6b3d f81a 833d
00000020: 6771 98bd a3f0 433d 5301 e03d 5a82 f2bc
00000030: 1856 ed3b d68e 533d 5837 473c 27a4 3ebd
00000040: f7de 9cbb 8fe7 953a 2495 59bd da8b c23b
00000050: c4ca 06bb 05e3 553d 78f5 2e3d a9f7 0dbd
00000060: fc52 9abb 59f6 ae3c 5544 b0bd ae2f 8b3d
00000070: 7ab1 d03c b5a1 ed3d e69f 7cbd 5e85 113d
00000080: 6403 723d d0d9 53bd dae7 1eba c28a bd3c
00000090: fb78 783d 273c 7dbd
0.058821138 0.053047195 0.028338995 -0.01888938 -0.00033406066 -0.016636001 0.057498004 0.06401628
-0.07443505 0.04783691 0.109377526 -0.029603172 0.007242929 0.05164989 0.012159191 -0.046543267
-0.0047873217 0.0011436808 -0.053120747 0.0059370818 -0.0020567635 0.052218456 0.042714566 -0.034660015
-0.0047095995 0.021357702 -0.08606783 0.067962036 0.025475252 0.11603109 -0.06167593 0.03552758
0.059085265 -0.051721394 -0.000606177 0.023137454 0.06066225 -0.061824944
